HloModule jit_loss.9581

%primitive_computation_add__1.114 (parameter.115: f32[], parameter.116: f32[]) -> f32[] {
  %parameter.115 = f32[] parameter(0)
  %parameter.116 = f32[] parameter(1)
  ROOT %add.117 = f32[] add(f32[] %parameter.115, f32[] %parameter.116)
}

%primitive_computation_add__1.249 (parameter.250: f32[], parameter.251: f32[]) -> f32[] {
  %parameter.250 = f32[] parameter(0)
  %parameter.251 = f32[] parameter(1)
  ROOT %add.252 = f32[] add(f32[] %parameter.250, f32[] %parameter.251)
}

%primitive_computation_add__1.253 (parameter.254: f32[], parameter.255: f32[]) -> f32[] {
  %parameter.254 = f32[] parameter(0)
  %parameter.255 = f32[] parameter(1)
  ROOT %add.256 = f32[] add(f32[] %parameter.254, f32[] %parameter.255)
}

%primitive_computation_add__1.257 (parameter.258: f32[], parameter.259: f32[]) -> f32[] {
  %parameter.258 = f32[] parameter(0)
  %parameter.259 = f32[] parameter(1)
  ROOT %add.260 = f32[] add(f32[] %parameter.258, f32[] %parameter.259)
}

%primitive_computation_add__1.261 (parameter.262: f32[], parameter.263: f32[]) -> f32[] {
  %parameter.262 = f32[] parameter(0)
  %parameter.263 = f32[] parameter(1)
  ROOT %add.264 = f32[] add(f32[] %parameter.262, f32[] %parameter.263)
}

%body_computation.265 (parameter.266: (u32[2,2], f32[2,16], f32[2,16], f32[2,3,3,8,16], f32[2,16], /*index=5*/f32[2,16], f32[2,1,1,16,16], f32[2,8], f32[2,8], s32[], /*index=10*/f32[16,32,32,8], pred[], pred[], pred[], pred[], /*index=15*/pred[], pred[], pred[], pred[], pred[], /*index=20*/f32[2,16,32,32,8], f32[2,16,32,32,8], f32[2,16,32,32,8], f32[2,16,32,32,8], f32[2,3,3,8,16], /*index=25*/f32[2,16,32,32,8], f32[2,1,1,1,16], f32[2,3,3,8,16], f32[2,16], f32[2,1,1,1,16], /*index=30*/f32[2,16,32,32,16], f32[2,16,32,32,16], f32[2,16,32,32,16], f32[2,16,32,32,16], f32[2,16,32,32,16], /*index=35*/f32[2,1,1,16,16], f32[2,16,32,32,16], f32[2,1,1,1,16], f32[2,1,1,16,16], f32[2,16], /*index=40*/f32[2,1,1,1,16], f32[2,16,32,32,16], f32[2,16,32,32,8], f32[2,16,32,32,8], f32[2,16,32,32,8], /*index=45*/f32[2,16,32,32,8], f32[2,16,32,32,8], f32[2,16,32,32,8], f32[2,16,1,1,8], f32[2,16,32,32,8], /*index=50*/f32[2,16,1024,8], f32[2,16,8], f32[2,16,8], f32[2,1,1,1,8], f32[2,16,32,32,8])) -> (u32[2,2], f32[2,16], f32[2,16], f32[2,3,3,8,16], f32[2,16], /*index=5*/f32[2,16], f32[2,1,1,16,16], f32[2,8], f32[2,8], s32[], /*index=10*/f32[16,32,32,8], pred[], pred[], pred[], pred[], /*index=15*/pred[], pred[], pred[], pred[], pred[], /*index=20*/f32[2,16,32,32,8], f32[2,16,32,32,8], f32[2,16,32,32,8], f32[2,16,32,32,8], f32[2,3,3,8,16], /*index=25*/f32[2,16,32,32,8], f32[2,1,1,1,16], f32[2,3,3,8,16], f32[2,16], f32[2,1,1,1,16], /*index=30*/f32[2,16,32,32,16], f32[2,16,32,32,16], f32[2,16,32,32,16], f32[2,16,32,32,16], f32[2,16,32,32,16], /*index=35*/f32[2,1,1,16,16], f32[2,16,32,32,16], f32[2,1,1,1,16], f32[2,1,1,16,16], f32[2,16], /*index=40*/f32[2,1,1,1,16], f32[2,16,32,32,16], f32[2,16,32,32,8], f32[2,16,32,32,8], f32[2,16,32,32,8], /*index=45*/f32[2,16,32,32,8], f32[2,16,32,32,8], f32[2,16,32,32,8], f32[2,16,1,1,8], f32[2,16,32,32,8], /*index=50*/f32[2,16,1024,8], f32[2,16,8], f32[2,16,8], f32[2,1,1,1,8], f32[2,16,32,32,8]) {
  %parameter.266 = (u32[2,2]{1,0}, f32[2,16]{1,0}, f32[2,16]{1,0}, f32[2,3,3,8,16]{4,3,2,1,0}, f32[2,16]{1,0}, /*index=5*/f32[2,16]{1,0}, f32[2,1,1,16,16]{4,3,2,1,0}, f32[2,8]{1,0}, f32[2,8]{1,0}, s32[], /*index=10*/f32[16,32,32,8]{3,2,1,0}, pred[], pred[], pred[], pred[], /*index=15*/pred[], pred[], pred[], pred[], pred[], /*index=20*/f32[2,16,32,32,8]{4,3,2,1,0}, f32[2,16,32,32,8]{4,3,2,1,0}, f32[2,16,32,32,8]{4,3,2,1,0}, f32[2,16,32,32,8]{4,3,2,1,0}, f32[2,3,3,8,16]{4,3,2,1,0}, /*index=25*/f32[2,16,32,32,8]{4,3,2,1,0}, f32[2,1,1,1,16]{4,3,2,1,0}, f32[2,3,3,8,16]{4,3,2,1,0}, f32[2,16]{1,0}, f32[2,1,1,1,16]{4,3,2,1,0}, /*index=30*/f32[2,16,32,32,16]{4,3,2,1,0}, f32[2,16,32,32,16]{4,3,2,1,0}, f32[2,16,32,32,16]{4,3,2,1,0}, f32[2,16,32,32,16]{4,3,2,1,0}, f32[2,16,32,32,16]{4,3,2,1,0}, /*index=35*/f32[2,1,1,16,16]{4,3,2,1,0}, f32[2,16,32,32,16]{4,3,2,1,0}, f32[2,1,1,1,16]{4,3,2,1,0}, f32[2,1,1,16,16]{4,3,2,1,0}, f32[2,16]{1,0}, /*index=40*/f32[2,1,1,1,16]{4,3,2,1,0}, f32[2,16,32,32,16]{4,3,2,1,0}, f32[2,16,32,32,8]{4,3,2,1,0}, f32[2,16,32,32,8]{4,3,2,1,0}, f32[2,16,32,32,8]{4,3,2,1,0}, /*index=45*/f32[2,16,32,32,8]{4,3,2,1,0}, f32[2,16,32,32,8]{4,3,2,1,0}, f32[2,16,32,32,8]{4,3,2,1,0}, f32[2,16,1,1,8]{4,3,2,1,0}, f32[2,16,32,32,8]{4,3,2,1,0}, /*index=50*/f32[2,16,1024,8]{3,2,1,0}, f32[2,16,8]{2,1,0}, f32[2,16,8]{2,1,0}, f32[2,1,1,1,8]{4,3,2,1,0}, f32[2,16,32,32,8]{4,3,2,1,0}) parameter(0)
  %get-tuple-element.278 = pred[] get-tuple-element((u32[2,2]{1,0}, f32[2,16]{1,0}, f32[2,16]{1,0}, f32[2,3,3,8,16]{4,3,2,1,0}, f32[2,16]{1,0}, /*index=5*/f32[2,16]{1,0}, f32[2,1,1,16,16]{4,3,2,1,0}, f32[2,8]{1,0}, f32[2,8]{1,0}, s32[], /*index=10*/f32[16,32,32,8]{3,2,1,0}, pred[], pred[], pred[], pred[], /*index=15*/pred[], pred[], pred[], pred[], pred[], /*index=20*/f32[2,16,32,32,8]{4,3,2,1,0}, f32[2,16,32,32,8]{4,3,2,1,0}, f32[2,16,32,32,8]{4,3,2,1,0}, f32[2,16,32,32,8]{4,3,2,1,0}, f32[2,3,3,8,16]{4,3,2,1,0}, /*index=25*/f32[2,16,32,32,8]{4,3,2,1,0}, f32[2,1,1,1,16]{4,3,2,1,0}, f32[2,3,3,8,16]{4,3,2,1,0}, f32[2,16]{1,0}, f32[2,1,1,1,16]{4,3,2,1,0}, /*index=30*/f32[2,16,32,32,16]{4,3,2,1,0}, f32[2,16,32,32,16]{4,3,2,1,0}, f32[2,16,32,32,16]{4,3,2,1,0}, f32[2,16,32,32,16]{4,3,2,1,0}, f32[2,16,32,32,16]{4,3,2,1,0}, /*index=35*/f32[2,1,1,16,16]{4,3,2,1,0}, f32[2,16,32,32,16]{4,3,2,1,0}, f32[2,1,1,1,16]{4,3,2,1,0}, f32[2,1,1,16,16]{4,3,2,1,0}, f32[2,16]{1,0}, /*index=40*/f32[2,1,1,1,16]{4,3,2,1,0}, f32[2,16,32,32,16]{4,3,2,1,0}, f32[2,16,32,32,8]{4,3,2,1,0}, f32[2,16,32,32,8]{4,3,2,1,0}, f32[2,16,32,32,8]{4,3,2,1,0}, /*index=45*/f32[2,16,32,32,8]{4,3,2,1,0}, f32[2,16,32,32,8]{4,3,2,1,0}, f32[2,16,32,32,8]{4,3,2,1,0}, f32[2,16,1,1,8]{4,3,2,1,0}, f32[2,16,32,32,8]{4,3,2,1,0}, /*index=50*/f32[2,16,1024,8]{3,2,1,0}, f32[2,16,8]{2,1,0}, f32[2,16,8]{2,1,0}, f32[2,1,1,1,8]{4,3,2,1,0}, f32[2,16,32,32,8]{4,3,2,1,0}) %parameter.266), index=11
  %get-tuple-element.279 = pred[] get-tuple-element((u32[2,2]{1,0}, f32[2,16]{1,0}, f32[2,16]{1,0}, f32[2,3,3,8,16]{4,3,2,1,0}, f32[2,16]{1,0}, /*index=5*/f32[2,16]{1,0}, f32[2,1,1,16,16]{4,3,2,1,0}, f32[2,8]{1,0}, f32[2,8]{1,0}, s32[], /*index=10*/f32[16,32,32,8]{3,2,1,0}, pred[], pred[], pred[], pred[], /*index=15*/pred[], pred[], pred[], pred[], pred[], /*index=20*/f32[2,16,32,32,8]{4,3,2,1,0}, f32[2,16,32,32,8]{4,3,2,1,0}, f32[2,16,32,32,8]{4,3,2,1,0}, f32[2,16,32,32,8]{4,3,2,1,0}, f32[2,3,3,8,16]{4,3,2,1,0}, /*index=25*/f32[2,16,32,32,8]{4,3,2,1,0}, f32[2,1,1,1,16]{4,3,2,1,0}, f32[2,3,3,8,16]{4,3,2,1,0}, f32[2,16]{1,0}, f32[2,1,1,1,16]{4,3,2,1,0}, /*index=30*/f32[2,16,32,32,16]{4,3,2,1,0}, f32[2,16,32,32,16]{4,3,2,1,0}, f32[2,16,32,32,16]{4,3,2,1,0}, f32[2,16,32,32,16]{4,3,2,1,0}, f32[2,16,32,32,16]{4,3,2,1,0}, /*index=35*/f32[2,1,1,16,16]{4,3,2,1,0}, f32[2,16,32,32,16]{4,3,2,1,0}, f32[2,1,1,1,16]{4,3,2,1,0}, f32[2,1,1,16,16]{4,3,2,1,0}, f32[2,16]{1,0}, /*index=40*/f32[2,1,1,1,16]{4,3,2,1,0}, f32[2,16,32,32,16]{4,3,2,1,0}, f32[2,16,32,32,8]{4,3,2,1,0}, f32[2,16,32,32,8]{4,3,2,1,0}, f32[2,16,32,32,8]{4,3,2,1,0}, /*index=45*/f32[2,16,32,32,8]{4,3,2,1,0}, f32[2,16,32,32,8]{4,3,2,1,0}, f32[2,16,32,32,8]{4,3,2,1,0}, f32[2,16,1,1,8]{4,3,2,1,0}, f32[2,16,32,32,8]{4,3,2,1,0}, /*index=50*/f32[2,16,1024,8]{3,2,1,0}, f32[2,16,8]{2,1,0}, f32[2,16,8]{2,1,0}, f32[2,1,1,1,8]{4,3,2,1,0}, f32[2,16,32,32,8]{4,3,2,1,0}) %parameter.266), index=12
  %get-tuple-element.280 = pred[] get-tuple-element((u32[2,2]{1,0}, f32[2,16]{1,0}, f32[2,16]{1,0}, f32[2,3,3,8,16]{4,3,2,1,0}, f32[2,16]{1,0}, /*index=5*/f32[2,16]{1,0}, f32[2,1,1,16,16]{4,3,2,1,0}, f32[2,8]{1,0}, f32[2,8]{1,0}, s32[], /*index=10*/f32[16,32,32,8]{3,2,1,0}, pred[], pred[], pred[], pred[], /*index=15*/pred[], pred[], pred[], pred[], pred[], /*index=20*/f32[2,16,32,32,8]{4,3,2,1,0}, f32[2,16,32,32,8]{4,3,2,1,0}, f32[2,16,32,32,8]{4,3,2,1,0}, f32[2,16,32,32,8]{4,3,2,1,0}, f32[2,3,3,8,16]{4,3,2,1,0}, /*index=25*/f32[2,16,32,32,8]{4,3,2,1,0}, f32[2,1,1,1,16]{4,3,2,1,0}, f32[2,3,3,8,16]{4,3,2,1,0}, f32[2,16]{1,0}, f32[2,1,1,1,16]{4,3,2,1,0}, /*index=30*/f32[2,16,32,32,16]{4,3,2,1,0}, f32[2,16,32,32,16]{4,3,2,1,0}, f32[2,16,32,32,16]{4,3,2,1,0}, f32[2,16,32,32,16]{4,3,2,1,0}, f32[2,16,32,32,16]{4,3,2,1,0}, /*index=35*/f32[2,1,1,16,16]{4,3,2,1,0}, f32[2,16,32,32,16]{4,3,2,1,0}, f32[2,1,1,1,16]{4,3,2,1,0}, f32[2,1,1,16,16]{4,3,2,1,0}, f32[2,16]{1,0}, /*index=40*/f32[2,1,1,1,16]{4,3,2,1,0}, f32[2,16,32,32,16]{4,3,2,1,0}, f32[2,16,32,32,8]{4,3,2,1,0}, f32[2,16,32,32,8]{4,3,2,1,0}, f32[2,16,32,32,8]{4,3,2,1,0}, /*index=45*/f32[2,16,32,32,8]{4,3,2,1,0}, f32[2,16,32,32,8]{4,3,2,1,0}, f32[2,16,32,32,8]{4,3,2,1,0}, f32[2,16,1,1,8]{4,3,2,1,0}, f32[2,16,32,32,8]{4,3,2,1,0}, /*index=50*/f32[2,16,1024,8]{3,2,1,0}, f32[2,16,8]{2,1,0}, f32[2,16,8]{2,1,0}, f32[2,1,1,1,8]{4,3,2,1,0}, f32[2,16,32,32,8]{4,3,2,1,0}) %parameter.266), index=13
  %get-tuple-element.281 = pred[] get-tuple-element((u32[2,2]{1,0}, f32[2,16]{1,0}, f32[2,16]{1,0}, f32[2,3,3,8,16]{4,3,2,1,0}, f32[2,16]{1,0}, /*index=5*/f32[2,16]{1,0}, f32[2,1,1,16,16]{4,3,2,1,0}, f32[2,8]{1,0}, f32[2,8]{1,0}, s32[], /*index=10*/f32[16,32,32,8]{3,2,1,0}, pred[], pred[], pred[], pred[], /*index=15*/pred[], pred[], pred[], pred[], pred[], /*index=20*/f32[2,16,32,32,8]{4,3,2,1,0}, f32[2,16,32,32,8]{4,3,2,1,0}, f32[2,16,32,32,8]{4,3,2,1,0}, f32[2,16,32,32,8]{4,3,2,1,0}, f32[2,3,3,8,16]{4,3,2,1,0}, /*index=25*/f32[2,16,32,32,8]{4,3,2,1,0}, f32[2,1,1,1,16]{4,3,2,1,0}, f32[2,3,3,8,16]{4,3,2,1,0}, f32[2,16]{1,0}, f32[2,1,1,1,16]{4,3,2,1,0}, /*index=30*/f32[2,16,32,32,16]{4,3,2,1,0}, f32[2,16,32,32,16]{4,3,2,1,0}, f32[2,16,32,32,16]{4,3,2,1,0}, f32[2,16,32,32,16]{4,3,2,1,0}, f32[2,16,32,32,16]{4,3,2,1,0}, /*index=35*/f32[2,1,1,16,16]{4,3,2,1,0}, f32[2,16,32,32,16]{4,3,2,1,0}, f32[2,1,1,1,16]{4,3,2,1,0}, f32[2,1,1,16,16]{4,3,2,1,0}, f32[2,16]{1,0}, /*index=40*/f32[2,1,1,1,16]{4,3,2,1,0}, f32[2,16,32,32,16]{4,3,2,1,0}, f32[2,16,32,32,8]{4,3,2,1,0}, f32[2,16,32,32,8]{4,3,2,1,0}, f32[2,16,32,32,8]{4,3,2,1,0}, /*index=45*/f32[2,16,32,32,8]{4,3,2,1,0}, f32[2,16,32,32,8]{4,3,2,1,0}, f32[2,16,32,32,8]{4,3,2,1,0}, f32[2,16,1,1,8]{4,3,2,1,0}, f32[2,16,32,32,8]{4,3,2,1,0}, /*index=50*/f32[2,16,1024,8]{3,2,1,0}, f32[2,16,8]{2,1,0}, f32[2,16,8]{2,1,0}, f32[2,1,1,1,8]{4,3,2,1,0}, f32[2,16,32,32,8]{4,3,2,1,0}) %parameter.266), index=14
  %get-tuple-element.282 = pred[] get-tuple-element((u32[2,2]{1,0}, f32[2,16]{1,0}, f32[2,16]{1,0}, f32[2,3,3,8,16]{4,3,2,1,0}, f32[2,16]{1,0}, /*index=5*/f32[2,16]{1,0}, f32[2,1,1,16,16]{4,3,2,1,0}, f32[2,8]{1,0}, f32[2,8]{1,0}, s32[], /*index=10*/f32[16,32,32,8]{3,2,1,0}, pred[], pred[], pred[], pred[], /*index=15*/pred[], pred[], pred[], pred[], pred[], /*index=20*/f32[2,16,32,32,8]{4,3,2,1,0}, f32[2,16,32,32,8]{4,3,2,1,0}, f32[2,16,32,32,8]{4,3,2,1,0}, f32[2,16,32,32,8]{4,3,2,1,0}, f32[2,3,3,8,16]{4,3,2,1,0}, /*index=25*/f32[2,16,32,32,8]{4,3,2,1,0}, f32[2,1,1,1,16]{4,3,2,1,0}, f32[2,3,3,8,16]{4,3,2,1,0}, f32[2,16]{1,0}, f32[2,1,1,1,16]{4,3,2,1,0}, /*index=30*/f32[2,16,32,32,16]{4,3,2,1,0}, f32[2,16,32,32,16]{4,3,2,1,0}, f32[2,16,32,32,16]{4,3,2,1,0}, f32[2,16,32,32,16]{4,3,2,1,0}, f32[2,16,32,32,16]{4,3,2,1,0}, /*index=35*/f32[2,1,1,16,16]{4,3,2,1,0}, f32[2,16,32,32,16]{4,3,2,1,0}, f32[2,1,1,1,16]{4,3,2,1,0}, f32[2,1,1,16,16]{4,3,2,1,0}, f32[2,16]{1,0}, /*index=40*/f32[2,1,1,1,16]{4,3,2,1,0}, f32[2,16,32,32,16]{4,3,2,1,0}, f32[2,16,32,32,8]{4,3,2,1,0}, f32[2,16,32,32,8]{4,3,2,1,0}, f32[2,16,32,32,8]{4,3,2,1,0}, /*index=45*/f32[2,16,32,32,8]{4,3,2,1,0}, f32[2,16,32,32,8]{4,3,2,1,0}, f32[2,16,32,32,8]{4,3,2,1,0}, f32[2,16,1,1,8]{4,3,2,1,0}, f32[2,16,32,32,8]{4,3,2,1,0}, /*index=50*/f32[2,16,1024,8]{3,2,1,0}, f32[2,16,8]{2,1,0}, f32[2,16,8]{2,1,0}, f32[2,1,1,1,8]{4,3,2,1,0}, f32[2,16,32,32,8]{4,3,2,1,0}) %parameter.266), index=15
  %get-tuple-element.283 = pred[] get-tuple-element((u32[2,2]{1,0}, f32[2,16]{1,0}, f32[2,16]{1,0}, f32[2,3,3,8,16]{4,3,2,1,0}, f32[2,16]{1,0}, /*index=5*/f32[2,16]{1,0}, f32[2,1,1,16,16]{4,3,2,1,0}, f32[2,8]{1,0}, f32[2,8]{1,0}, s32[], /*index=10*/f32[16,32,32,8]{3,2,1,0}, pred[], pred[], pred[], pred[], /*index=15*/pred[], pred[], pred[], pred[], pred[], /*index=20*/f32[2,16,32,32,8]{4,3,2,1,0}, f32[2,16,32,32,8]{4,3,2,1,0}, f32[2,16,32,32,8]{4,3,2,1,0}, f32[2,16,32,32,8]{4,3,2,1,0}, f32[2,3,3,8,16]{4,3,2,1,0}, /*index=25*/f32[2,16,32,32,8]{4,3,2,1,0}, f32[2,1,1,1,16]{4,3,2,1,0}, f32[2,3,3,8,16]{4,3,2,1,0}, f32[2,16]{1,0}, f32[2,1,1,1,16]{4,3,2,1,0}, /*index=30*/f32[2,16,32,32,16]{4,3,2,1,0}, f32[2,16,32,32,16]{4,3,2,1,0}, f32[2,16,32,32,16]{4,3,2,1,0}, f32[2,16,32,32,16]{4,3,2,1,0}, f32[2,16,32,32,16]{4,3,2,1,0}, /*index=35*/f32[2,1,1,16,16]{4,3,2,1,0}, f32[2,16,32,32,16]{4,3,2,1,0}, f32[2,1,1,1,16]{4,3,2,1,0}, f32[2,1,1,16,16]{4,3,2,1,0}, f32[2,16]{1,0}, /*index=40*/f32[2,1,1,1,16]{4,3,2,1,0}, f32[2,16,32,32,16]{4,3,2,1,0}, f32[2,16,32,32,8]{4,3,2,1,0}, f32[2,16,32,32,8]{4,3,2,1,0}, f32[2,16,32,32,8]{4,3,2,1,0}, /*index=45*/f32[2,16,32,32,8]{4,3,2,1,0}, f32[2,16,32,32,8]{4,3,2,1,0}, f32[2,16,32,32,8]{4,3,2,1,0}, f32[2,16,1,1,8]{4,3,2,1,0}, f32[2,16,32,32,8]{4,3,2,1,0}, /*index=50*/f32[2,16,1024,8]{3,2,1,0}, f32[2,16,8]{2,1,0}, f32[2,16,8]{2,1,0}, f32[2,1,1,1,8]{4,3,2,1,0}, f32[2,16,32,32,8]{4,3,2,1,0}) %parameter.266), index=16
  %get-tuple-element.284 = pred[] get-tuple-element((u32[2,2]{1,0}, f32[2,16]{1,0}, f32[2,16]{1,0}, f32[2,3,3,8,16]{4,3,2,1,0}, f32[2,16]{1,0}, /*index=5*/f32[2,16]{1,0}, f32[2,1,1,16,16]{4,3,2,1,0}, f32[2,8]{1,0}, f32[2,8]{1,0}, s32[], /*index=10*/f32[16,32,32,8]{3,2,1,0}, pred[], pred[], pred[], pred[], /*index=15*/pred[], pred[], pred[], pred[], pred[], /*index=20*/f32[2,16,32,32,8]{4,3,2,1,0}, f32[2,16,32,32,8]{4,3,2,1,0}, f32[2,16,32,32,8]{4,3,2,1,0}, f32[2,16,32,32,8]{4,3,2,1,0}, f32[2,3,3,8,16]{4,3,2,1,0}, /*index=25*/f32[2,16,32,32,8]{4,3,2,1,0}, f32[2,1,1,1,16]{4,3,2,1,0}, f32[2,3,3,8,16]{4,3,2,1,0}, f32[2,16]{1,0}, f32[2,1,1,1,16]{4,3,2,1,0}, /*index=30*/f32[2,16,32,32,16]{4,3,2,1,0}, f32[2,16,32,32,16]{4,3,2,1,0}, f32[2,16,32,32,16]{4,3,2,1,0}, f32[2,16,32,32,16]{4,3,2,1,0}, f32[2,16,32,32,16]{4,3,2,1,0}, /*index=35*/f32[2,1,1,16,16]{4,3,2,1,0}, f32[2,16,32,32,16]{4,3,2,1,0}, f32[2,1,1,1,16]{4,3,2,1,0}, f32[2,1,1,16,16]{4,3,2,1,0}, f32[2,16]{1,0}, /*index=40*/f32[2,1,1,1,16]{4,3,2,1,0}, f32[2,16,32,32,16]{4,3,2,1,0}, f32[2,16,32,32,8]{4,3,2,1,0}, f32[2,16,32,32,8]{4,3,2,1,0}, f32[2,16,32,32,8]{4,3,2,1,0}, /*index=45*/f32[2,16,32,32,8]{4,3,2,1,0}, f32[2,16,32,32,8]{4,3,2,1,0}, f32[2,16,32,32,8]{4,3,2,1,0}, f32[2,16,1,1,8]{4,3,2,1,0}, f32[2,16,32,32,8]{4,3,2,1,0}, /*index=50*/f32[2,16,1024,8]{3,2,1,0}, f32[2,16,8]{2,1,0}, f32[2,16,8]{2,1,0}, f32[2,1,1,1,8]{4,3,2,1,0}, f32[2,16,32,32,8]{4,3,2,1,0}) %parameter.266), index=17
  %get-tuple-element.285 = pred[] get-tuple-element((u32[2,2]{1,0}, f32[2,16]{1,0}, f32[2,16]{1,0}, f32[2,3,3,8,16]{4,3,2,1,0}, f32[2,16]{1,0}, /*index=5*/f32[2,16]{1,0}, f32[2,1,1,16,16]{4,3,2,1,0}, f32[2,8]{1,0}, f32[2,8]{1,0}, s32[], /*index=10*/f32[16,32,32,8]{3,2,1,0}, pred[], pred[], pred[], pred[], /*index=15*/pred[], pred[], pred[], pred[], pred[], /*index=20*/f32[2,16,32,32,8]{4,3,2,1,0}, f32[2,16,32,32,8]{4,3,2,1,0}, f32[2,16,32,32,8]{4,3,2,1,0}, f32[2,16,32,32,8]{4,3,2,1,0}, f32[2,3,3,8,16]{4,3,2,1,0}, /*index=25*/f32[2,16,32,32,8]{4,3,2,1,0}, f32[2,1,1,1,16]{4,3,2,1,0}, f32[2,3,3,8,16]{4,3,2,1,0}, f32[2,16]{1,0}, f32[2,1,1,1,16]{4,3,2,1,0}, /*index=30*/f32[2,16,32,32,16]{4,3,2,1,0}, f32[2,16,32,32,16]{4,3,2,1,0}, f32[2,16,32,32,16]{4,3,2,1,0}, f32[2,16,32,32,16]{4,3,2,1,0}, f32[2,16,32,32,16]{4,3,2,1,0}, /*index=35*/f32[2,1,1,16,16]{4,3,2,1,0}, f32[2,16,32,32,16]{4,3,2,1,0}, f32[2,1,1,1,16]{4,3,2,1,0}, f32[2,1,1,16,16]{4,3,2,1,0}, f32[2,16]{1,0}, /*index=40*/f32[2,1,1,1,16]{4,3,2,1,0}, f32[2,16,32,32,16]{4,3,2,1,0}, f32[2,16,32,32,8]{4,3,2,1,0}, f32[2,16,32,32,8]{4,3,2,1,0}, f32[2,16,32,32,8]{4,3,2,1,0}, /*index=45*/f32[2,16,32,32,8]{4,3,2,1,0}, f32[2,16,32,32,8]{4,3,2,1,0}, f32[2,16,32,32,8]{4,3,2,1,0}, f32[2,16,1,1,8]{4,3,2,1,0}, f32[2,16,32,32,8]{4,3,2,1,0}, /*index=50*/f32[2,16,1024,8]{3,2,1,0}, f32[2,16,8]{2,1,0}, f32[2,16,8]{2,1,0}, f32[2,1,1,1,8]{4,3,2,1,0}, f32[2,16,32,32,8]{4,3,2,1,0}) %parameter.266), index=18
  %get-tuple-element.286 = pred[] get-tuple-element((u32[2,2]{1,0}, f32[2,16]{1,0}, f32[2,16]{1,0}, f32[2,3,3,8,16]{4,3,2,1,0}, f32[2,16]{1,0}, /*index=5*/f32[2,16]{1,0}, f32[2,1,1,16,16]{4,3,2,1,0}, f32[2,8]{1,0}, f32[2,8]{1,0}, s32[], /*index=10*/f32[16,32,32,8]{3,2,1,0}, pred[], pred[], pred[], pred[], /*index=15*/pred[], pred[], pred[], pred[], pred[], /*index=20*/f32[2,16,32,32,8]{4,3,2,1,0}, f32[2,16,32,32,8]{4,3,2,1,0}, f32[2,16,32,32,8]{4,3,2,1,0}, f32[2,16,32,32,8]{4,3,2,1,0}, f32[2,3,3,8,16]{4,3,2,1,0}, /*index=25*/f32[2,16,32,32,8]{4,3,2,1,0}, f32[2,1,1,1,16]{4,3,2,1,0}, f32[2,3,3,8,16]{4,3,2,1,0}, f32[2,16]{1,0}, f32[2,1,1,1,16]{4,3,2,1,0}, /*index=30*/f32[2,16,32,32,16]{4,3,2,1,0}, f32[2,16,32,32,16]{4,3,2,1,0}, f32[2,16,32,32,16]{4,3,2,1,0}, f32[2,16,32,32,16]{4,3,2,1,0}, f32[2,16,32,32,16]{4,3,2,1,0}, /*index=35*/f32[2,1,1,16,16]{4,3,2,1,0}, f32[2,16,32,32,16]{4,3,2,1,0}, f32[2,1,1,1,16]{4,3,2,1,0}, f32[2,1,1,16,16]{4,3,2,1,0}, f32[2,16]{1,0}, /*index=40*/f32[2,1,1,1,16]{4,3,2,1,0}, f32[2,16,32,32,16]{4,3,2,1,0}, f32[2,16,32,32,8]{4,3,2,1,0}, f32[2,16,32,32,8]{4,3,2,1,0}, f32[2,16,32,32,8]{4,3,2,1,0}, /*index=45*/f32[2,16,32,32,8]{4,3,2,1,0}, f32[2,16,32,32,8]{4,3,2,1,0}, f32[2,16,32,32,8]{4,3,2,1,0}, f32[2,16,1,1,8]{4,3,2,1,0}, f32[2,16,32,32,8]{4,3,2,1,0}, /*index=50*/f32[2,16,1024,8]{3,2,1,0}, f32[2,16,8]{2,1,0}, f32[2,16,8]{2,1,0}, f32[2,1,1,1,8]{4,3,2,1,0}, f32[2,16,32,32,8]{4,3,2,1,0}) %parameter.266), index=19
  %constant.322 = pred[] constant(false)
  %get-tuple-element.267 = u32[2,2]{1,0} get-tuple-element((u32[2,2]{1,0}, f32[2,16]{1,0}, f32[2,16]{1,0}, f32[2,3,3,8,16]{4,3,2,1,0}, f32[2,16]{1,0}, /*index=5*/f32[2,16]{1,0}, f32[2,1,1,16,16]{4,3,2,1,0}, f32[2,8]{1,0}, f32[2,8]{1,0}, s32[], /*index=10*/f32[16,32,32,8]{3,2,1,0}, pred[], pred[], pred[], pred[], /*index=15*/pred[], pred[], pred[], pred[], pred[], /*index=20*/f32[2,16,32,32,8]{4,3,2,1,0}, f32[2,16,32,32,8]{4,3,2,1,0}, f32[2,16,32,32,8]{4,3,2,1,0}, f32[2,16,32,32,8]{4,3,2,1,0}, f32[2,3,3,8,16]{4,3,2,1,0}, /*index=25*/f32[2,16,32,32,8]{4,3,2,1,0}, f32[2,1,1,1,16]{4,3,2,1,0}, f32[2,3,3,8,16]{4,3,2,1,0}, f32[2,16]{1,0}, f32[2,1,1,1,16]{4,3,2,1,0}, /*index=30*/f32[2,16,32,32,16]{4,3,2,1,0}, f32[2,16,32,32,16]{4,3,2,1,0}, f32[2,16,32,32,16]{4,3,2,1,0}, f32[2,16,32,32,16]{4,3,2,1,0}, f32[2,16,32,32,16]{4,3,2,1,0}, /*index=35*/f32[2,1,1,16,16]{4,3,2,1,0}, f32[2,16,32,32,16]{4,3,2,1,0}, f32[2,1,1,1,16]{4,3,2,1,0}, f32[2,1,1,16,16]{4,3,2,1,0}, f32[2,16]{1,0}, /*index=40*/f32[2,1,1,1,16]{4,3,2,1,0}, f32[2,16,32,32,16]{4,3,2,1,0}, f32[2,16,32,32,8]{4,3,2,1,0}, f32[2,16,32,32,8]{4,3,2,1,0}, f32[2,16,32,32,8]{4,3,2,1,0}, /*index=45*/f32[2,16,32,32,8]{4,3,2,1,0}, f32[2,16,32,32,8]{4,3,2,1,0}, f32[2,16,32,32,8]{4,3,2,1,0}, f32[2,16,1,1,8]{4,3,2,1,0}, f32[2,16,32,32,8]{4,3,2,1,0}, /*index=50*/f32[2,16,1024,8]{3,2,1,0}, f32[2,16,8]{2,1,0}, f32[2,16,8]{2,1,0}, f32[2,1,1,1,8]{4,3,2,1,0}, f32[2,16,32,32,8]{4,3,2,1,0}) %parameter.266), index=0
  %get-tuple-element.276 = s32[] get-tuple-element((u32[2,2]{1,0}, f32[2,16]{1,0}, f32[2,16]{1,0}, f32[2,3,3,8,16]{4,3,2,1,0}, f32[2,16]{1,0}, /*index=5*/f32[2,16]{1,0}, f32[2,1,1,16,16]{4,3,2,1,0}, f32[2,8]{1,0}, f32[2,8]{1,0}, s32[], /*index=10*/f32[16,32,32,8]{3,2,1,0}, pred[], pred[], pred[], pred[], /*index=15*/pred[], pred[], pred[], pred[], pred[], /*index=20*/f32[2,16,32,32,8]{4,3,2,1,0}, f32[2,16,32,32,8]{4,3,2,1,0}, f32[2,16,32,32,8]{4,3,2,1,0}, f32[2,16,32,32,8]{4,3,2,1,0}, f32[2,3,3,8,16]{4,3,2,1,0}, /*index=25*/f32[2,16,32,32,8]{4,3,2,1,0}, f32[2,1,1,1,16]{4,3,2,1,0}, f32[2,3,3,8,16]{4,3,2,1,0}, f32[2,16]{1,0}, f32[2,1,1,1,16]{4,3,2,1,0}, /*index=30*/f32[2,16,32,32,16]{4,3,2,1,0}, f32[2,16,32,32,16]{4,3,2,1,0}, f32[2,16,32,32,16]{4,3,2,1,0}, f32[2,16,32,32,16]{4,3,2,1,0}, f32[2,16,32,32,16]{4,3,2,1,0}, /*index=35*/f32[2,1,1,16,16]{4,3,2,1,0}, f32[2,16,32,32,16]{4,3,2,1,0}, f32[2,1,1,1,16]{4,3,2,1,0}, f32[2,1,1,16,16]{4,3,2,1,0}, f32[2,16]{1,0}, /*index=40*/f32[2,1,1,1,16]{4,3,2,1,0}, f32[2,16,32,32,16]{4,3,2,1,0}, f32[2,16,32,32,8]{4,3,2,1,0}, f32[2,16,32,32,8]{4,3,2,1,0}, f32[2,16,32,32,8]{4,3,2,1,0}, /*index=45*/f32[2,16,32,32,8]{4,3,2,1,0}, f32[2,16,32,32,8]{4,3,2,1,0}, f32[2,16,32,32,8]{4,3,2,1,0}, f32[2,16,1,1,8]{4,3,2,1,0}, f32[2,16,32,32,8]{4,3,2,1,0}, /*index=50*/f32[2,16,1024,8]{3,2,1,0}, f32[2,16,8]{2,1,0}, f32[2,16,8]{2,1,0}, f32[2,1,1,1,8]{4,3,2,1,0}, f32[2,16,32,32,8]{4,3,2,1,0}) %parameter.266), index=9
  %constant.323 = s32[] constant(0)
  %compare.324 = pred[] compare(s32[] %get-tuple-element.276, s32[] %constant.323), direction=LT
  %constant.325 = s32[] constant(2)
  %add.326 = s32[] add(s32[] %get-tuple-element.276, s32[] %constant.325)
  %select.327 = s32[] select(pred[] %compare.324, s32[] %add.326, s32[] %get-tuple-element.276)
  %constant.328 = s32[] constant(0)
  %constant.329 = s32[] constant(0)
  %compare.330 = pred[] compare(s32[] %constant.328, s32[] %constant.329), direction=LT
  %constant.331 = s32[] constant(0)
  %constant.332 = s32[] constant(2)
  %add.333 = s32[] add(s32[] %constant.331, s32[] %constant.332)
  %constant.334 = s32[] constant(0)
  %select.335 = s32[] select(pred[] %compare.330, s32[] %add.333, s32[] %constant.334)
  %dynamic-slice.336 = u32[1,2]{1,0} dynamic-slice(u32[2,2]{1,0} %get-tuple-element.267, s32[] %select.327, s32[] %select.335), dynamic_slice_sizes={1,2}
  %reshape.337 = u32[2]{0} reshape(u32[1,2]{1,0} %dynamic-slice.336)
  %get-tuple-element.268 = f32[2,16]{1,0} get-tuple-element((u32[2,2]{1,0}, f32[2,16]{1,0}, f32[2,16]{1,0}, f32[2,3,3,8,16]{4,3,2,1,0}, f32[2,16]{1,0}, /*index=5*/f32[2,16]{1,0}, f32[2,1,1,16,16]{4,3,2,1,0}, f32[2,8]{1,0}, f32[2,8]{1,0}, s32[], /*index=10*/f32[16,32,32,8]{3,2,1,0}, pred[], pred[], pred[], pred[], /*index=15*/pred[], pred[], pred[], pred[], pred[], /*index=20*/f32[2,16,32,32,8]{4,3,2,1,0}, f32[2,16,32,32,8]{4,3,2,1,0}, f32[2,16,32,32,8]{4,3,2,1,0}, f32[2,16,32,32,8]{4,3,2,1,0}, f32[2,3,3,8,16]{4,3,2,1,0}, /*index=25*/f32[2,16,32,32,8]{4,3,2,1,0}, f32[2,1,1,1,16]{4,3,2,1,0}, f32[2,3,3,8,16]{4,3,2,1,0}, f32[2,16]{1,0}, f32[2,1,1,1,16]{4,3,2,1,0}, /*index=30*/f32[2,16,32,32,16]{4,3,2,1,0}, f32[2,16,32,32,16]{4,3,2,1,0}, f32[2,16,32,32,16]{4,3,2,1,0}, f32[2,16,32,32,16]{4,3,2,1,0}, f32[2,16,32,32,16]{4,3,2,1,0}, /*index=35*/f32[2,1,1,16,16]{4,3,2,1,0}, f32[2,16,32,32,16]{4,3,2,1,0}, f32[2,1,1,1,16]{4,3,2,1,0}, f32[2,1,1,16,16]{4,3,2,1,0}, f32[2,16]{1,0}, /*index=40*/f32[2,1,1,1,16]{4,3,2,1,0}, f32[2,16,32,32,16]{4,3,2,1,0}, f32[2,16,32,32,8]{4,3,2,1,0}, f32[2,16,32,32,8]{4,3,2,1,0}, f32[2,16,32,32,8]{4,3,2,1,0}, /*index=45*/f32[2,16,32,32,8]{4,3,2,1,0}, f32[2,16,32,32,8]{4,3,2,1,0}, f32[2,16,32,32,8]{4,3,2,1,0}, f32[2,16,1,1,8]{4,3,2,1,0}, f32[2,16,32,32,8]{4,3,2,1,0}, /*index=50*/f32[2,16,1024,8]{3,2,1,0}, f32[2,16,8]{2,1,0}, f32[2,16,8]{2,1,0}, f32[2,1,1,1,8]{4,3,2,1,0}, f32[2,16,32,32,8]{4,3,2,1,0}) %parameter.266), index=1
  %get-tuple-element.269 = f32[2,16]{1,0} get-tuple-element((u32[2,2]{1,0}, f32[2,16]{1,0}, f32[2,16]{1,0}, f32[2,3,3,8,16]{4,3,2,1,0}, f32[2,16]{1,0}, /*index=5*/f32[2,16]{1,0}, f32[2,1,1,16,16]{4,3,2,1,0}, f32[2,8]{1,0}, f32[2,8]{1,0}, s32[], /*index=10*/f32[16,32,32,8]{3,2,1,0}, pred[], pred[], pred[], pred[], /*index=15*/pred[], pred[], pred[], pred[], pred[], /*index=20*/f32[2,16,32,32,8]{4,3,2,1,0}, f32[2,16,32,32,8]{4,3,2,1,0}, f32[2,16,32,32,8]{4,3,2,1,0}, f32[2,16,32,32,8]{4,3,2,1,0}, f32[2,3,3,8,16]{4,3,2,1,0}, /*index=25*/f32[2,16,32,32,8]{4,3,2,1,0}, f32[2,1,1,1,16]{4,3,2,1,0}, f32[2,3,3,8,16]{4,3,2,1,0}, f32[2,16]{1,0}, f32[2,1,1,1,16]{4,3,2,1,0}, /*index=30*/f32[2,16,32,32,16]{4,3,2,1,0}, f32[2,16,32,32,16]{4,3,2,1,0}, f32[2,16,32,32,16]{4,3,2,1,0}, f32[2,16,32,32,16]{4,3,2,1,0}, f32[2,16,32,32,16]{4,3,2,1,0}, /*index=35*/f32[2,1,1,16,16]{4,3,2,1,0}, f32[2,16,32,32,16]{4,3,2,1,0}, f32[2,1,1,1,16]{4,3,2,1,0}, f32[2,1,1,16,16]{4,3,2,1,0}, f32[2,16]{1,0}, /*index=40*/f32[2,1,1,1,16]{4,3,2,1,0}, f32[2,16,32,32,16]{4,3,2,1,0}, f32[2,16,32,32,8]{4,3,2,1,0}, f32[2,16,32,32,8]{4,3,2,1,0}, f32[2,16,32,32,8]{4,3,2,1,0}, /*index=45*/f32[2,16,32,32,8]{4,3,2,1,0}, f32[2,16,32,32,8]{4,3,2,1,0}, f32[2,16,32,32,8]{4,3,2,1,0}, f32[2,16,1,1,8]{4,3,2,1,0}, f32[2,16,32,32,8]{4,3,2,1,0}, /*index=50*/f32[2,16,1024,8]{3,2,1,0}, f32[2,16,8]{2,1,0}, f32[2,16,8]{2,1,0}, f32[2,1,1,1,8]{4,3,2,1,0}, f32[2,16,32,32,8]{4,3,2,1,0}) %parameter.266), index=2
  %get-tuple-element.270 = f32[2,3,3,8,16]{4,3,2,1,0} get-tuple-element((u32[2,2]{1,0}, f32[2,16]{1,0}, f32[2,16]{1,0}, f32[2,3,3,8,16]{4,3,2,1,0}, f32[2,16]{1,0}, /*index=5*/f32[2,16]{1,0}, f32[2,1,1,16,16]{4,3,2,1,0}, f32[2,8]{1,0}, f32[2,8]{1,0}, s32[], /*index=10*/f32[16,32,32,8]{3,2,1,0}, pred[], pred[], pred[], pred[], /*index=15*/pred[], pred[], pred[], pred[], pred[], /*index=20*/f32[2,16,32,32,8]{4,3,2,1,0}, f32[2,16,32,32,8]{4,3,2,1,0}, f32[2,16,32,32,8]{4,3,2,1,0}, f32[2,16,32,32,8]{4,3,2,1,0}, f32[2,3,3,8,16]{4,3,2,1,0}, /*index=25*/f32[2,16,32,32,8]{4,3,2,1,0}, f32[2,1,1,1,16]{4,3,2,1,0}, f32[2,3,3,8,16]{4,3,2,1,0}, f32[2,16]{1,0}, f32[2,1,1,1,16]{4,3,2,1,0}, /*index=30*/f32[2,16,32,32,16]{4,3,2,1,0}, f32[2,16,32,32,16]{4,3,2,1,0}, f32[2,16,32,32,16]{4,3,2,1,0}, f32[2,16,32,32,16]{4,3,2,1,0}, f32[2,16,32,32,16]{4,3,2,1,0}, /*index=35*/f32[2,1,1,16,16]{4,3,2,1,0}, f32[2,16,32,32,16]{4,3,2,1,0}, f32[2,1,1,1,16]{4,3,2,1,0}, f32[2,1,1,16,16]{4,3,2,1,0}, f32[2,16]{1,0}, /*index=40*/f32[2,1,1,1,16]{4,3,2,1,0}, f32[2,16,32,32,16]{4,3,2,1,0}, f32[2,16,32,32,8]{4,3,2,1,0}, f32[2,16,32,32,8]{4,3,2,1,0}, f32[2,16,32,32,8]{4,3,2,1,0}, /*index=45*/f32[2,16,32,32,8]{4,3,2,1,0}, f32[2,16,32,32,8]{4,3,2,1,0}, f32[2,16,32,32,8]{4,3,2,1,0}, f32[2,16,1,1,8]{4,3,2,1,0}, f32[2,16,32,32,8]{4,3,2,1,0}, /*index=50*/f32[2,16,1024,8]{3,2,1,0}, f32[2,16,8]{2,1,0}, f32[2,16,8]{2,1,0}, f32[2,1,1,1,8]{4,3,2,1,0}, f32[2,16,32,32,8]{4,3,2,1,0}) %parameter.266), index=3
  %get-tuple-element.271 = f32[2,16]{1,0} get-tuple-element((u32[2,2]{1,0}, f32[2,16]{1,0}, f32[2,16]{1,0}, f32[2,3,3,8,16]{4,3,2,1,0}, f32[2,16]{1,0}, /*index=5*/f32[2,16]{1,0}, f32[2,1,1,16,16]{4,3,2,1,0}, f32[2,8]{1,0}, f32[2,8]{1,0}, s32[], /*index=10*/f32[16,32,32,8]{3,2,1,0}, pred[], pred[], pred[], pred[], /*index=15*/pred[], pred[], pred[], pred[], pred[], /*index=20*/f32[2,16,32,32,8]{4,3,2,1,0}, f32[2,16,32,32,8]{4,3,2,1,0}, f32[2,16,32,32,8]{4,3,2,1,0}, f32[2,16,32,32,8]{4,3,2,1,0}, f32[2,3,3,8,16]{4,3,2,1,0}, /*index=25*/f32[2,16,32,32,8]{4,3,2,1,0}, f32[2,1,1,1,16]{4,3,2,1,0}, f32[2,3,3,8,16]{4,3,2,1,0}, f32[2,16]{1,0}, f32[2,1,1,1,16]{4,3,2,1,0}, /*index=30*/f32[2,16,32,32,16]{4,3,2,1,0}, f32[2,16,32,32,16]{4,3,2,1,0}, f32[2,16,32,32,16]{4,3,2,1,0}, f32[2,16,32,32,16]{4,3,2,1,0}, f32[2,16,32,32,16]{4,3,2,1,0}, /*index=35*/f32[2,1,1,16,16]{4,3,2,1,0}, f32[2,16,32,32,16]{4,3,2,1,0}, f32[2,1,1,1,16]{4,3,2,1,0}, f32[2,1,1,16,16]{4,3,2,1,0}, f32[2,16]{1,0}, /*index=40*/f32[2,1,1,1,16]{4,3,2,1,0}, f32[2,16,32,32,16]{4,3,2,1,0}, f32[2,16,32,32,8]{4,3,2,1,0}, f32[2,16,32,32,8]{4,3,2,1,0}, f32[2,16,32,32,8]{4,3,2,1,0}, /*index=45*/f32[2,16,32,32,8]{4,3,2,1,0}, f32[2,16,32,32,8]{4,3,2,1,0}, f32[2,16,32,32,8]{4,3,2,1,0}, f32[2,16,1,1,8]{4,3,2,1,0}, f32[2,16,32,32,8]{4,3,2,1,0}, /*index=50*/f32[2,16,1024,8]{3,2,1,0}, f32[2,16,8]{2,1,0}, f32[2,16,8]{2,1,0}, f32[2,1,1,1,8]{4,3,2,1,0}, f32[2,16,32,32,8]{4,3,2,1,0}) %parameter.266), index=4
  %get-tuple-element.272 = f32[2,16]{1,0} get-tuple-element((u32[2,2]{1,0}, f32[2,16]{1,0}, f32[2,16]{1,0}, f32[2,3,3,8,16]{4,3,2,1,0}, f32[2,16]{1,0}, /*index=5*/f32[2,16]{1,0}, f32[2,1,1,16,16]{4,3,2,1,0}, f32[2,8]{1,0}, f32[2,8]{1,0}, s32[], /*index=10*/f32[16,32,32,8]{3,2,1,0}, pred[], pred[], pred[], pred[], /*index=15*/pred[], pred[], pred[], pred[], pred[], /*index=20*/f32[2,16,32,32,8]{4,3,2,1,0}, f32[2,16,32,32,8]{4,3,2,1,0}, f32[2,16,32,32,8]{4,3,2,1,0}, f32[2,16,32,32,8]{4,3,2,1,0}, f32[2,3,3,8,16]{4,3,2,1,0}, /*index=25*/f32[2,16,32,32,8]{4,3,2,1,0}, f32[2,1,1,1,16]{4,3,2,1,0}, f32[2,3,3,8,16]{4,3,2,1,0}, f32[2,16]{1,0}, f32[2,1,1,1,16]{4,3,2,1,0}, /*index=30*/f32[2,16,32,32,16]{4,3,2,1,0}, f32[2,16,32,32,16]{4,3,2,1,0}, f32[2,16,32,32,16]{4,3,2,1,0}, f32[2,16,32,32,16]{4,3,2,1,0}, f32[2,16,32,32,16]{4,3,2,1,0}, /*index=35*/f32[2,1,1,16,16]{4,3,2,1,0}, f32[2,16,32,32,16]{4,3,2,1,0}, f32[2,1,1,1,16]{4,3,2,1,0}, f32[2,1,1,16,16]{4,3,2,1,0}, f32[2,16]{1,0}, /*index=40*/f32[2,1,1,1,16]{4,3,2,1,0}, f32[2,16,32,32,16]{4,3,2,1,0}, f32[2,16,32,32,8]{4,3,2,1,0}, f32[2,16,32,32,8]{4,3,2,1,0}, f32[2,16,32,32,8]{4,3,2,1,0}, /*index=45*/f32[2,16,32,32,8]{4,3,2,1,0}, f32[2,16,32,32,8]{4,3,2,1,0}, f32[2,16,32,32,8]{4,3,2,1,0}, f32[2,16,1,1,8]{4,3,2,1,0}, f32[2,16,32,32,8]{4,3,2,1,0}, /*index=50*/f32[2,16,1024,8]{3,2,1,0}, f32[2,16,8]{2,1,0}, f32[2,16,8]{2,1,0}, f32[2,1,1,1,8]{4,3,2,1,0}, f32[2,16,32,32,8]{4,3,2,1,0}) %parameter.266), index=5
  %get-tuple-element.273 = f32[2,1,1,16,16]{4,3,2,1,0} get-tuple-element((u32[2,2]{1,0}, f32[2,16]{1,0}, f32[2,16]{1,0}, f32[2,3,3,8,16]{4,3,2,1,0}, f32[2,16]{1,0}, /*index=5*/f32[2,16]{1,0}, f32[2,1,1,16,16]{4,3,2,1,0}, f32[2,8]{1,0}, f32[2,8]{1,0}, s32[], /*index=10*/f32[16,32,32,8]{3,2,1,0}, pred[], pred[], pred[], pred[], /*index=15*/pred[], pred[], pred[], pred[], pred[], /*index=20*/f32[2,16,32,32,8]{4,3,2,1,0}, f32[2,16,32,32,8]{4,3,2,1,0}, f32[2,16,32,32,8]{4,3,2,1,0}, f32[2,16,32,32,8]{4,3,2,1,0}, f32[2,3,3,8,16]{4,3,2,1,0}, /*index=25*/f32[2,16,32,32,8]{4,3,2,1,0}, f32[2,1,1,1,16]{4,3,2,1,0}, f32[2,3,3,8,16]{4,3,2,1,0}, f32[2,16]{1,0}, f32[2,1,1,1,16]{4,3,2,1,0}, /*index=30*/f32[2,16,32,32,16]{4,3,2,1,0}, f32[2,16,32,32,16]{4,3,2,1,0}, f32[2,16,32,32,16]{4,3,2,1,0}, f32[2,16,32,32,16]{4,3,2,1,0}, f32[2,16,32,32,16]{4,3,2,1,0}, /*index=35*/f32[2,1,1,16,16]{4,3,2,1,0}, f32[2,16,32,32,16]{4,3,2,1,0}, f32[2,1,1,1,16]{4,3,2,1,0}, f32[2,1,1,16,16]{4,3,2,1,0}, f32[2,16]{1,0}, /*index=40*/f32[2,1,1,1,16]{4,3,2,1,0}, f32[2,16,32,32,16]{4,3,2,1,0}, f32[2,16,32,32,8]{4,3,2,1,0}, f32[2,16,32,32,8]{4,3,2,1,0}, f32[2,16,32,32,8]{4,3,2,1,0}, /*index=45*/f32[2,16,32,32,8]{4,3,2,1,0}, f32[2,16,32,32,8]{4,3,2,1,0}, f32[2,16,32,32,8]{4,3,2,1,0}, f32[2,16,1,1,8]{4,3,2,1,0}, f32[2,16,32,32,8]{4,3,2,1,0}, /*index=50*/f32[2,16,1024,8]{3,2,1,0}, f32[2,16,8]{2,1,0}, f32[2,16,8]{2,1,0}, f32[2,1,1,1,8]{4,3,2,1,0}, f32[2,16,32,32,8]{4,3,2,1,0}) %parameter.266), index=6
  %get-tuple-element.274 = f32[2,8]{1,0} get-tuple-element((u32[2,2]{1,0}, f32[2,16]{1,0}, f32[2,16]{1,0}, f32[2,3,3,8,16]{4,3,2,1,0}, f32[2,16]{1,0}, /*index=5*/f32[2,16]{1,0}, f32[2,1,1,16,16]{4,3,2,1,0}, f32[2,8]{1,0}, f32[2,8]{1,0}, s32[], /*index=10*/f32[16,32,32,8]{3,2,1,0}, pred[], pred[], pred[], pred[], /*index=15*/pred[], pred[], pred[], pred[], pred[], /*index=20*/f32[2,16,32,32,8]{4,3,2,1,0}, f32[2,16,32,32,8]{4,3,2,1,0}, f32[2,16,32,32,8]{4,3,2,1,0}, f32[2,16,32,32,8]{4,3,2,1,0}, f32[2,3,3,8,16]{4,3,2,1,0}, /*index=25*/f32[2,16,32,32,8]{4,3,2,1,0}, f32[2,1,1,1,16]{4,3,2,1,0}, f32[2,3,3,8,16]{4,3,2,1,0}, f32[2,16]{1,0}, f32[2,1,1,1,16]{4,3,2,1,0}, /*index=30*/f32[2,16,32,32,16]{4,3,2,1,0}, f32[2,16,32,32,16]{4,3,2,1,0}, f32[2,16,32,32,16]{4,3,2,1,0}, f32[2,16,32,32,16]{4,3,2,1,0}, f32[2,16,32,32,16]{4,3,2,1,0}, /*index=35*/f32[2,1,1,16,16]{4,3,2,1,0}, f32[2,16,32,32,16]{4,3,2,1,0}, f32[2,1,1,1,16]{4,3,2,1,0}, f32[2,1,1,16,16]{4,3,2,1,0}, f32[2,16]{1,0}, /*index=40*/f32[2,1,1,1,16]{4,3,2,1,0}, f32[2,16,32,32,16]{4,3,2,1,0}, f32[2,16,32,32,8]{4,3,2,1,0}, f32[2,16,32,32,8]{4,3,2,1,0}, f32[2,16,32,32,8]{4,3,2,1,0}, /*index=45*/f32[2,16,32,32,8]{4,3,2,1,0}, f32[2,16,32,32,8]{4,3,2,1,0}, f32[2,16,32,32,8]{4,3,2,1,0}, f32[2,16,1,1,8]{4,3,2,1,0}, f32[2,16,32,32,8]{4,3,2,1,0}, /*index=50*/f32[2,16,1024,8]{3,2,1,0}, f32[2,16,8]{2,1,0}, f32[2,16,8]{2,1,0}, f32[2,1,1,1,8]{4,3,2,1,0}, f32[2,16,32,32,8]{4,3,2,1,0}) %parameter.266), index=7
  %get-tuple-element.275 = f32[2,8]{1,0} get-tuple-element((u32[2,2]{1,0}, f32[2,16]{1,0}, f32[2,16]{1,0}, f32[2,3,3,8,16]{4,3,2,1,0}, f32[2,16]{1,0}, /*index=5*/f32[2,16]{1,0}, f32[2,1,1,16,16]{4,3,2,1,0}, f32[2,8]{1,0}, f32[2,8]{1,0}, s32[], /*index=10*/f32[16,32,32,8]{3,2,1,0}, pred[], pred[], pred[], pred[], /*index=15*/pred[], pred[], pred[], pred[], pred[], /*index=20*/f32[2,16,32,32,8]{4,3,2,1,0}, f32[2,16,32,32,8]{4,3,2,1,0}, f32[2,16,32,32,8]{4,3,2,1,0}, f32[2,16,32,32,8]{4,3,2,1,0}, f32[2,3,3,8,16]{4,3,2,1,0}, /*index=25*/f32[2,16,32,32,8]{4,3,2,1,0}, f32[2,1,1,1,16]{4,3,2,1,0}, f32[2,3,3,8,16]{4,3,2,1,0}, f32[2,16]{1,0}, f32[2,1,1,1,16]{4,3,2,1,0}, /*index=30*/f32[2,16,32,32,16]{4,3,2,1,0}, f32[2,16,32,32,16]{4,3,2,1,0}, f32[2,16,32,32,16]{4,3,2,1,0}, f32[2,16,32,32,16]{4,3,2,1,0}, f32[2,16,32,32,16]{4,3,2,1,0}, /*index=35*/f32[2,1,1,16,16]{4,3,2,1,0}, f32[2,16,32,32,16]{4,3,2,1,0}, f32[2,1,1,1,16]{4,3,2,1,0}, f32[2,1,1,16,16]{4,3,2,1,0}, f32[2,16]{1,0}, /*index=40*/f32[2,1,1,1,16]{4,3,2,1,0}, f32[2,16,32,32,16]{4,3,2,1,0}, f32[2,16,32,32,8]{4,3,2,1,0}, f32[2,16,32,32,8]{4,3,2,1,0}, f32[2,16,32,32,8]{4,3,2,1,0}, /*index=45*/f32[2,16,32,32,8]{4,3,2,1,0}, f32[2,16,32,32,8]{4,3,2,1,0}, f32[2,16,32,32,8]{4,3,2,1,0}, f32[2,16,1,1,8]{4,3,2,1,0}, f32[2,16,32,32,8]{4,3,2,1,0}, /*index=50*/f32[2,16,1024,8]{3,2,1,0}, f32[2,16,8]{2,1,0}, f32[2,16,8]{2,1,0}, f32[2,1,1,1,8]{4,3,2,1,0}, f32[2,16,32,32,8]{4,3,2,1,0}) %parameter.266), index=8
  %constant.1932 = s32[] constant(1)
  %add.1933 = s32[] add(s32[] %get-tuple-element.276, s32[] %constant.1932)
  %get-tuple-element.277 = f32[16,32,32,8]{3,2,1,0} get-tuple-element((u32[2,2]{1,0}, f32[2,16]{1,0}, f32[2,16]{1,0}, f32[2,3,3,8,16]{4,3,2,1,0}, f32[2,16]{1,0}, /*index=5*/f32[2,16]{1,0}, f32[2,1,1,16,16]{4,3,2,1,0}, f32[2,8]{1,0}, f32[2,8]{1,0}, s32[], /*index=10*/f32[16,32,32,8]{3,2,1,0}, pred[], pred[], pred[], pred[], /*index=15*/pred[], pred[], pred[], pred[], pred[], /*index=20*/f32[2,16,32,32,8]{4,3,2,1,0}, f32[2,16,32,32,8]{4,3,2,1,0}, f32[2,16,32,32,8]{4,3,2,1,0}, f32[2,16,32,32,8]{4,3,2,1,0}, f32[2,3,3,8,16]{4,3,2,1,0}, /*index=25*/f32[2,16,32,32,8]{4,3,2,1,0}, f32[2,1,1,1,16]{4,3,2,1,0}, f32[2,3,3,8,16]{4,3,2,1,0}, f32[2,16]{1,0}, f32[2,1,1,1,16]{4,3,2,1,0}, /*index=30*/f32[2,16,32,32,16]{4,3,2,1,0}, f32[2,16,32,32,16]{4,3,2,1,0}, f32[2,16,32,32,16]{4,3,2,1,0}, f32[2,16,32,32,16]{4,3,2,1,0}, f32[2,16,32,32,16]{4,3,2,1,0}, /*index=35*/f32[2,1,1,16,16]{4,3,2,1,0}, f32[2,16,32,32,16]{4,3,2,1,0}, f32[2,1,1,1,16]{4,3,2,1,0}, f32[2,1,1,16,16]{4,3,2,1,0}, f32[2,16]{1,0}, /*index=40*/f32[2,1,1,1,16]{4,3,2,1,0}, f32[2,16,32,32,16]{4,3,2,1,0}, f32[2,16,32,32,8]{4,3,2,1,0}, f32[2,16,32,32,8]{4,3,2,1,0}, f32[2,16,32,32,8]{4,3,2,1,0}, /*index=45*/f32[2,16,32,32,8]{4,3,2,1,0}, f32[2,16,32,32,8]{4,3,2,1,0}, f32[2,16,32,32,8]{4,3,2,1,0}, f32[2,16,1,1,8]{4,3,2,1,0}, f32[2,16,32,32,8]{4,3,2,1,0}, /*index=50*/f32[2,16,1024,8]{3,2,1,0}, f32[2,16,8]{2,1,0}, f32[2,16,8]{2,1,0}, f32[2,1,1,1,8]{4,3,2,1,0}, f32[2,16,32,32,8]{4,3,2,1,0}) %parameter.266), index=10
  %multiply.506 = f32[16,32,32,8]{3,2,1,0} multiply(f32[16,32,32,8]{3,2,1,0} %get-tuple-element.277, f32[16,32,32,8]{3,2,1,0} %get-tuple-element.277)
  %constant.507 = f32[] constant(2)
  %broadcast.508 = f32[16,32,32,8]{3,2,1,0} broadcast(f32[] %constant.507), dimensions={}
  %add.509 = f32[16,32,32,8]{3,2,1,0} add(f32[16,32,32,8]{3,2,1,0} %multiply.506, f32[16,32,32,8]{3,2,1,0} %broadcast.508)
  %rsqrt.510 = f32[16,32,32,8]{3,2,1,0} rsqrt(f32[16,32,32,8]{3,2,1,0} %add.509)
  %multiply.511 = f32[16,32,32,8]{3,2,1,0} multiply(f32[16,32,32,8]{3,2,1,0} %multiply.506, f32[16,32,32,8]{3,2,1,0} %rsqrt.510)
  %add.512 = f32[16,32,32,8]{3,2,1,0} add(f32[16,32,32,8]{3,2,1,0} %get-tuple-element.277, f32[16,32,32,8]{3,2,1,0} %multiply.511)
  %constant.513 = f32[] constant(0.5)
  %broadcast.514 = f32[16,32,32,8]{3,2,1,0} broadcast(f32[] %constant.513), dimensions={}
  %multiply.515 = f32[16,32,32,8]{3,2,1,0} multiply(f32[16,32,32,8]{3,2,1,0} %add.512, f32[16,32,32,8]{3,2,1,0} %broadcast.514)
  %constant.368 = s32[] constant(0)
  %compare.369 = pred[] compare(s32[] %get-tuple-element.276, s32[] %constant.368), direction=LT
  %constant.370 = s32[] constant(2)
  %add.371 = s32[] add(s32[] %get-tuple-element.276, s32[] %constant.370)
  %select.372 = s32[] select(pred[] %compare.369, s32[] %add.371, s32[] %get-tuple-element.276)
  %constant.373 = s32[] constant(0)
  %constant.374 = s32[] constant(0)
  %compare.375 = pred[] compare(s32[] %constant.373, s32[] %constant.374), direction=LT
  %constant.376 = s32[] constant(0)
  %constant.377 = s32[] constant(3)
  %add.378 = s32[] add(s32[] %constant.376, s32[] %constant.377)
  %constant.379 = s32[] constant(0)
  %select.380 = s32[] select(pred[] %compare.375, s32[] %add.378, s32[] %constant.379)
  %constant.381 = s32[] constant(0)
  %constant.382 = s32[] constant(0)
  %compare.383 = pred[] compare(s32[] %constant.381, s32[] %constant.382), direction=LT
  %constant.384 = s32[] constant(0)
  %constant.385 = s32[] constant(3)
  %add.386 = s32[] add(s32[] %constant.384, s32[] %constant.385)
  %constant.387 = s32[] constant(0)
  %select.388 = s32[] select(pred[] %compare.383, s32[] %add.386, s32[] %constant.387)
  %constant.389 = s32[] constant(0)
  %constant.390 = s32[] constant(0)
  %compare.391 = pred[] compare(s32[] %constant.389, s32[] %constant.390), direction=LT
  %constant.392 = s32[] constant(0)
  %constant.393 = s32[] constant(8)
  %add.394 = s32[] add(s32[] %constant.392, s32[] %constant.393)
  %constant.395 = s32[] constant(0)
  %select.396 = s32[] select(pred[] %compare.391, s32[] %add.394, s32[] %constant.395)
  %constant.397 = s32[] constant(0)
  %constant.398 = s32[] constant(0)
  %compare.399 = pred[] compare(s32[] %constant.397, s32[] %constant.398), direction=LT
  %constant.400 = s32[] constant(0)
  %constant.401 = s32[] constant(16)
  %add.402 = s32[] add(s32[] %constant.400, s32[] %constant.401)
  %constant.403 = s32[] constant(0)
  %select.404 = s32[] select(pred[] %compare.399, s32[] %add.402, s32[] %constant.403)
  %dynamic-slice.405 = f32[1,3,3,8,16]{4,3,2,1,0} dynamic-slice(f32[2,3,3,8,16]{4,3,2,1,0} %get-tuple-element.270, s32[] %select.372, s32[] %select.380, s32[] %select.388, s32[] %select.396, /*index=5*/s32[] %select.404), dynamic_slice_sizes={1,3,3,8,16}
  %reshape.406 = f32[3,3,8,16]{3,2,1,0} reshape(f32[1,3,3,8,16]{4,3,2,1,0} %dynamic-slice.405)
  %multiply.516 = f32[3,3,8,16]{3,2,1,0} multiply(f32[3,3,8,16]{3,2,1,0} %reshape.406, f32[3,3,8,16]{3,2,1,0} %reshape.406)
  %constant.517 = f32[] constant(0)
  %reduce.518 = f32[16]{0} reduce(f32[3,3,8,16]{3,2,1,0} %multiply.516, f32[] %constant.517), dimensions={0,1,2}, to_apply=%primitive_computation_add__1.249
  %rsqrt.519 = f32[16]{0} rsqrt(f32[16]{0} %reduce.518)
  %broadcast.520 = f32[1,1,1,16]{3,2,1,0} broadcast(f32[16]{0} %rsqrt.519), dimensions={3}
  %reshape.521 = f32[16]{0} reshape(f32[1,1,1,16]{3,2,1,0} %broadcast.520)
  %broadcast.522 = f32[3,3,8,16]{3,2,1,0} broadcast(f32[16]{0} %reshape.521), dimensions={3}
  %multiply.523 = f32[3,3,8,16]{3,2,1,0} multiply(f32[3,3,8,16]{3,2,1,0} %reshape.406, f32[3,3,8,16]{3,2,1,0} %broadcast.522)
  %convolution.524 = f32[16,32,32,16]{3,2,1,0} convolution(f32[16,32,32,8]{3,2,1,0} %multiply.515, f32[3,3,8,16]{3,2,1,0} %multiply.523), window={size=3x3 pad=1_1x1_1}, dim_labels=b01f_01io->b01f
  %constant.353 = s32[] constant(0)
  %compare.354 = pred[] compare(s32[] %get-tuple-element.276, s32[] %constant.353), direction=LT
  %constant.355 = s32[] constant(2)
  %add.356 = s32[] add(s32[] %get-tuple-element.276, s32[] %constant.355)
  %select.357 = s32[] select(pred[] %compare.354, s32[] %add.356, s32[] %get-tuple-element.276)
  %constant.358 = s32[] constant(0)
  %constant.359 = s32[] constant(0)
  %compare.360 = pred[] compare(s32[] %constant.358, s32[] %constant.359), direction=LT
  %constant.361 = s32[] constant(0)
  %constant.362 = s32[] constant(16)
  %add.363 = s32[] add(s32[] %constant.361, s32[] %constant.362)
  %constant.364 = s32[] constant(0)
  %select.365 = s32[] select(pred[] %compare.360, s32[] %add.363, s32[] %constant.364)
  %dynamic-slice.366 = f32[1,16]{1,0} dynamic-slice(f32[2,16]{1,0} %get-tuple-element.269, s32[] %select.357, s32[] %select.365), dynamic_slice_sizes={1,16}
  %reshape.367 = f32[16]{0} reshape(f32[1,16]{1,0} %dynamic-slice.366)
  %broadcast.525 = f32[1,1,1,16]{3,2,1,0} broadcast(f32[16]{0} %reshape.367), dimensions={3}
  %reshape.526 = f32[16]{0} reshape(f32[1,1,1,16]{3,2,1,0} %broadcast.525)
  %broadcast.527 = f32[16,32,32,16]{3,2,1,0} broadcast(f32[16]{0} %reshape.526), dimensions={3}
  %multiply.528 = f32[16,32,32,16]{3,2,1,0} multiply(f32[16,32,32,16]{3,2,1,0} %convolution.524, f32[16,32,32,16]{3,2,1,0} %broadcast.527)
  %constant.338 = s32[] constant(0)
  %compare.339 = pred[] compare(s32[] %get-tuple-element.276, s32[] %constant.338), direction=LT
  %constant.340 = s32[] constant(2)
  %add.341 = s32[] add(s32[] %get-tuple-element.276, s32[] %constant.340)
  %select.342 = s32[] select(pred[] %compare.339, s32[] %add.341, s32[] %get-tuple-element.276)
  %constant.343 = s32[] constant(0)
  %constant.344 = s32[] constant(0)
  %compare.345 = pred[] compare(s32[] %constant.343, s32[] %constant.344), direction=LT
  %constant.346 = s32[] constant(0)
  %constant.347 = s32[] constant(16)
  %add.348 = s32[] add(s32[] %constant.346, s32[] %constant.347)
  %constant.349 = s32[] constant(0)
  %select.350 = s32[] select(pred[] %compare.345, s32[] %add.348, s32[] %constant.349)
  %dynamic-slice.351 = f32[1,16]{1,0} dynamic-slice(f32[2,16]{1,0} %get-tuple-element.268, s32[] %select.342, s32[] %select.350), dynamic_slice_sizes={1,16}
  %reshape.352 = f32[16]{0} reshape(f32[1,16]{1,0} %dynamic-slice.351)
  %broadcast.529 = f32[1,1,1,16]{3,2,1,0} broadcast(f32[16]{0} %reshape.352), dimensions={3}
  %reshape.530 = f32[16]{0} reshape(f32[1,1,1,16]{3,2,1,0} %broadcast.529)
  %broadcast.531 = f32[16,32,32,16]{3,2,1,0} broadcast(f32[16]{0} %reshape.530), dimensions={3}
  %add.532 = f32[16,32,32,16]{3,2,1,0} add(f32[16,32,32,16]{3,2,1,0} %multiply.528, f32[16,32,32,16]{3,2,1,0} %broadcast.531)
  %multiply.533 = f32[16,32,32,16]{3,2,1,0} multiply(f32[16,32,32,16]{3,2,1,0} %add.532, f32[16,32,32,16]{3,2,1,0} %add.532)
  %constant.534 = f32[] constant(2)
  %broadcast.535 = f32[16,32,32,16]{3,2,1,0} broadcast(f32[] %constant.534), dimensions={}
  %add.536 = f32[16,32,32,16]{3,2,1,0} add(f32[16,32,32,16]{3,2,1,0} %multiply.533, f32[16,32,32,16]{3,2,1,0} %broadcast.535)
  %rsqrt.537 = f32[16,32,32,16]{3,2,1,0} rsqrt(f32[16,32,32,16]{3,2,1,0} %add.536)
  %multiply.538 = f32[16,32,32,16]{3,2,1,0} multiply(f32[16,32,32,16]{3,2,1,0} %multiply.533, f32[16,32,32,16]{3,2,1,0} %rsqrt.537)
  %add.539 = f32[16,32,32,16]{3,2,1,0} add(f32[16,32,32,16]{3,2,1,0} %add.532, f32[16,32,32,16]{3,2,1,0} %multiply.538)
  %constant.540 = f32[] constant(0.5)
  %broadcast.541 = f32[16,32,32,16]{3,2,1,0} broadcast(f32[] %constant.540), dimensions={}
  %multiply.542 = f32[16,32,32,16]{3,2,1,0} multiply(f32[16,32,32,16]{3,2,1,0} %add.539, f32[16,32,32,16]{3,2,1,0} %broadcast.541)
  %constant.437 = s32[] constant(0)
  %compare.438 = pred[] compare(s32[] %get-tuple-element.276, s32[] %constant.437), direction=LT
  %constant.439 = s32[] constant(2)
  %add.440 = s32[] add(s32[] %get-tuple-element.276, s32[] %constant.439)
  %select.441 = s32[] select(pred[] %compare.438, s32[] %add.440, s32[] %get-tuple-element.276)
  %constant.442 = s32[] constant(0)
  %constant.443 = s32[] constant(0)
  %compare.444 = pred[] compare(s32[] %constant.442, s32[] %constant.443), direction=LT
  %constant.445 = s32[] constant(0)
  %constant.446 = s32[] constant(1)
  %add.447 = s32[] add(s32[] %constant.445, s32[] %constant.446)
  %constant.448 = s32[] constant(0)
  %select.449 = s32[] select(pred[] %compare.444, s32[] %add.447, s32[] %constant.448)
  %constant.450 = s32[] constant(0)
  %constant.451 = s32[] constant(0)
  %compare.452 = pred[] compare(s32[] %constant.450, s32[] %constant.451), direction=LT
  %constant.453 = s32[] constant(0)
  %constant.454 = s32[] constant(1)
  %add.455 = s32[] add(s32[] %constant.453, s32[] %constant.454)
  %constant.456 = s32[] constant(0)
  %select.457 = s32[] select(pred[] %compare.452, s32[] %add.455, s32[] %constant.456)
  %constant.458 = s32[] constant(0)
  %constant.459 = s32[] constant(0)
  %compare.460 = pred[] compare(s32[] %constant.458, s32[] %constant.459), direction=LT
  %constant.461 = s32[] constant(0)
  %constant.462 = s32[] constant(16)
  %add.463 = s32[] add(s32[] %constant.461, s32[] %constant.462)
  %constant.464 = s32[] constant(0)
  %select.465 = s32[] select(pred[] %compare.460, s32[] %add.463, s32[] %constant.464)
  %constant.466 = s32[] constant(0)
  %constant.467 = s32[] constant(0)
  %compare.468 = pred[] compare(s32[] %constant.466, s32[] %constant.467), direction=LT
  %constant.469 = s32[] constant(0)
  %constant.470 = s32[] constant(16)
  %add.471 = s32[] add(s32[] %constant.469, s32[] %constant.470)
  %constant.472 = s32[] constant(0)
  %select.473 = s32[] select(pred[] %compare.468, s32[] %add.471, s32[] %constant.472)
  %dynamic-slice.474 = f32[1,1,1,16,16]{4,3,2,1,0} dynamic-slice(f32[2,1,1,16,16]{4,3,2,1,0} %get-tuple-element.273, s32[] %select.441, s32[] %select.449, s32[] %select.457, s32[] %select.465, /*index=5*/s32[] %select.473), dynamic_slice_sizes={1,1,1,16,16}
  %reshape.475 = f32[1,1,16,16]{3,2,1,0} reshape(f32[1,1,1,16,16]{4,3,2,1,0} %dynamic-slice.474)
  %multiply.543 = f32[1,1,16,16]{3,2,1,0} multiply(f32[1,1,16,16]{3,2,1,0} %reshape.475, f32[1,1,16,16]{3,2,1,0} %reshape.475)
  %constant.544 = f32[] constant(0)
  %reduce.545 = f32[16]{0} reduce(f32[1,1,16,16]{3,2,1,0} %multiply.543, f32[] %constant.544), dimensions={0,1,2}, to_apply=%primitive_computation_add__1.253
  %rsqrt.546 = f32[16]{0} rsqrt(f32[16]{0} %reduce.545)
  %broadcast.547 = f32[1,1,1,16]{3,2,1,0} broadcast(f32[16]{0} %rsqrt.546), dimensions={3}
  %reshape.548 = f32[1,1,16]{2,1,0} reshape(f32[1,1,1,16]{3,2,1,0} %broadcast.547)
  %broadcast.549 = f32[1,1,16,16]{3,2,1,0} broadcast(f32[1,1,16]{2,1,0} %reshape.548), dimensions={0,1,3}
  %multiply.550 = f32[1,1,16,16]{3,2,1,0} multiply(f32[1,1,16,16]{3,2,1,0} %reshape.475, f32[1,1,16,16]{3,2,1,0} %broadcast.549)
  %convolution.551 = f32[16,32,32,16]{3,2,1,0} convolution(f32[16,32,32,16]{3,2,1,0} %multiply.542, f32[1,1,16,16]{3,2,1,0} %multiply.550), window={size=1x1}, dim_labels=b01f_01io->b01f
  %constant.422 = s32[] constant(0)
  %compare.423 = pred[] compare(s32[] %get-tuple-element.276, s32[] %constant.422), direction=LT
  %constant.424 = s32[] constant(2)
  %add.425 = s32[] add(s32[] %get-tuple-element.276, s32[] %constant.424)
  %select.426 = s32[] select(pred[] %compare.423, s32[] %add.425, s32[] %get-tuple-element.276)
  %constant.427 = s32[] constant(0)
  %constant.428 = s32[] constant(0)
  %compare.429 = pred[] compare(s32[] %constant.427, s32[] %constant.428), direction=LT
  %constant.430 = s32[] constant(0)
  %constant.431 = s32[] constant(16)
  %add.432 = s32[] add(s32[] %constant.430, s32[] %constant.431)
  %constant.433 = s32[] constant(0)
  %select.434 = s32[] select(pred[] %compare.429, s32[] %add.432, s32[] %constant.433)
  %dynamic-slice.435 = f32[1,16]{1,0} dynamic-slice(f32[2,16]{1,0} %get-tuple-element.272, s32[] %select.426, s32[] %select.434), dynamic_slice_sizes={1,16}
  %reshape.436 = f32[16]{0} reshape(f32[1,16]{1,0} %dynamic-slice.435)
  %broadcast.552 = f32[1,1,1,16]{3,2,1,0} broadcast(f32[16]{0} %reshape.436), dimensions={3}
  %reshape.553 = f32[16]{0} reshape(f32[1,1,1,16]{3,2,1,0} %broadcast.552)
  %broadcast.554 = f32[16,32,32,16]{3,2,1,0} broadcast(f32[16]{0} %reshape.553), dimensions={3}
  %multiply.555 = f32[16,32,32,16]{3,2,1,0} multiply(f32[16,32,32,16]{3,2,1,0} %convolution.551, f32[16,32,32,16]{3,2,1,0} %broadcast.554)
  %constant.407 = s32[] constant(0)
  %compare.408 = pred[] compare(s32[] %get-tuple-element.276, s32[] %constant.407), direction=LT
  %constant.409 = s32[] constant(2)
  %add.410 = s32[] add(s32[] %get-tuple-element.276, s32[] %constant.409)
  %select.411 = s32[] select(pred[] %compare.408, s32[] %add.410, s32[] %get-tuple-element.276)
  %constant.412 = s32[] constant(0)
  %constant.413 = s32[] constant(0)
  %compare.414 = pred[] compare(s32[] %constant.412, s32[] %constant.413), direction=LT
  %constant.415 = s32[] constant(0)
  %constant.416 = s32[] constant(16)
  %add.417 = s32[] add(s32[] %constant.415, s32[] %constant.416)
  %constant.418 = s32[] constant(0)
  %select.419 = s32[] select(pred[] %compare.414, s32[] %add.417, s32[] %constant.418)
  %dynamic-slice.420 = f32[1,16]{1,0} dynamic-slice(f32[2,16]{1,0} %get-tuple-element.271, s32[] %select.411, s32[] %select.419), dynamic_slice_sizes={1,16}
  %reshape.421 = f32[16]{0} reshape(f32[1,16]{1,0} %dynamic-slice.420)
  %broadcast.556 = f32[1,1,1,16]{3,2,1,0} broadcast(f32[16]{0} %reshape.421), dimensions={3}
  %reshape.557 = f32[16]{0} reshape(f32[1,1,1,16]{3,2,1,0} %broadcast.556)
  %broadcast.558 = f32[16,32,32,16]{3,2,1,0} broadcast(f32[16]{0} %reshape.557), dimensions={3}
  %add.559 = f32[16,32,32,16]{3,2,1,0} add(f32[16,32,32,16]{3,2,1,0} %multiply.555, f32[16,32,32,16]{3,2,1,0} %broadcast.558)
  %slice.560 = f32[16,32,32,8]{3,2,1,0} slice(f32[16,32,32,16]{3,2,1,0} %add.559), slice={[0:16], [0:32], [0:32], [0:8]}
  %slice.561 = f32[16,32,32,8]{3,2,1,0} slice(f32[16,32,32,16]{3,2,1,0} %add.559), slice={[0:16], [0:32], [0:32], [8:16]}
  %multiply.562 = f32[16,32,32,8]{3,2,1,0} multiply(f32[16,32,32,8]{3,2,1,0} %slice.561, f32[16,32,32,8]{3,2,1,0} %slice.561)
  %constant.563 = f32[] constant(2)
  %broadcast.564 = f32[16,32,32,8]{3,2,1,0} broadcast(f32[] %constant.563), dimensions={}
  %add.565 = f32[16,32,32,8]{3,2,1,0} add(f32[16,32,32,8]{3,2,1,0} %multiply.562, f32[16,32,32,8]{3,2,1,0} %broadcast.564)
  %rsqrt.566 = f32[16,32,32,8]{3,2,1,0} rsqrt(f32[16,32,32,8]{3,2,1,0} %add.565)
  %multiply.567 = f32[16,32,32,8]{3,2,1,0} multiply(f32[16,32,32,8]{3,2,1,0} %slice.561, f32[16,32,32,8]{3,2,1,0} %rsqrt.566)
  %constant.568 = f32[] constant(1)
  %broadcast.569 = f32[16,32,32,8]{3,2,1,0} broadcast(f32[] %constant.568), dimensions={}
  %add.570 = f32[16,32,32,8]{3,2,1,0} add(f32[16,32,32,8]{3,2,1,0} %multiply.567, f32[16,32,32,8]{3,2,1,0} %broadcast.569)
  %constant.571 = f32[] constant(0.5)
  %broadcast.572 = f32[16,32,32,8]{3,2,1,0} broadcast(f32[] %constant.571), dimensions={}
  %multiply.573 = f32[16,32,32,8]{3,2,1,0} multiply(f32[16,32,32,8]{3,2,1,0} %add.570, f32[16,32,32,8]{3,2,1,0} %broadcast.572)
  %multiply.574 = f32[16,32,32,8]{3,2,1,0} multiply(f32[16,32,32,8]{3,2,1,0} %slice.560, f32[16,32,32,8]{3,2,1,0} %multiply.573)
  %add.575 = f32[16,32,32,8]{3,2,1,0} add(f32[16,32,32,8]{3,2,1,0} %get-tuple-element.277, f32[16,32,32,8]{3,2,1,0} %multiply.574)
  %reshape.576 = f32[16,1024,8]{2,1,0} reshape(f32[16,32,32,8]{3,2,1,0} %add.575)
  %constant.577 = f32[] constant(0)
  %reduce.578 = f32[16,8]{1,0} reduce(f32[16,1024,8]{2,1,0} %reshape.576, f32[] %constant.577), dimensions={1}, to_apply=%primitive_computation_add__1.257
  %constant.579 = f32[] constant(1024)
  %broadcast.580 = f32[16,8]{1,0} broadcast(f32[] %constant.579), dimensions={}
  %divide.581 = f32[16,8]{1,0} divide(f32[16,8]{1,0} %reduce.578, f32[16,8]{1,0} %broadcast.580)
  %broadcast.582 = f32[16,1,1,8]{3,2,1,0} broadcast(f32[16,8]{1,0} %divide.581), dimensions={0,3}
  %reshape.583 = f32[16,8]{1,0} reshape(f32[16,1,1,8]{3,2,1,0} %broadcast.582)
  %broadcast.584 = f32[16,32,32,8]{3,2,1,0} broadcast(f32[16,8]{1,0} %reshape.583), dimensions={0,3}
  %subtract.585 = f32[16,32,32,8]{3,2,1,0} subtract(f32[16,32,32,8]{3,2,1,0} %add.575, f32[16,32,32,8]{3,2,1,0} %broadcast.584)
  %multiply.586 = f32[16,1024,8]{2,1,0} multiply(f32[16,1024,8]{2,1,0} %reshape.576, f32[16,1024,8]{2,1,0} %reshape.576)
  %constant.587 = f32[] constant(0)
  %reduce.588 = f32[16,8]{1,0} reduce(f32[16,1024,8]{2,1,0} %multiply.586, f32[] %constant.587), dimensions={1}, to_apply=%primitive_computation_add__1.261
  %constant.589 = f32[] constant(1024)
  %broadcast.590 = f32[16,8]{1,0} broadcast(f32[] %constant.589), dimensions={}
  %divide.591 = f32[16,8]{1,0} divide(f32[16,8]{1,0} %reduce.588, f32[16,8]{1,0} %broadcast.590)
  %multiply.592 = f32[16,8]{1,0} multiply(f32[16,8]{1,0} %divide.581, f32[16,8]{1,0} %divide.581)
  %subtract.593 = f32[16,8]{1,0} subtract(f32[16,8]{1,0} %divide.591, f32[16,8]{1,0} %multiply.592)
  %constant.594 = f32[] constant(1e-06)
  %broadcast.595 = f32[16,8]{1,0} broadcast(f32[] %constant.594), dimensions={}
  %add.596 = f32[16,8]{1,0} add(f32[16,8]{1,0} %subtract.593, f32[16,8]{1,0} %broadcast.595)
  %rsqrt.597 = f32[16,8]{1,0} rsqrt(f32[16,8]{1,0} %add.596)
  %broadcast.598 = f32[16,1,1,8]{3,2,1,0} broadcast(f32[16,8]{1,0} %rsqrt.597), dimensions={0,3}
  %reshape.599 = f32[16,8]{1,0} reshape(f32[16,1,1,8]{3,2,1,0} %broadcast.598)
  %broadcast.600 = f32[16,32,32,8]{3,2,1,0} broadcast(f32[16,8]{1,0} %reshape.599), dimensions={0,3}
  %multiply.601 = f32[16,32,32,8]{3,2,1,0} multiply(f32[16,32,32,8]{3,2,1,0} %subtract.585, f32[16,32,32,8]{3,2,1,0} %broadcast.600)
  %constant.491 = s32[] constant(0)
  %compare.492 = pred[] compare(s32[] %get-tuple-element.276, s32[] %constant.491), direction=LT
  %constant.493 = s32[] constant(2)
  %add.494 = s32[] add(s32[] %get-tuple-element.276, s32[] %constant.493)
  %select.495 = s32[] select(pred[] %compare.492, s32[] %add.494, s32[] %get-tuple-element.276)
  %constant.496 = s32[] constant(0)
  %constant.497 = s32[] constant(0)
  %compare.498 = pred[] compare(s32[] %constant.496, s32[] %constant.497), direction=LT
  %constant.499 = s32[] constant(0)
  %constant.500 = s32[] constant(8)
  %add.501 = s32[] add(s32[] %constant.499, s32[] %constant.500)
  %constant.502 = s32[] constant(0)
  %select.503 = s32[] select(pred[] %compare.498, s32[] %add.501, s32[] %constant.502)
  %dynamic-slice.504 = f32[1,8]{1,0} dynamic-slice(f32[2,8]{1,0} %get-tuple-element.275, s32[] %select.495, s32[] %select.503), dynamic_slice_sizes={1,8}
  %reshape.505 = f32[8]{0} reshape(f32[1,8]{1,0} %dynamic-slice.504)
  %broadcast.602 = f32[1,1,1,8]{3,2,1,0} broadcast(f32[8]{0} %reshape.505), dimensions={3}
  %reshape.603 = f32[8]{0} reshape(f32[1,1,1,8]{3,2,1,0} %broadcast.602)
  %broadcast.604 = f32[16,32,32,8]{3,2,1,0} broadcast(f32[8]{0} %reshape.603), dimensions={3}
  %multiply.605 = f32[16,32,32,8]{3,2,1,0} multiply(f32[16,32,32,8]{3,2,1,0} %multiply.601, f32[16,32,32,8]{3,2,1,0} %broadcast.604)
  %constant.476 = s32[] constant(0)
  %compare.477 = pred[] compare(s32[] %get-tuple-element.276, s32[] %constant.476), direction=LT
  %constant.478 = s32[] constant(2)
  %add.479 = s32[] add(s32[] %get-tuple-element.276, s32[] %constant.478)
  %select.480 = s32[] select(pred[] %compare.477, s32[] %add.479, s32[] %get-tuple-element.276)
  %constant.481 = s32[] constant(0)
  %constant.482 = s32[] constant(0)
  %compare.483 = pred[] compare(s32[] %constant.481, s32[] %constant.482), direction=LT
  %constant.484 = s32[] constant(0)
  %constant.485 = s32[] constant(8)
  %add.486 = s32[] add(s32[] %constant.484, s32[] %constant.485)
  %constant.487 = s32[] constant(0)
  %select.488 = s32[] select(pred[] %compare.483, s32[] %add.486, s32[] %constant.487)
  %dynamic-slice.489 = f32[1,8]{1,0} dynamic-slice(f32[2,8]{1,0} %get-tuple-element.274, s32[] %select.480, s32[] %select.488), dynamic_slice_sizes={1,8}
  %reshape.490 = f32[8]{0} reshape(f32[1,8]{1,0} %dynamic-slice.489)
  %broadcast.606 = f32[1,1,1,8]{3,2,1,0} broadcast(f32[8]{0} %reshape.490), dimensions={3}
  %reshape.607 = f32[8]{0} reshape(f32[1,1,1,8]{3,2,1,0} %broadcast.606)
  %broadcast.608 = f32[16,32,32,8]{3,2,1,0} broadcast(f32[8]{0} %reshape.607), dimensions={3}
  %add.609 = f32[16,32,32,8]{3,2,1,0} add(f32[16,32,32,8]{3,2,1,0} %multiply.605, f32[16,32,32,8]{3,2,1,0} %broadcast.608)
  %constant.1934 = pred[] constant(false)
  %constant.1935 = pred[] constant(false)
  %constant.1936 = pred[] constant(false)
  %constant.1937 = pred[] constant(false)
  %constant.1938 = pred[] constant(false)
  %constant.1939 = pred[] constant(false)
  %constant.1940 = pred[] constant(false)
  %constant.1941 = pred[] constant(false)
  %constant.1942 = pred[] constant(false)
  %get-tuple-element.287 = f32[2,16,32,32,8]{4,3,2,1,0} get-tuple-element((u32[2,2]{1,0}, f32[2,16]{1,0}, f32[2,16]{1,0}, f32[2,3,3,8,16]{4,3,2,1,0}, f32[2,16]{1,0}, /*index=5*/f32[2,16]{1,0}, f32[2,1,1,16,16]{4,3,2,1,0}, f32[2,8]{1,0}, f32[2,8]{1,0}, s32[], /*index=10*/f32[16,32,32,8]{3,2,1,0}, pred[], pred[], pred[], pred[], /*index=15*/pred[], pred[], pred[], pred[], pred[], /*index=20*/f32[2,16,32,32,8]{4,3,2,1,0}, f32[2,16,32,32,8]{4,3,2,1,0}, f32[2,16,32,32,8]{4,3,2,1,0}, f32[2,16,32,32,8]{4,3,2,1,0}, f32[2,3,3,8,16]{4,3,2,1,0}, /*index=25*/f32[2,16,32,32,8]{4,3,2,1,0}, f32[2,1,1,1,16]{4,3,2,1,0}, f32[2,3,3,8,16]{4,3,2,1,0}, f32[2,16]{1,0}, f32[2,1,1,1,16]{4,3,2,1,0}, /*index=30*/f32[2,16,32,32,16]{4,3,2,1,0}, f32[2,16,32,32,16]{4,3,2,1,0}, f32[2,16,32,32,16]{4,3,2,1,0}, f32[2,16,32,32,16]{4,3,2,1,0}, f32[2,16,32,32,16]{4,3,2,1,0}, /*index=35*/f32[2,1,1,16,16]{4,3,2,1,0}, f32[2,16,32,32,16]{4,3,2,1,0}, f32[2,1,1,1,16]{4,3,2,1,0}, f32[2,1,1,16,16]{4,3,2,1,0}, f32[2,16]{1,0}, /*index=40*/f32[2,1,1,1,16]{4,3,2,1,0}, f32[2,16,32,32,16]{4,3,2,1,0}, f32[2,16,32,32,8]{4,3,2,1,0}, f32[2,16,32,32,8]{4,3,2,1,0}, f32[2,16,32,32,8]{4,3,2,1,0}, /*index=45*/f32[2,16,32,32,8]{4,3,2,1,0}, f32[2,16,32,32,8]{4,3,2,1,0}, f32[2,16,32,32,8]{4,3,2,1,0}, f32[2,16,1,1,8]{4,3,2,1,0}, f32[2,16,32,32,8]{4,3,2,1,0}, /*index=50*/f32[2,16,1024,8]{3,2,1,0}, f32[2,16,8]{2,1,0}, f32[2,16,8]{2,1,0}, f32[2,1,1,1,8]{4,3,2,1,0}, f32[2,16,32,32,8]{4,3,2,1,0}) %parameter.266), index=20
  %constant.610 = f32[] constant(2)
  %broadcast.611 = f32[16,32,32,8]{3,2,1,0} broadcast(f32[] %constant.610), dimensions={}
  %multiply.612 = f32[16,32,32,8]{3,2,1,0} multiply(f32[16,32,32,8]{3,2,1,0} %broadcast.611, f32[16,32,32,8]{3,2,1,0} %get-tuple-element.277)
  %broadcast.655 = f32[1,16,32,32,8]{4,3,2,1,0} broadcast(f32[16,32,32,8]{3,2,1,0} %multiply.612), dimensions={1,2,3,4}
  %constant.656 = s32[] constant(0)
  %compare.657 = pred[] compare(s32[] %get-tuple-element.276, s32[] %constant.656), direction=LT
  %constant.658 = s32[] constant(2)
  %add.659 = s32[] add(s32[] %get-tuple-element.276, s32[] %constant.658)
  %select.660 = s32[] select(pred[] %compare.657, s32[] %add.659, s32[] %get-tuple-element.276)
  %constant.661 = s32[] constant(0)
  %constant.662 = s32[] constant(0)
  %compare.663 = pred[] compare(s32[] %constant.661, s32[] %constant.662), direction=LT
  %constant.664 = s32[] constant(0)
  %constant.665 = s32[] constant(16)
  %add.666 = s32[] add(s32[] %constant.664, s32[] %constant.665)
  %constant.667 = s32[] constant(0)
  %select.668 = s32[] select(pred[] %compare.663, s32[] %add.666, s32[] %constant.667)
  %constant.669 = s32[] constant(0)
  %constant.670 = s32[] constant(0)
  %compare.671 = pred[] compare(s32[] %constant.669, s32[] %constant.670), direction=LT
  %constant.672 = s32[] constant(0)
  %constant.673 = s32[] constant(32)
  %add.674 = s32[] add(s32[] %constant.672, s32[] %constant.673)
  %constant.675 = s32[] constant(0)
  %select.676 = s32[] select(pred[] %compare.671, s32[] %add.674, s32[] %constant.675)
  %constant.677 = s32[] constant(0)
  %constant.678 = s32[] constant(0)
  %compare.679 = pred[] compare(s32[] %constant.677, s32[] %constant.678), direction=LT
  %constant.680 = s32[] constant(0)
  %constant.681 = s32[] constant(32)
  %add.682 = s32[] add(s32[] %constant.680, s32[] %constant.681)
  %constant.683 = s32[] constant(0)
  %select.684 = s32[] select(pred[] %compare.679, s32[] %add.682, s32[] %constant.683)
  %constant.685 = s32[] constant(0)
  %constant.686 = s32[] constant(0)
  %compare.687 = pred[] compare(s32[] %constant.685, s32[] %constant.686), direction=LT
  %constant.688 = s32[] constant(0)
  %constant.689 = s32[] constant(8)
  %add.690 = s32[] add(s32[] %constant.688, s32[] %constant.689)
  %constant.691 = s32[] constant(0)
  %select.692 = s32[] select(pred[] %compare.687, s32[] %add.690, s32[] %constant.691)
  %dynamic-update-slice.693 = f32[2,16,32,32,8]{4,3,2,1,0} dynamic-update-slice(f32[2,16,32,32,8]{4,3,2,1,0} %get-tuple-element.287, f32[1,16,32,32,8]{4,3,2,1,0} %broadcast.655, s32[] %select.660, s32[] %select.668, s32[] %select.676, /*index=5*/s32[] %select.684, s32[] %select.692)
  %get-tuple-element.288 = f32[2,16,32,32,8]{4,3,2,1,0} get-tuple-element((u32[2,2]{1,0}, f32[2,16]{1,0}, f32[2,16]{1,0}, f32[2,3,3,8,16]{4,3,2,1,0}, f32[2,16]{1,0}, /*index=5*/f32[2,16]{1,0}, f32[2,1,1,16,16]{4,3,2,1,0}, f32[2,8]{1,0}, f32[2,8]{1,0}, s32[], /*index=10*/f32[16,32,32,8]{3,2,1,0}, pred[], pred[], pred[], pred[], /*index=15*/pred[], pred[], pred[], pred[], pred[], /*index=20*/f32[2,16,32,32,8]{4,3,2,1,0}, f32[2,16,32,32,8]{4,3,2,1,0}, f32[2,16,32,32,8]{4,3,2,1,0}, f32[2,16,32,32,8]{4,3,2,1,0}, f32[2,3,3,8,16]{4,3,2,1,0}, /*index=25*/f32[2,16,32,32,8]{4,3,2,1,0}, f32[2,1,1,1,16]{4,3,2,1,0}, f32[2,3,3,8,16]{4,3,2,1,0}, f32[2,16]{1,0}, f32[2,1,1,1,16]{4,3,2,1,0}, /*index=30*/f32[2,16,32,32,16]{4,3,2,1,0}, f32[2,16,32,32,16]{4,3,2,1,0}, f32[2,16,32,32,16]{4,3,2,1,0}, f32[2,16,32,32,16]{4,3,2,1,0}, f32[2,16,32,32,16]{4,3,2,1,0}, /*index=35*/f32[2,1,1,16,16]{4,3,2,1,0}, f32[2,16,32,32,16]{4,3,2,1,0}, f32[2,1,1,1,16]{4,3,2,1,0}, f32[2,1,1,16,16]{4,3,2,1,0}, f32[2,16]{1,0}, /*index=40*/f32[2,1,1,1,16]{4,3,2,1,0}, f32[2,16,32,32,16]{4,3,2,1,0}, f32[2,16,32,32,8]{4,3,2,1,0}, f32[2,16,32,32,8]{4,3,2,1,0}, f32[2,16,32,32,8]{4,3,2,1,0}, /*index=45*/f32[2,16,32,32,8]{4,3,2,1,0}, f32[2,16,32,32,8]{4,3,2,1,0}, f32[2,16,32,32,8]{4,3,2,1,0}, f32[2,16,1,1,8]{4,3,2,1,0}, f32[2,16,32,32,8]{4,3,2,1,0}, /*index=50*/f32[2,16,1024,8]{3,2,1,0}, f32[2,16,8]{2,1,0}, f32[2,16,8]{2,1,0}, f32[2,1,1,1,8]{4,3,2,1,0}, f32[2,16,32,32,8]{4,3,2,1,0}) %parameter.266), index=21
  %broadcast.694 = f32[1,16,32,32,8]{4,3,2,1,0} broadcast(f32[16,32,32,8]{3,2,1,0} %rsqrt.510), dimensions={1,2,3,4}
  %constant.695 = s32[] constant(0)
  %compare.696 = pred[] compare(s32[] %get-tuple-element.276, s32[] %constant.695), direction=LT
  %constant.697 = s32[] constant(2)
  %add.698 = s32[] add(s32[] %get-tuple-element.276, s32[] %constant.697)
  %select.699 = s32[] select(pred[] %compare.696, s32[] %add.698, s32[] %get-tuple-element.276)
  %constant.700 = s32[] constant(0)
  %constant.701 = s32[] constant(0)
  %compare.702 = pred[] compare(s32[] %constant.700, s32[] %constant.701), direction=LT
  %constant.703 = s32[] constant(0)
  %constant.704 = s32[] constant(16)
  %add.705 = s32[] add(s32[] %constant.703, s32[] %constant.704)
  %constant.706 = s32[] constant(0)
  %select.707 = s32[] select(pred[] %compare.702, s32[] %add.705, s32[] %constant.706)
  %constant.708 = s32[] constant(0)
  %constant.709 = s32[] constant(0)
  %compare.710 = pred[] compare(s32[] %constant.708, s32[] %constant.709), direction=LT
  %constant.711 = s32[] constant(0)
  %constant.712 = s32[] constant(32)
  %add.713 = s32[] add(s32[] %constant.711, s32[] %constant.712)
  %constant.714 = s32[] constant(0)
  %select.715 = s32[] select(pred[] %compare.710, s32[] %add.713, s32[] %constant.714)
  %constant.716 = s32[] constant(0)
  %constant.717 = s32[] constant(0)
  %compare.718 = pred[] compare(s32[] %constant.716, s32[] %constant.717), direction=LT
  %constant.719 = s32[] constant(0)
  %constant.720 = s32[] constant(32)
  %add.721 = s32[] add(s32[] %constant.719, s32[] %constant.720)
  %constant.722 = s32[] constant(0)
  %select.723 = s32[] select(pred[] %compare.718, s32[] %add.721, s32[] %constant.722)
  %constant.724 = s32[] constant(0)
  %constant.725 = s32[] constant(0)
  %compare.726 = pred[] compare(s32[] %constant.724, s32[] %constant.725), direction=LT
  %constant.727 = s32[] constant(0)
  %constant.728 = s32[] constant(8)
  %add.729 = s32[] add(s32[] %constant.727, s32[] %constant.728)
  %constant.730 = s32[] constant(0)
  %select.731 = s32[] select(pred[] %compare.726, s32[] %add.729, s32[] %constant.730)
  %dynamic-update-slice.732 = f32[2,16,32,32,8]{4,3,2,1,0} dynamic-update-slice(f32[2,16,32,32,8]{4,3,2,1,0} %get-tuple-element.288, f32[1,16,32,32,8]{4,3,2,1,0} %broadcast.694, s32[] %select.699, s32[] %select.707, s32[] %select.715, /*index=5*/s32[] %select.723, s32[] %select.731)
  %get-tuple-element.289 = f32[2,16,32,32,8]{4,3,2,1,0} get-tuple-element((u32[2,2]{1,0}, f32[2,16]{1,0}, f32[2,16]{1,0}, f32[2,3,3,8,16]{4,3,2,1,0}, f32[2,16]{1,0}, /*index=5*/f32[2,16]{1,0}, f32[2,1,1,16,16]{4,3,2,1,0}, f32[2,8]{1,0}, f32[2,8]{1,0}, s32[], /*index=10*/f32[16,32,32,8]{3,2,1,0}, pred[], pred[], pred[], pred[], /*index=15*/pred[], pred[], pred[], pred[], pred[], /*index=20*/f32[2,16,32,32,8]{4,3,2,1,0}, f32[2,16,32,32,8]{4,3,2,1,0}, f32[2,16,32,32,8]{4,3,2,1,0}, f32[2,16,32,32,8]{4,3,2,1,0}, f32[2,3,3,8,16]{4,3,2,1,0}, /*index=25*/f32[2,16,32,32,8]{4,3,2,1,0}, f32[2,1,1,1,16]{4,3,2,1,0}, f32[2,3,3,8,16]{4,3,2,1,0}, f32[2,16]{1,0}, f32[2,1,1,1,16]{4,3,2,1,0}, /*index=30*/f32[2,16,32,32,16]{4,3,2,1,0}, f32[2,16,32,32,16]{4,3,2,1,0}, f32[2,16,32,32,16]{4,3,2,1,0}, f32[2,16,32,32,16]{4,3,2,1,0}, f32[2,16,32,32,16]{4,3,2,1,0}, /*index=35*/f32[2,1,1,16,16]{4,3,2,1,0}, f32[2,16,32,32,16]{4,3,2,1,0}, f32[2,1,1,1,16]{4,3,2,1,0}, f32[2,1,1,16,16]{4,3,2,1,0}, f32[2,16]{1,0}, /*index=40*/f32[2,1,1,1,16]{4,3,2,1,0}, f32[2,16,32,32,16]{4,3,2,1,0}, f32[2,16,32,32,8]{4,3,2,1,0}, f32[2,16,32,32,8]{4,3,2,1,0}, f32[2,16,32,32,8]{4,3,2,1,0}, /*index=45*/f32[2,16,32,32,8]{4,3,2,1,0}, f32[2,16,32,32,8]{4,3,2,1,0}, f32[2,16,32,32,8]{4,3,2,1,0}, f32[2,16,1,1,8]{4,3,2,1,0}, f32[2,16,32,32,8]{4,3,2,1,0}, /*index=50*/f32[2,16,1024,8]{3,2,1,0}, f32[2,16,8]{2,1,0}, f32[2,16,8]{2,1,0}, f32[2,1,1,1,8]{4,3,2,1,0}, f32[2,16,32,32,8]{4,3,2,1,0}) %parameter.266), index=22
  %broadcast.733 = f32[1,16,32,32,8]{4,3,2,1,0} broadcast(f32[16,32,32,8]{3,2,1,0} %multiply.506), dimensions={1,2,3,4}
  %constant.734 = s32[] constant(0)
  %compare.735 = pred[] compare(s32[] %get-tuple-element.276, s32[] %constant.734), direction=LT
  %constant.736 = s32[] constant(2)
  %add.737 = s32[] add(s32[] %get-tuple-element.276, s32[] %constant.736)
  %select.738 = s32[] select(pred[] %compare.735, s32[] %add.737, s32[] %get-tuple-element.276)
  %constant.739 = s32[] constant(0)
  %constant.740 = s32[] constant(0)
  %compare.741 = pred[] compare(s32[] %constant.739, s32[] %constant.740), direction=LT
  %constant.742 = s32[] constant(0)
  %constant.743 = s32[] constant(16)
  %add.744 = s32[] add(s32[] %constant.742, s32[] %constant.743)
  %constant.745 = s32[] constant(0)
  %select.746 = s32[] select(pred[] %compare.741, s32[] %add.744, s32[] %constant.745)
  %constant.747 = s32[] constant(0)
  %constant.748 = s32[] constant(0)
  %compare.749 = pred[] compare(s32[] %constant.747, s32[] %constant.748), direction=LT
  %constant.750 = s32[] constant(0)
  %constant.751 = s32[] constant(32)
  %add.752 = s32[] add(s32[] %constant.750, s32[] %constant.751)
  %constant.753 = s32[] constant(0)
  %select.754 = s32[] select(pred[] %compare.749, s32[] %add.752, s32[] %constant.753)
  %constant.755 = s32[] constant(0)
  %constant.756 = s32[] constant(0)
  %compare.757 = pred[] compare(s32[] %constant.755, s32[] %constant.756), direction=LT
  %constant.758 = s32[] constant(0)
  %constant.759 = s32[] constant(32)
  %add.760 = s32[] add(s32[] %constant.758, s32[] %constant.759)
  %constant.761 = s32[] constant(0)
  %select.762 = s32[] select(pred[] %compare.757, s32[] %add.760, s32[] %constant.761)
  %constant.763 = s32[] constant(0)
  %constant.764 = s32[] constant(0)
  %compare.765 = pred[] compare(s32[] %constant.763, s32[] %constant.764), direction=LT
  %constant.766 = s32[] constant(0)
  %constant.767 = s32[] constant(8)
  %add.768 = s32[] add(s32[] %constant.766, s32[] %constant.767)
  %constant.769 = s32[] constant(0)
  %select.770 = s32[] select(pred[] %compare.765, s32[] %add.768, s32[] %constant.769)
  %dynamic-update-slice.771 = f32[2,16,32,32,8]{4,3,2,1,0} dynamic-update-slice(f32[2,16,32,32,8]{4,3,2,1,0} %get-tuple-element.289, f32[1,16,32,32,8]{4,3,2,1,0} %broadcast.733, s32[] %select.738, s32[] %select.746, s32[] %select.754, /*index=5*/s32[] %select.762, s32[] %select.770)
  %get-tuple-element.290 = f32[2,16,32,32,8]{4,3,2,1,0} get-tuple-element((u32[2,2]{1,0}, f32[2,16]{1,0}, f32[2,16]{1,0}, f32[2,3,3,8,16]{4,3,2,1,0}, f32[2,16]{1,0}, /*index=5*/f32[2,16]{1,0}, f32[2,1,1,16,16]{4,3,2,1,0}, f32[2,8]{1,0}, f32[2,8]{1,0}, s32[], /*index=10*/f32[16,32,32,8]{3,2,1,0}, pred[], pred[], pred[], pred[], /*index=15*/pred[], pred[], pred[], pred[], pred[], /*index=20*/f32[2,16,32,32,8]{4,3,2,1,0}, f32[2,16,32,32,8]{4,3,2,1,0}, f32[2,16,32,32,8]{4,3,2,1,0}, f32[2,16,32,32,8]{4,3,2,1,0}, f32[2,3,3,8,16]{4,3,2,1,0}, /*index=25*/f32[2,16,32,32,8]{4,3,2,1,0}, f32[2,1,1,1,16]{4,3,2,1,0}, f32[2,3,3,8,16]{4,3,2,1,0}, f32[2,16]{1,0}, f32[2,1,1,1,16]{4,3,2,1,0}, /*index=30*/f32[2,16,32,32,16]{4,3,2,1,0}, f32[2,16,32,32,16]{4,3,2,1,0}, f32[2,16,32,32,16]{4,3,2,1,0}, f32[2,16,32,32,16]{4,3,2,1,0}, f32[2,16,32,32,16]{4,3,2,1,0}, /*index=35*/f32[2,1,1,16,16]{4,3,2,1,0}, f32[2,16,32,32,16]{4,3,2,1,0}, f32[2,1,1,1,16]{4,3,2,1,0}, f32[2,1,1,16,16]{4,3,2,1,0}, f32[2,16]{1,0}, /*index=40*/f32[2,1,1,1,16]{4,3,2,1,0}, f32[2,16,32,32,16]{4,3,2,1,0}, f32[2,16,32,32,8]{4,3,2,1,0}, f32[2,16,32,32,8]{4,3,2,1,0}, f32[2,16,32,32,8]{4,3,2,1,0}, /*index=45*/f32[2,16,32,32,8]{4,3,2,1,0}, f32[2,16,32,32,8]{4,3,2,1,0}, f32[2,16,32,32,8]{4,3,2,1,0}, f32[2,16,1,1,8]{4,3,2,1,0}, f32[2,16,32,32,8]{4,3,2,1,0}, /*index=50*/f32[2,16,1024,8]{3,2,1,0}, f32[2,16,8]{2,1,0}, f32[2,16,8]{2,1,0}, f32[2,1,1,1,8]{4,3,2,1,0}, f32[2,16,32,32,8]{4,3,2,1,0}) %parameter.266), index=23
  %constant.614 = f32[] constant(-0.5)
  %broadcast.615 = f32[16,32,32,8]{3,2,1,0} broadcast(f32[] %constant.614), dimensions={}
  %divide.613 = f32[16,32,32,8]{3,2,1,0} divide(f32[16,32,32,8]{3,2,1,0} %rsqrt.510, f32[16,32,32,8]{3,2,1,0} %add.509)
  %multiply.616 = f32[16,32,32,8]{3,2,1,0} multiply(f32[16,32,32,8]{3,2,1,0} %broadcast.615, f32[16,32,32,8]{3,2,1,0} %divide.613)
  %broadcast.772 = f32[1,16,32,32,8]{4,3,2,1,0} broadcast(f32[16,32,32,8]{3,2,1,0} %multiply.616), dimensions={1,2,3,4}
  %constant.773 = s32[] constant(0)
  %compare.774 = pred[] compare(s32[] %get-tuple-element.276, s32[] %constant.773), direction=LT
  %constant.775 = s32[] constant(2)
  %add.776 = s32[] add(s32[] %get-tuple-element.276, s32[] %constant.775)
  %select.777 = s32[] select(pred[] %compare.774, s32[] %add.776, s32[] %get-tuple-element.276)
  %constant.778 = s32[] constant(0)
  %constant.779 = s32[] constant(0)
  %compare.780 = pred[] compare(s32[] %constant.778, s32[] %constant.779), direction=LT
  %constant.781 = s32[] constant(0)
  %constant.782 = s32[] constant(16)
  %add.783 = s32[] add(s32[] %constant.781, s32[] %constant.782)
  %constant.784 = s32[] constant(0)
  %select.785 = s32[] select(pred[] %compare.780, s32[] %add.783, s32[] %constant.784)
  %constant.786 = s32[] constant(0)
  %constant.787 = s32[] constant(0)
  %compare.788 = pred[] compare(s32[] %constant.786, s32[] %constant.787), direction=LT
  %constant.789 = s32[] constant(0)
  %constant.790 = s32[] constant(32)
  %add.791 = s32[] add(s32[] %constant.789, s32[] %constant.790)
  %constant.792 = s32[] constant(0)
  %select.793 = s32[] select(pred[] %compare.788, s32[] %add.791, s32[] %constant.792)
  %constant.794 = s32[] constant(0)
  %constant.795 = s32[] constant(0)
  %compare.796 = pred[] compare(s32[] %constant.794, s32[] %constant.795), direction=LT
  %constant.797 = s32[] constant(0)
  %constant.798 = s32[] constant(32)
  %add.799 = s32[] add(s32[] %constant.797, s32[] %constant.798)
  %constant.800 = s32[] constant(0)
  %select.801 = s32[] select(pred[] %compare.796, s32[] %add.799, s32[] %constant.800)
  %constant.802 = s32[] constant(0)
  %constant.803 = s32[] constant(0)
  %compare.804 = pred[] compare(s32[] %constant.802, s32[] %constant.803), direction=LT
  %constant.805 = s32[] constant(0)
  %constant.806 = s32[] constant(8)
  %add.807 = s32[] add(s32[] %constant.805, s32[] %constant.806)
  %constant.808 = s32[] constant(0)
  %select.809 = s32[] select(pred[] %compare.804, s32[] %add.807, s32[] %constant.808)
  %dynamic-update-slice.810 = f32[2,16,32,32,8]{4,3,2,1,0} dynamic-update-slice(f32[2,16,32,32,8]{4,3,2,1,0} %get-tuple-element.290, f32[1,16,32,32,8]{4,3,2,1,0} %broadcast.772, s32[] %select.777, s32[] %select.785, s32[] %select.793, /*index=5*/s32[] %select.801, s32[] %select.809)
  %get-tuple-element.291 = f32[2,3,3,8,16]{4,3,2,1,0} get-tuple-element((u32[2,2]{1,0}, f32[2,16]{1,0}, f32[2,16]{1,0}, f32[2,3,3,8,16]{4,3,2,1,0}, f32[2,16]{1,0}, /*index=5*/f32[2,16]{1,0}, f32[2,1,1,16,16]{4,3,2,1,0}, f32[2,8]{1,0}, f32[2,8]{1,0}, s32[], /*index=10*/f32[16,32,32,8]{3,2,1,0}, pred[], pred[], pred[], pred[], /*index=15*/pred[], pred[], pred[], pred[], pred[], /*index=20*/f32[2,16,32,32,8]{4,3,2,1,0}, f32[2,16,32,32,8]{4,3,2,1,0}, f32[2,16,32,32,8]{4,3,2,1,0}, f32[2,16,32,32,8]{4,3,2,1,0}, f32[2,3,3,8,16]{4,3,2,1,0}, /*index=25*/f32[2,16,32,32,8]{4,3,2,1,0}, f32[2,1,1,1,16]{4,3,2,1,0}, f32[2,3,3,8,16]{4,3,2,1,0}, f32[2,16]{1,0}, f32[2,1,1,1,16]{4,3,2,1,0}, /*index=30*/f32[2,16,32,32,16]{4,3,2,1,0}, f32[2,16,32,32,16]{4,3,2,1,0}, f32[2,16,32,32,16]{4,3,2,1,0}, f32[2,16,32,32,16]{4,3,2,1,0}, f32[2,16,32,32,16]{4,3,2,1,0}, /*index=35*/f32[2,1,1,16,16]{4,3,2,1,0}, f32[2,16,32,32,16]{4,3,2,1,0}, f32[2,1,1,1,16]{4,3,2,1,0}, f32[2,1,1,16,16]{4,3,2,1,0}, f32[2,16]{1,0}, /*index=40*/f32[2,1,1,1,16]{4,3,2,1,0}, f32[2,16,32,32,16]{4,3,2,1,0}, f32[2,16,32,32,8]{4,3,2,1,0}, f32[2,16,32,32,8]{4,3,2,1,0}, f32[2,16,32,32,8]{4,3,2,1,0}, /*index=45*/f32[2,16,32,32,8]{4,3,2,1,0}, f32[2,16,32,32,8]{4,3,2,1,0}, f32[2,16,32,32,8]{4,3,2,1,0}, f32[2,16,1,1,8]{4,3,2,1,0}, f32[2,16,32,32,8]{4,3,2,1,0}, /*index=50*/f32[2,16,1024,8]{3,2,1,0}, f32[2,16,8]{2,1,0}, f32[2,16,8]{2,1,0}, f32[2,1,1,1,8]{4,3,2,1,0}, f32[2,16,32,32,8]{4,3,2,1,0}) %parameter.266), index=24
  %broadcast.811 = f32[1,3,3,8,16]{4,3,2,1,0} broadcast(f32[3,3,8,16]{3,2,1,0} %multiply.523), dimensions={1,2,3,4}
  %constant.812 = s32[] constant(0)
  %compare.813 = pred[] compare(s32[] %get-tuple-element.276, s32[] %constant.812), direction=LT
  %constant.814 = s32[] constant(2)
  %add.815 = s32[] add(s32[] %get-tuple-element.276, s32[] %constant.814)
  %select.816 = s32[] select(pred[] %compare.813, s32[] %add.815, s32[] %get-tuple-element.276)
  %constant.817 = s32[] constant(0)
  %constant.818 = s32[] constant(0)
  %compare.819 = pred[] compare(s32[] %constant.817, s32[] %constant.818), direction=LT
  %constant.820 = s32[] constant(0)
  %constant.821 = s32[] constant(3)
  %add.822 = s32[] add(s32[] %constant.820, s32[] %constant.821)
  %constant.823 = s32[] constant(0)
  %select.824 = s32[] select(pred[] %compare.819, s32[] %add.822, s32[] %constant.823)
  %constant.825 = s32[] constant(0)
  %constant.826 = s32[] constant(0)
  %compare.827 = pred[] compare(s32[] %constant.825, s32[] %constant.826), direction=LT
  %constant.828 = s32[] constant(0)
  %constant.829 = s32[] constant(3)
  %add.830 = s32[] add(s32[] %constant.828, s32[] %constant.829)
  %constant.831 = s32[] constant(0)
  %select.832 = s32[] select(pred[] %compare.827, s32[] %add.830, s32[] %constant.831)
  %constant.833 = s32[] constant(0)
  %constant.834 = s32[] constant(0)
  %compare.835 = pred[] compare(s32[] %constant.833, s32[] %constant.834), direction=LT
  %constant.836 = s32[] constant(0)
  %constant.837 = s32[] constant(8)
  %add.838 = s32[] add(s32[] %constant.836, s32[] %constant.837)
  %constant.839 = s32[] constant(0)
  %select.840 = s32[] select(pred[] %compare.835, s32[] %add.838, s32[] %constant.839)
  %constant.841 = s32[] constant(0)
  %constant.842 = s32[] constant(0)
  %compare.843 = pred[] compare(s32[] %constant.841, s32[] %constant.842), direction=LT
  %constant.844 = s32[] constant(0)
  %constant.845 = s32[] constant(16)
  %add.846 = s32[] add(s32[] %constant.844, s32[] %constant.845)
  %constant.847 = s32[] constant(0)
  %select.848 = s32[] select(pred[] %compare.843, s32[] %add.846, s32[] %constant.847)
  %dynamic-update-slice.849 = f32[2,3,3,8,16]{4,3,2,1,0} dynamic-update-slice(f32[2,3,3,8,16]{4,3,2,1,0} %get-tuple-element.291, f32[1,3,3,8,16]{4,3,2,1,0} %broadcast.811, s32[] %select.816, s32[] %select.824, s32[] %select.832, /*index=5*/s32[] %select.840, s32[] %select.848)
  %get-tuple-element.292 = f32[2,16,32,32,8]{4,3,2,1,0} get-tuple-element((u32[2,2]{1,0}, f32[2,16]{1,0}, f32[2,16]{1,0}, f32[2,3,3,8,16]{4,3,2,1,0}, f32[2,16]{1,0}, /*index=5*/f32[2,16]{1,0}, f32[2,1,1,16,16]{4,3,2,1,0}, f32[2,8]{1,0}, f32[2,8]{1,0}, s32[], /*index=10*/f32[16,32,32,8]{3,2,1,0}, pred[], pred[], pred[], pred[], /*index=15*/pred[], pred[], pred[], pred[], pred[], /*index=20*/f32[2,16,32,32,8]{4,3,2,1,0}, f32[2,16,32,32,8]{4,3,2,1,0}, f32[2,16,32,32,8]{4,3,2,1,0}, f32[2,16,32,32,8]{4,3,2,1,0}, f32[2,3,3,8,16]{4,3,2,1,0}, /*index=25*/f32[2,16,32,32,8]{4,3,2,1,0}, f32[2,1,1,1,16]{4,3,2,1,0}, f32[2,3,3,8,16]{4,3,2,1,0}, f32[2,16]{1,0}, f32[2,1,1,1,16]{4,3,2,1,0}, /*index=30*/f32[2,16,32,32,16]{4,3,2,1,0}, f32[2,16,32,32,16]{4,3,2,1,0}, f32[2,16,32,32,16]{4,3,2,1,0}, f32[2,16,32,32,16]{4,3,2,1,0}, f32[2,16,32,32,16]{4,3,2,1,0}, /*index=35*/f32[2,1,1,16,16]{4,3,2,1,0}, f32[2,16,32,32,16]{4,3,2,1,0}, f32[2,1,1,1,16]{4,3,2,1,0}, f32[2,1,1,16,16]{4,3,2,1,0}, f32[2,16]{1,0}, /*index=40*/f32[2,1,1,1,16]{4,3,2,1,0}, f32[2,16,32,32,16]{4,3,2,1,0}, f32[2,16,32,32,8]{4,3,2,1,0}, f32[2,16,32,32,8]{4,3,2,1,0}, f32[2,16,32,32,8]{4,3,2,1,0}, /*index=45*/f32[2,16,32,32,8]{4,3,2,1,0}, f32[2,16,32,32,8]{4,3,2,1,0}, f32[2,16,32,32,8]{4,3,2,1,0}, f32[2,16,1,1,8]{4,3,2,1,0}, f32[2,16,32,32,8]{4,3,2,1,0}, /*index=50*/f32[2,16,1024,8]{3,2,1,0}, f32[2,16,8]{2,1,0}, f32[2,16,8]{2,1,0}, f32[2,1,1,1,8]{4,3,2,1,0}, f32[2,16,32,32,8]{4,3,2,1,0}) %parameter.266), index=25
  %broadcast.850 = f32[1,16,32,32,8]{4,3,2,1,0} broadcast(f32[16,32,32,8]{3,2,1,0} %multiply.515), dimensions={1,2,3,4}
  %constant.851 = s32[] constant(0)
  %compare.852 = pred[] compare(s32[] %get-tuple-element.276, s32[] %constant.851), direction=LT
  %constant.853 = s32[] constant(2)
  %add.854 = s32[] add(s32[] %get-tuple-element.276, s32[] %constant.853)
  %select.855 = s32[] select(pred[] %compare.852, s32[] %add.854, s32[] %get-tuple-element.276)
  %constant.856 = s32[] constant(0)
  %constant.857 = s32[] constant(0)
  %compare.858 = pred[] compare(s32[] %constant.856, s32[] %constant.857), direction=LT
  %constant.859 = s32[] constant(0)
  %constant.860 = s32[] constant(16)
  %add.861 = s32[] add(s32[] %constant.859, s32[] %constant.860)
  %constant.862 = s32[] constant(0)
  %select.863 = s32[] select(pred[] %compare.858, s32[] %add.861, s32[] %constant.862)
  %constant.864 = s32[] constant(0)
  %constant.865 = s32[] constant(0)
  %compare.866 = pred[] compare(s32[] %constant.864, s32[] %constant.865), direction=LT
  %constant.867 = s32[] constant(0)
  %constant.868 = s32[] constant(32)
  %add.869 = s32[] add(s32[] %constant.867, s32[] %constant.868)
  %constant.870 = s32[] constant(0)
  %select.871 = s32[] select(pred[] %compare.866, s32[] %add.869, s32[] %constant.870)
  %constant.872 = s32[] constant(0)
  %constant.873 = s32[] constant(0)
  %compare.874 = pred[] compare(s32[] %constant.872, s32[] %constant.873), direction=LT
  %constant.875 = s32[] constant(0)
  %constant.876 = s32[] constant(32)
  %add.877 = s32[] add(s32[] %constant.875, s32[] %constant.876)
  %constant.878 = s32[] constant(0)
  %select.879 = s32[] select(pred[] %compare.874, s32[] %add.877, s32[] %constant.878)
  %constant.880 = s32[] constant(0)
  %constant.881 = s32[] constant(0)
  %compare.882 = pred[] compare(s32[] %constant.880, s32[] %constant.881), direction=LT
  %constant.883 = s32[] constant(0)
  %constant.884 = s32[] constant(8)
  %add.885 = s32[] add(s32[] %constant.883, s32[] %constant.884)
  %constant.886 = s32[] constant(0)
  %select.887 = s32[] select(pred[] %compare.882, s32[] %add.885, s32[] %constant.886)
  %dynamic-update-slice.888 = f32[2,16,32,32,8]{4,3,2,1,0} dynamic-update-slice(f32[2,16,32,32,8]{4,3,2,1,0} %get-tuple-element.292, f32[1,16,32,32,8]{4,3,2,1,0} %broadcast.850, s32[] %select.855, s32[] %select.863, s32[] %select.871, /*index=5*/s32[] %select.879, s32[] %select.887)
  %get-tuple-element.293 = f32[2,1,1,1,16]{4,3,2,1,0} get-tuple-element((u32[2,2]{1,0}, f32[2,16]{1,0}, f32[2,16]{1,0}, f32[2,3,3,8,16]{4,3,2,1,0}, f32[2,16]{1,0}, /*index=5*/f32[2,16]{1,0}, f32[2,1,1,16,16]{4,3,2,1,0}, f32[2,8]{1,0}, f32[2,8]{1,0}, s32[], /*index=10*/f32[16,32,32,8]{3,2,1,0}, pred[], pred[], pred[], pred[], /*index=15*/pred[], pred[], pred[], pred[], pred[], /*index=20*/f32[2,16,32,32,8]{4,3,2,1,0}, f32[2,16,32,32,8]{4,3,2,1,0}, f32[2,16,32,32,8]{4,3,2,1,0}, f32[2,16,32,32,8]{4,3,2,1,0}, f32[2,3,3,8,16]{4,3,2,1,0}, /*index=25*/f32[2,16,32,32,8]{4,3,2,1,0}, f32[2,1,1,1,16]{4,3,2,1,0}, f32[2,3,3,8,16]{4,3,2,1,0}, f32[2,16]{1,0}, f32[2,1,1,1,16]{4,3,2,1,0}, /*index=30*/f32[2,16,32,32,16]{4,3,2,1,0}, f32[2,16,32,32,16]{4,3,2,1,0}, f32[2,16,32,32,16]{4,3,2,1,0}, f32[2,16,32,32,16]{4,3,2,1,0}, f32[2,16,32,32,16]{4,3,2,1,0}, /*index=35*/f32[2,1,1,16,16]{4,3,2,1,0}, f32[2,16,32,32,16]{4,3,2,1,0}, f32[2,1,1,1,16]{4,3,2,1,0}, f32[2,1,1,16,16]{4,3,2,1,0}, f32[2,16]{1,0}, /*index=40*/f32[2,1,1,1,16]{4,3,2,1,0}, f32[2,16,32,32,16]{4,3,2,1,0}, f32[2,16,32,32,8]{4,3,2,1,0}, f32[2,16,32,32,8]{4,3,2,1,0}, f32[2,16,32,32,8]{4,3,2,1,0}, /*index=45*/f32[2,16,32,32,8]{4,3,2,1,0}, f32[2,16,32,32,8]{4,3,2,1,0}, f32[2,16,32,32,8]{4,3,2,1,0}, f32[2,16,1,1,8]{4,3,2,1,0}, f32[2,16,32,32,8]{4,3,2,1,0}, /*index=50*/f32[2,16,1024,8]{3,2,1,0}, f32[2,16,8]{2,1,0}, f32[2,16,8]{2,1,0}, f32[2,1,1,1,8]{4,3,2,1,0}, f32[2,16,32,32,8]{4,3,2,1,0}) %parameter.266), index=26
  %broadcast.889 = f32[1,1,1,1,16]{4,3,2,1,0} broadcast(f32[1,1,1,16]{3,2,1,0} %broadcast.520), dimensions={1,2,3,4}
  %constant.890 = s32[] constant(0)
  %compare.891 = pred[] compare(s32[] %get-tuple-element.276, s32[] %constant.890), direction=LT
  %constant.892 = s32[] constant(2)
  %add.893 = s32[] add(s32[] %get-tuple-element.276, s32[] %constant.892)
  %select.894 = s32[] select(pred[] %compare.891, s32[] %add.893, s32[] %get-tuple-element.276)
  %constant.895 = s32[] constant(0)
  %constant.896 = s32[] constant(0)
  %compare.897 = pred[] compare(s32[] %constant.895, s32[] %constant.896), direction=LT
  %constant.898 = s32[] constant(0)
  %constant.899 = s32[] constant(1)
  %add.900 = s32[] add(s32[] %constant.898, s32[] %constant.899)
  %constant.901 = s32[] constant(0)
  %select.902 = s32[] select(pred[] %compare.897, s32[] %add.900, s32[] %constant.901)
  %constant.903 = s32[] constant(0)
  %constant.904 = s32[] constant(0)
  %compare.905 = pred[] compare(s32[] %constant.903, s32[] %constant.904), direction=LT
  %constant.906 = s32[] constant(0)
  %constant.907 = s32[] constant(1)
  %add.908 = s32[] add(s32[] %constant.906, s32[] %constant.907)
  %constant.909 = s32[] constant(0)
  %select.910 = s32[] select(pred[] %compare.905, s32[] %add.908, s32[] %constant.909)
  %constant.911 = s32[] constant(0)
  %constant.912 = s32[] constant(0)
  %compare.913 = pred[] compare(s32[] %constant.911, s32[] %constant.912), direction=LT
  %constant.914 = s32[] constant(0)
  %constant.915 = s32[] constant(1)
  %add.916 = s32[] add(s32[] %constant.914, s32[] %constant.915)
  %constant.917 = s32[] constant(0)
  %select.918 = s32[] select(pred[] %compare.913, s32[] %add.916, s32[] %constant.917)
  %constant.919 = s32[] constant(0)
  %constant.920 = s32[] constant(0)
  %compare.921 = pred[] compare(s32[] %constant.919, s32[] %constant.920), direction=LT
  %constant.922 = s32[] constant(0)
  %constant.923 = s32[] constant(16)
  %add.924 = s32[] add(s32[] %constant.922, s32[] %constant.923)
  %constant.925 = s32[] constant(0)
  %select.926 = s32[] select(pred[] %compare.921, s32[] %add.924, s32[] %constant.925)
  %dynamic-update-slice.927 = f32[2,1,1,1,16]{4,3,2,1,0} dynamic-update-slice(f32[2,1,1,1,16]{4,3,2,1,0} %get-tuple-element.293, f32[1,1,1,1,16]{4,3,2,1,0} %broadcast.889, s32[] %select.894, s32[] %select.902, s32[] %select.910, /*index=5*/s32[] %select.918, s32[] %select.926)
  %get-tuple-element.294 = f32[2,3,3,8,16]{4,3,2,1,0} get-tuple-element((u32[2,2]{1,0}, f32[2,16]{1,0}, f32[2,16]{1,0}, f32[2,3,3,8,16]{4,3,2,1,0}, f32[2,16]{1,0}, /*index=5*/f32[2,16]{1,0}, f32[2,1,1,16,16]{4,3,2,1,0}, f32[2,8]{1,0}, f32[2,8]{1,0}, s32[], /*index=10*/f32[16,32,32,8]{3,2,1,0}, pred[], pred[], pred[], pred[], /*index=15*/pred[], pred[], pred[], pred[], pred[], /*index=20*/f32[2,16,32,32,8]{4,3,2,1,0}, f32[2,16,32,32,8]{4,3,2,1,0}, f32[2,16,32,32,8]{4,3,2,1,0}, f32[2,16,32,32,8]{4,3,2,1,0}, f32[2,3,3,8,16]{4,3,2,1,0}, /*index=25*/f32[2,16,32,32,8]{4,3,2,1,0}, f32[2,1,1,1,16]{4,3,2,1,0}, f32[2,3,3,8,16]{4,3,2,1,0}, f32[2,16]{1,0}, f32[2,1,1,1,16]{4,3,2,1,0}, /*index=30*/f32[2,16,32,32,16]{4,3,2,1,0}, f32[2,16,32,32,16]{4,3,2,1,0}, f32[2,16,32,32,16]{4,3,2,1,0}, f32[2,16,32,32,16]{4,3,2,1,0}, f32[2,16,32,32,16]{4,3,2,1,0}, /*index=35*/f32[2,1,1,16,16]{4,3,2,1,0}, f32[2,16,32,32,16]{4,3,2,1,0}, f32[2,1,1,1,16]{4,3,2,1,0}, f32[2,1,1,16,16]{4,3,2,1,0}, f32[2,16]{1,0}, /*index=40*/f32[2,1,1,1,16]{4,3,2,1,0}, f32[2,16,32,32,16]{4,3,2,1,0}, f32[2,16,32,32,8]{4,3,2,1,0}, f32[2,16,32,32,8]{4,3,2,1,0}, f32[2,16,32,32,8]{4,3,2,1,0}, /*index=45*/f32[2,16,32,32,8]{4,3,2,1,0}, f32[2,16,32,32,8]{4,3,2,1,0}, f32[2,16,32,32,8]{4,3,2,1,0}, f32[2,16,1,1,8]{4,3,2,1,0}, f32[2,16,32,32,8]{4,3,2,1,0}, /*index=50*/f32[2,16,1024,8]{3,2,1,0}, f32[2,16,8]{2,1,0}, f32[2,16,8]{2,1,0}, f32[2,1,1,1,8]{4,3,2,1,0}, f32[2,16,32,32,8]{4,3,2,1,0}) %parameter.266), index=27
  %constant.617 = f32[] constant(2)
  %broadcast.618 = f32[3,3,8,16]{3,2,1,0} broadcast(f32[] %constant.617), dimensions={}
  %multiply.619 = f32[3,3,8,16]{3,2,1,0} multiply(f32[3,3,8,16]{3,2,1,0} %broadcast.618, f32[3,3,8,16]{3,2,1,0} %reshape.406)
  %broadcast.928 = f32[1,3,3,8,16]{4,3,2,1,0} broadcast(f32[3,3,8,16]{3,2,1,0} %multiply.619), dimensions={1,2,3,4}
  %constant.929 = s32[] constant(0)
  %compare.930 = pred[] compare(s32[] %get-tuple-element.276, s32[] %constant.929), direction=LT
  %constant.931 = s32[] constant(2)
  %add.932 = s32[] add(s32[] %get-tuple-element.276, s32[] %constant.931)
  %select.933 = s32[] select(pred[] %compare.930, s32[] %add.932, s32[] %get-tuple-element.276)
  %constant.934 = s32[] constant(0)
  %constant.935 = s32[] constant(0)
  %compare.936 = pred[] compare(s32[] %constant.934, s32[] %constant.935), direction=LT
  %constant.937 = s32[] constant(0)
  %constant.938 = s32[] constant(3)
  %add.939 = s32[] add(s32[] %constant.937, s32[] %constant.938)
  %constant.940 = s32[] constant(0)
  %select.941 = s32[] select(pred[] %compare.936, s32[] %add.939, s32[] %constant.940)
  %constant.942 = s32[] constant(0)
  %constant.943 = s32[] constant(0)
  %compare.944 = pred[] compare(s32[] %constant.942, s32[] %constant.943), direction=LT
  %constant.945 = s32[] constant(0)
  %constant.946 = s32[] constant(3)
  %add.947 = s32[] add(s32[] %constant.945, s32[] %constant.946)
  %constant.948 = s32[] constant(0)
  %select.949 = s32[] select(pred[] %compare.944, s32[] %add.947, s32[] %constant.948)
  %constant.950 = s32[] constant(0)
  %constant.951 = s32[] constant(0)
  %compare.952 = pred[] compare(s32[] %constant.950, s32[] %constant.951), direction=LT
  %constant.953 = s32[] constant(0)
  %constant.954 = s32[] constant(8)
  %add.955 = s32[] add(s32[] %constant.953, s32[] %constant.954)
  %constant.956 = s32[] constant(0)
  %select.957 = s32[] select(pred[] %compare.952, s32[] %add.955, s32[] %constant.956)
  %constant.958 = s32[] constant(0)
  %constant.959 = s32[] constant(0)
  %compare.960 = pred[] compare(s32[] %constant.958, s32[] %constant.959), direction=LT
  %constant.961 = s32[] constant(0)
  %constant.962 = s32[] constant(16)
  %add.963 = s32[] add(s32[] %constant.961, s32[] %constant.962)
  %constant.964 = s32[] constant(0)
  %select.965 = s32[] select(pred[] %compare.960, s32[] %add.963, s32[] %constant.964)
  %dynamic-update-slice.966 = f32[2,3,3,8,16]{4,3,2,1,0} dynamic-update-slice(f32[2,3,3,8,16]{4,3,2,1,0} %get-tuple-element.294, f32[1,3,3,8,16]{4,3,2,1,0} %broadcast.928, s32[] %select.933, s32[] %select.941, s32[] %select.949, /*index=5*/s32[] %select.957, s32[] %select.965)
  %get-tuple-element.295 = f32[2,16]{1,0} get-tuple-element((u32[2,2]{1,0}, f32[2,16]{1,0}, f32[2,16]{1,0}, f32[2,3,3,8,16]{4,3,2,1,0}, f32[2,16]{1,0}, /*index=5*/f32[2,16]{1,0}, f32[2,1,1,16,16]{4,3,2,1,0}, f32[2,8]{1,0}, f32[2,8]{1,0}, s32[], /*index=10*/f32[16,32,32,8]{3,2,1,0}, pred[], pred[], pred[], pred[], /*index=15*/pred[], pred[], pred[], pred[], pred[], /*index=20*/f32[2,16,32,32,8]{4,3,2,1,0}, f32[2,16,32,32,8]{4,3,2,1,0}, f32[2,16,32,32,8]{4,3,2,1,0}, f32[2,16,32,32,8]{4,3,2,1,0}, f32[2,3,3,8,16]{4,3,2,1,0}, /*index=25*/f32[2,16,32,32,8]{4,3,2,1,0}, f32[2,1,1,1,16]{4,3,2,1,0}, f32[2,3,3,8,16]{4,3,2,1,0}, f32[2,16]{1,0}, f32[2,1,1,1,16]{4,3,2,1,0}, /*index=30*/f32[2,16,32,32,16]{4,3,2,1,0}, f32[2,16,32,32,16]{4,3,2,1,0}, f32[2,16,32,32,16]{4,3,2,1,0}, f32[2,16,32,32,16]{4,3,2,1,0}, f32[2,16,32,32,16]{4,3,2,1,0}, /*index=35*/f32[2,1,1,16,16]{4,3,2,1,0}, f32[2,16,32,32,16]{4,3,2,1,0}, f32[2,1,1,1,16]{4,3,2,1,0}, f32[2,1,1,16,16]{4,3,2,1,0}, f32[2,16]{1,0}, /*index=40*/f32[2,1,1,1,16]{4,3,2,1,0}, f32[2,16,32,32,16]{4,3,2,1,0}, f32[2,16,32,32,8]{4,3,2,1,0}, f32[2,16,32,32,8]{4,3,2,1,0}, f32[2,16,32,32,8]{4,3,2,1,0}, /*index=45*/f32[2,16,32,32,8]{4,3,2,1,0}, f32[2,16,32,32,8]{4,3,2,1,0}, f32[2,16,32,32,8]{4,3,2,1,0}, f32[2,16,1,1,8]{4,3,2,1,0}, f32[2,16,32,32,8]{4,3,2,1,0}, /*index=50*/f32[2,16,1024,8]{3,2,1,0}, f32[2,16,8]{2,1,0}, f32[2,16,8]{2,1,0}, f32[2,1,1,1,8]{4,3,2,1,0}, f32[2,16,32,32,8]{4,3,2,1,0}) %parameter.266), index=28
  %constant.621 = f32[] constant(-0.5)
  %broadcast.622 = f32[16]{0} broadcast(f32[] %constant.621), dimensions={}
  %divide.620 = f32[16]{0} divide(f32[16]{0} %rsqrt.519, f32[16]{0} %reduce.518)
  %multiply.623 = f32[16]{0} multiply(f32[16]{0} %broadcast.622, f32[16]{0} %divide.620)
  %broadcast.967 = f32[1,16]{1,0} broadcast(f32[16]{0} %multiply.623), dimensions={1}
  %constant.968 = s32[] constant(0)
  %compare.969 = pred[] compare(s32[] %get-tuple-element.276, s32[] %constant.968), direction=LT
  %constant.970 = s32[] constant(2)
  %add.971 = s32[] add(s32[] %get-tuple-element.276, s32[] %constant.970)
  %select.972 = s32[] select(pred[] %compare.969, s32[] %add.971, s32[] %get-tuple-element.276)
  %constant.973 = s32[] constant(0)
  %constant.974 = s32[] constant(0)
  %compare.975 = pred[] compare(s32[] %constant.973, s32[] %constant.974), direction=LT
  %constant.976 = s32[] constant(0)
  %constant.977 = s32[] constant(16)
  %add.978 = s32[] add(s32[] %constant.976, s32[] %constant.977)
  %constant.979 = s32[] constant(0)
  %select.980 = s32[] select(pred[] %compare.975, s32[] %add.978, s32[] %constant.979)
  %dynamic-update-slice.981 = f32[2,16]{1,0} dynamic-update-slice(f32[2,16]{1,0} %get-tuple-element.295, f32[1,16]{1,0} %broadcast.967, s32[] %select.972, s32[] %select.980)
  %get-tuple-element.296 = f32[2,1,1,1,16]{4,3,2,1,0} get-tuple-element((u32[2,2]{1,0}, f32[2,16]{1,0}, f32[2,16]{1,0}, f32[2,3,3,8,16]{4,3,2,1,0}, f32[2,16]{1,0}, /*index=5*/f32[2,16]{1,0}, f32[2,1,1,16,16]{4,3,2,1,0}, f32[2,8]{1,0}, f32[2,8]{1,0}, s32[], /*index=10*/f32[16,32,32,8]{3,2,1,0}, pred[], pred[], pred[], pred[], /*index=15*/pred[], pred[], pred[], pred[], pred[], /*index=20*/f32[2,16,32,32,8]{4,3,2,1,0}, f32[2,16,32,32,8]{4,3,2,1,0}, f32[2,16,32,32,8]{4,3,2,1,0}, f32[2,16,32,32,8]{4,3,2,1,0}, f32[2,3,3,8,16]{4,3,2,1,0}, /*index=25*/f32[2,16,32,32,8]{4,3,2,1,0}, f32[2,1,1,1,16]{4,3,2,1,0}, f32[2,3,3,8,16]{4,3,2,1,0}, f32[2,16]{1,0}, f32[2,1,1,1,16]{4,3,2,1,0}, /*index=30*/f32[2,16,32,32,16]{4,3,2,1,0}, f32[2,16,32,32,16]{4,3,2,1,0}, f32[2,16,32,32,16]{4,3,2,1,0}, f32[2,16,32,32,16]{4,3,2,1,0}, f32[2,16,32,32,16]{4,3,2,1,0}, /*index=35*/f32[2,1,1,16,16]{4,3,2,1,0}, f32[2,16,32,32,16]{4,3,2,1,0}, f32[2,1,1,1,16]{4,3,2,1,0}, f32[2,1,1,16,16]{4,3,2,1,0}, f32[2,16]{1,0}, /*index=40*/f32[2,1,1,1,16]{4,3,2,1,0}, f32[2,16,32,32,16]{4,3,2,1,0}, f32[2,16,32,32,8]{4,3,2,1,0}, f32[2,16,32,32,8]{4,3,2,1,0}, f32[2,16,32,32,8]{4,3,2,1,0}, /*index=45*/f32[2,16,32,32,8]{4,3,2,1,0}, f32[2,16,32,32,8]{4,3,2,1,0}, f32[2,16,32,32,8]{4,3,2,1,0}, f32[2,16,1,1,8]{4,3,2,1,0}, f32[2,16,32,32,8]{4,3,2,1,0}, /*index=50*/f32[2,16,1024,8]{3,2,1,0}, f32[2,16,8]{2,1,0}, f32[2,16,8]{2,1,0}, f32[2,1,1,1,8]{4,3,2,1,0}, f32[2,16,32,32,8]{4,3,2,1,0}) %parameter.266), index=29
  %broadcast.982 = f32[1,1,1,1,16]{4,3,2,1,0} broadcast(f32[1,1,1,16]{3,2,1,0} %broadcast.525), dimensions={1,2,3,4}
  %constant.983 = s32[] constant(0)
  %compare.984 = pred[] compare(s32[] %get-tuple-element.276, s32[] %constant.983), direction=LT
  %constant.985 = s32[] constant(2)
  %add.986 = s32[] add(s32[] %get-tuple-element.276, s32[] %constant.985)
  %select.987 = s32[] select(pred[] %compare.984, s32[] %add.986, s32[] %get-tuple-element.276)
  %constant.988 = s32[] constant(0)
  %constant.989 = s32[] constant(0)
  %compare.990 = pred[] compare(s32[] %constant.988, s32[] %constant.989), direction=LT
  %constant.991 = s32[] constant(0)
  %constant.992 = s32[] constant(1)
  %add.993 = s32[] add(s32[] %constant.991, s32[] %constant.992)
  %constant.994 = s32[] constant(0)
  %select.995 = s32[] select(pred[] %compare.990, s32[] %add.993, s32[] %constant.994)
  %constant.996 = s32[] constant(0)
  %constant.997 = s32[] constant(0)
  %compare.998 = pred[] compare(s32[] %constant.996, s32[] %constant.997), direction=LT
  %constant.999 = s32[] constant(0)
  %constant.1000 = s32[] constant(1)
  %add.1001 = s32[] add(s32[] %constant.999, s32[] %constant.1000)
  %constant.1002 = s32[] constant(0)
  %select.1003 = s32[] select(pred[] %compare.998, s32[] %add.1001, s32[] %constant.1002)
  %constant.1004 = s32[] constant(0)
  %constant.1005 = s32[] constant(0)
  %compare.1006 = pred[] compare(s32[] %constant.1004, s32[] %constant.1005), direction=LT
  %constant.1007 = s32[] constant(0)
  %constant.1008 = s32[] constant(1)
  %add.1009 = s32[] add(s32[] %constant.1007, s32[] %constant.1008)
  %constant.1010 = s32[] constant(0)
  %select.1011 = s32[] select(pred[] %compare.1006, s32[] %add.1009, s32[] %constant.1010)
  %constant.1012 = s32[] constant(0)
  %constant.1013 = s32[] constant(0)
  %compare.1014 = pred[] compare(s32[] %constant.1012, s32[] %constant.1013), direction=LT
  %constant.1015 = s32[] constant(0)
  %constant.1016 = s32[] constant(16)
  %add.1017 = s32[] add(s32[] %constant.1015, s32[] %constant.1016)
  %constant.1018 = s32[] constant(0)
  %select.1019 = s32[] select(pred[] %compare.1014, s32[] %add.1017, s32[] %constant.1018)
  %dynamic-update-slice.1020 = f32[2,1,1,1,16]{4,3,2,1,0} dynamic-update-slice(f32[2,1,1,1,16]{4,3,2,1,0} %get-tuple-element.296, f32[1,1,1,1,16]{4,3,2,1,0} %broadcast.982, s32[] %select.987, s32[] %select.995, s32[] %select.1003, /*index=5*/s32[] %select.1011, s32[] %select.1019)
  %get-tuple-element.297 = f32[2,16,32,32,16]{4,3,2,1,0} get-tuple-element((u32[2,2]{1,0}, f32[2,16]{1,0}, f32[2,16]{1,0}, f32[2,3,3,8,16]{4,3,2,1,0}, f32[2,16]{1,0}, /*index=5*/f32[2,16]{1,0}, f32[2,1,1,16,16]{4,3,2,1,0}, f32[2,8]{1,0}, f32[2,8]{1,0}, s32[], /*index=10*/f32[16,32,32,8]{3,2,1,0}, pred[], pred[], pred[], pred[], /*index=15*/pred[], pred[], pred[], pred[], pred[], /*index=20*/f32[2,16,32,32,8]{4,3,2,1,0}, f32[2,16,32,32,8]{4,3,2,1,0}, f32[2,16,32,32,8]{4,3,2,1,0}, f32[2,16,32,32,8]{4,3,2,1,0}, f32[2,3,3,8,16]{4,3,2,1,0}, /*index=25*/f32[2,16,32,32,8]{4,3,2,1,0}, f32[2,1,1,1,16]{4,3,2,1,0}, f32[2,3,3,8,16]{4,3,2,1,0}, f32[2,16]{1,0}, f32[2,1,1,1,16]{4,3,2,1,0}, /*index=30*/f32[2,16,32,32,16]{4,3,2,1,0}, f32[2,16,32,32,16]{4,3,2,1,0}, f32[2,16,32,32,16]{4,3,2,1,0}, f32[2,16,32,32,16]{4,3,2,1,0}, f32[2,16,32,32,16]{4,3,2,1,0}, /*index=35*/f32[2,1,1,16,16]{4,3,2,1,0}, f32[2,16,32,32,16]{4,3,2,1,0}, f32[2,1,1,1,16]{4,3,2,1,0}, f32[2,1,1,16,16]{4,3,2,1,0}, f32[2,16]{1,0}, /*index=40*/f32[2,1,1,1,16]{4,3,2,1,0}, f32[2,16,32,32,16]{4,3,2,1,0}, f32[2,16,32,32,8]{4,3,2,1,0}, f32[2,16,32,32,8]{4,3,2,1,0}, f32[2,16,32,32,8]{4,3,2,1,0}, /*index=45*/f32[2,16,32,32,8]{4,3,2,1,0}, f32[2,16,32,32,8]{4,3,2,1,0}, f32[2,16,32,32,8]{4,3,2,1,0}, f32[2,16,1,1,8]{4,3,2,1,0}, f32[2,16,32,32,8]{4,3,2,1,0}, /*index=50*/f32[2,16,1024,8]{3,2,1,0}, f32[2,16,8]{2,1,0}, f32[2,16,8]{2,1,0}, f32[2,1,1,1,8]{4,3,2,1,0}, f32[2,16,32,32,8]{4,3,2,1,0}) %parameter.266), index=30
  %broadcast.1021 = f32[1,16,32,32,16]{4,3,2,1,0} broadcast(f32[16,32,32,16]{3,2,1,0} %convolution.524), dimensions={1,2,3,4}
  %constant.1022 = s32[] constant(0)
  %compare.1023 = pred[] compare(s32[] %get-tuple-element.276, s32[] %constant.1022), direction=LT
  %constant.1024 = s32[] constant(2)
  %add.1025 = s32[] add(s32[] %get-tuple-element.276, s32[] %constant.1024)
  %select.1026 = s32[] select(pred[] %compare.1023, s32[] %add.1025, s32[] %get-tuple-element.276)
  %constant.1027 = s32[] constant(0)
  %constant.1028 = s32[] constant(0)
  %compare.1029 = pred[] compare(s32[] %constant.1027, s32[] %constant.1028), direction=LT
  %constant.1030 = s32[] constant(0)
  %constant.1031 = s32[] constant(16)
  %add.1032 = s32[] add(s32[] %constant.1030, s32[] %constant.1031)
  %constant.1033 = s32[] constant(0)
  %select.1034 = s32[] select(pred[] %compare.1029, s32[] %add.1032, s32[] %constant.1033)
  %constant.1035 = s32[] constant(0)
  %constant.1036 = s32[] constant(0)
  %compare.1037 = pred[] compare(s32[] %constant.1035, s32[] %constant.1036), direction=LT
  %constant.1038 = s32[] constant(0)
  %constant.1039 = s32[] constant(32)
  %add.1040 = s32[] add(s32[] %constant.1038, s32[] %constant.1039)
  %constant.1041 = s32[] constant(0)
  %select.1042 = s32[] select(pred[] %compare.1037, s32[] %add.1040, s32[] %constant.1041)
  %constant.1043 = s32[] constant(0)
  %constant.1044 = s32[] constant(0)
  %compare.1045 = pred[] compare(s32[] %constant.1043, s32[] %constant.1044), direction=LT
  %constant.1046 = s32[] constant(0)
  %constant.1047 = s32[] constant(32)
  %add.1048 = s32[] add(s32[] %constant.1046, s32[] %constant.1047)
  %constant.1049 = s32[] constant(0)
  %select.1050 = s32[] select(pred[] %compare.1045, s32[] %add.1048, s32[] %constant.1049)
  %constant.1051 = s32[] constant(0)
  %constant.1052 = s32[] constant(0)
  %compare.1053 = pred[] compare(s32[] %constant.1051, s32[] %constant.1052), direction=LT
  %constant.1054 = s32[] constant(0)
  %constant.1055 = s32[] constant(16)
  %add.1056 = s32[] add(s32[] %constant.1054, s32[] %constant.1055)
  %constant.1057 = s32[] constant(0)
  %select.1058 = s32[] select(pred[] %compare.1053, s32[] %add.1056, s32[] %constant.1057)
  %dynamic-update-slice.1059 = f32[2,16,32,32,16]{4,3,2,1,0} dynamic-update-slice(f32[2,16,32,32,16]{4,3,2,1,0} %get-tuple-element.297, f32[1,16,32,32,16]{4,3,2,1,0} %broadcast.1021, s32[] %select.1026, s32[] %select.1034, s32[] %select.1042, /*index=5*/s32[] %select.1050, s32[] %select.1058)
  %get-tuple-element.298 = f32[2,16,32,32,16]{4,3,2,1,0} get-tuple-element((u32[2,2]{1,0}, f32[2,16]{1,0}, f32[2,16]{1,0}, f32[2,3,3,8,16]{4,3,2,1,0}, f32[2,16]{1,0}, /*index=5*/f32[2,16]{1,0}, f32[2,1,1,16,16]{4,3,2,1,0}, f32[2,8]{1,0}, f32[2,8]{1,0}, s32[], /*index=10*/f32[16,32,32,8]{3,2,1,0}, pred[], pred[], pred[], pred[], /*index=15*/pred[], pred[], pred[], pred[], pred[], /*index=20*/f32[2,16,32,32,8]{4,3,2,1,0}, f32[2,16,32,32,8]{4,3,2,1,0}, f32[2,16,32,32,8]{4,3,2,1,0}, f32[2,16,32,32,8]{4,3,2,1,0}, f32[2,3,3,8,16]{4,3,2,1,0}, /*index=25*/f32[2,16,32,32,8]{4,3,2,1,0}, f32[2,1,1,1,16]{4,3,2,1,0}, f32[2,3,3,8,16]{4,3,2,1,0}, f32[2,16]{1,0}, f32[2,1,1,1,16]{4,3,2,1,0}, /*index=30*/f32[2,16,32,32,16]{4,3,2,1,0}, f32[2,16,32,32,16]{4,3,2,1,0}, f32[2,16,32,32,16]{4,3,2,1,0}, f32[2,16,32,32,16]{4,3,2,1,0}, f32[2,16,32,32,16]{4,3,2,1,0}, /*index=35*/f32[2,1,1,16,16]{4,3,2,1,0}, f32[2,16,32,32,16]{4,3,2,1,0}, f32[2,1,1,1,16]{4,3,2,1,0}, f32[2,1,1,16,16]{4,3,2,1,0}, f32[2,16]{1,0}, /*index=40*/f32[2,1,1,1,16]{4,3,2,1,0}, f32[2,16,32,32,16]{4,3,2,1,0}, f32[2,16,32,32,8]{4,3,2,1,0}, f32[2,16,32,32,8]{4,3,2,1,0}, f32[2,16,32,32,8]{4,3,2,1,0}, /*index=45*/f32[2,16,32,32,8]{4,3,2,1,0}, f32[2,16,32,32,8]{4,3,2,1,0}, f32[2,16,32,32,8]{4,3,2,1,0}, f32[2,16,1,1,8]{4,3,2,1,0}, f32[2,16,32,32,8]{4,3,2,1,0}, /*index=50*/f32[2,16,1024,8]{3,2,1,0}, f32[2,16,8]{2,1,0}, f32[2,16,8]{2,1,0}, f32[2,1,1,1,8]{4,3,2,1,0}, f32[2,16,32,32,8]{4,3,2,1,0}) %parameter.266), index=31
  %constant.624 = f32[] constant(2)
  %broadcast.625 = f32[16,32,32,16]{3,2,1,0} broadcast(f32[] %constant.624), dimensions={}
  %multiply.626 = f32[16,32,32,16]{3,2,1,0} multiply(f32[16,32,32,16]{3,2,1,0} %broadcast.625, f32[16,32,32,16]{3,2,1,0} %add.532)
  %broadcast.1060 = f32[1,16,32,32,16]{4,3,2,1,0} broadcast(f32[16,32,32,16]{3,2,1,0} %multiply.626), dimensions={1,2,3,4}
  %constant.1061 = s32[] constant(0)
  %compare.1062 = pred[] compare(s32[] %get-tuple-element.276, s32[] %constant.1061), direction=LT
  %constant.1063 = s32[] constant(2)
  %add.1064 = s32[] add(s32[] %get-tuple-element.276, s32[] %constant.1063)
  %select.1065 = s32[] select(pred[] %compare.1062, s32[] %add.1064, s32[] %get-tuple-element.276)
  %constant.1066 = s32[] constant(0)
  %constant.1067 = s32[] constant(0)
  %compare.1068 = pred[] compare(s32[] %constant.1066, s32[] %constant.1067), direction=LT
  %constant.1069 = s32[] constant(0)
  %constant.1070 = s32[] constant(16)
  %add.1071 = s32[] add(s32[] %constant.1069, s32[] %constant.1070)
  %constant.1072 = s32[] constant(0)
  %select.1073 = s32[] select(pred[] %compare.1068, s32[] %add.1071, s32[] %constant.1072)
  %constant.1074 = s32[] constant(0)
  %constant.1075 = s32[] constant(0)
  %compare.1076 = pred[] compare(s32[] %constant.1074, s32[] %constant.1075), direction=LT
  %constant.1077 = s32[] constant(0)
  %constant.1078 = s32[] constant(32)
  %add.1079 = s32[] add(s32[] %constant.1077, s32[] %constant.1078)
  %constant.1080 = s32[] constant(0)
  %select.1081 = s32[] select(pred[] %compare.1076, s32[] %add.1079, s32[] %constant.1080)
  %constant.1082 = s32[] constant(0)
  %constant.1083 = s32[] constant(0)
  %compare.1084 = pred[] compare(s32[] %constant.1082, s32[] %constant.1083), direction=LT
  %constant.1085 = s32[] constant(0)
  %constant.1086 = s32[] constant(32)
  %add.1087 = s32[] add(s32[] %constant.1085, s32[] %constant.1086)
  %constant.1088 = s32[] constant(0)
  %select.1089 = s32[] select(pred[] %compare.1084, s32[] %add.1087, s32[] %constant.1088)
  %constant.1090 = s32[] constant(0)
  %constant.1091 = s32[] constant(0)
  %compare.1092 = pred[] compare(s32[] %constant.1090, s32[] %constant.1091), direction=LT
  %constant.1093 = s32[] constant(0)
  %constant.1094 = s32[] constant(16)
  %add.1095 = s32[] add(s32[] %constant.1093, s32[] %constant.1094)
  %constant.1096 = s32[] constant(0)
  %select.1097 = s32[] select(pred[] %compare.1092, s32[] %add.1095, s32[] %constant.1096)
  %dynamic-update-slice.1098 = f32[2,16,32,32,16]{4,3,2,1,0} dynamic-update-slice(f32[2,16,32,32,16]{4,3,2,1,0} %get-tuple-element.298, f32[1,16,32,32,16]{4,3,2,1,0} %broadcast.1060, s32[] %select.1065, s32[] %select.1073, s32[] %select.1081, /*index=5*/s32[] %select.1089, s32[] %select.1097)
  %get-tuple-element.299 = f32[2,16,32,32,16]{4,3,2,1,0} get-tuple-element((u32[2,2]{1,0}, f32[2,16]{1,0}, f32[2,16]{1,0}, f32[2,3,3,8,16]{4,3,2,1,0}, f32[2,16]{1,0}, /*index=5*/f32[2,16]{1,0}, f32[2,1,1,16,16]{4,3,2,1,0}, f32[2,8]{1,0}, f32[2,8]{1,0}, s32[], /*index=10*/f32[16,32,32,8]{3,2,1,0}, pred[], pred[], pred[], pred[], /*index=15*/pred[], pred[], pred[], pred[], pred[], /*index=20*/f32[2,16,32,32,8]{4,3,2,1,0}, f32[2,16,32,32,8]{4,3,2,1,0}, f32[2,16,32,32,8]{4,3,2,1,0}, f32[2,16,32,32,8]{4,3,2,1,0}, f32[2,3,3,8,16]{4,3,2,1,0}, /*index=25*/f32[2,16,32,32,8]{4,3,2,1,0}, f32[2,1,1,1,16]{4,3,2,1,0}, f32[2,3,3,8,16]{4,3,2,1,0}, f32[2,16]{1,0}, f32[2,1,1,1,16]{4,3,2,1,0}, /*index=30*/f32[2,16,32,32,16]{4,3,2,1,0}, f32[2,16,32,32,16]{4,3,2,1,0}, f32[2,16,32,32,16]{4,3,2,1,0}, f32[2,16,32,32,16]{4,3,2,1,0}, f32[2,16,32,32,16]{4,3,2,1,0}, /*index=35*/f32[2,1,1,16,16]{4,3,2,1,0}, f32[2,16,32,32,16]{4,3,2,1,0}, f32[2,1,1,1,16]{4,3,2,1,0}, f32[2,1,1,16,16]{4,3,2,1,0}, f32[2,16]{1,0}, /*index=40*/f32[2,1,1,1,16]{4,3,2,1,0}, f32[2,16,32,32,16]{4,3,2,1,0}, f32[2,16,32,32,8]{4,3,2,1,0}, f32[2,16,32,32,8]{4,3,2,1,0}, f32[2,16,32,32,8]{4,3,2,1,0}, /*index=45*/f32[2,16,32,32,8]{4,3,2,1,0}, f32[2,16,32,32,8]{4,3,2,1,0}, f32[2,16,32,32,8]{4,3,2,1,0}, f32[2,16,1,1,8]{4,3,2,1,0}, f32[2,16,32,32,8]{4,3,2,1,0}, /*index=50*/f32[2,16,1024,8]{3,2,1,0}, f32[2,16,8]{2,1,0}, f32[2,16,8]{2,1,0}, f32[2,1,1,1,8]{4,3,2,1,0}, f32[2,16,32,32,8]{4,3,2,1,0}) %parameter.266), index=32
  %broadcast.1099 = f32[1,16,32,32,16]{4,3,2,1,0} broadcast(f32[16,32,32,16]{3,2,1,0} %rsqrt.537), dimensions={1,2,3,4}
  %constant.1100 = s32[] constant(0)
  %compare.1101 = pred[] compare(s32[] %get-tuple-element.276, s32[] %constant.1100), direction=LT
  %constant.1102 = s32[] constant(2)
  %add.1103 = s32[] add(s32[] %get-tuple-element.276, s32[] %constant.1102)
  %select.1104 = s32[] select(pred[] %compare.1101, s32[] %add.1103, s32[] %get-tuple-element.276)
  %constant.1105 = s32[] constant(0)
  %constant.1106 = s32[] constant(0)
  %compare.1107 = pred[] compare(s32[] %constant.1105, s32[] %constant.1106), direction=LT
  %constant.1108 = s32[] constant(0)
  %constant.1109 = s32[] constant(16)
  %add.1110 = s32[] add(s32[] %constant.1108, s32[] %constant.1109)
  %constant.1111 = s32[] constant(0)
  %select.1112 = s32[] select(pred[] %compare.1107, s32[] %add.1110, s32[] %constant.1111)
  %constant.1113 = s32[] constant(0)
  %constant.1114 = s32[] constant(0)
  %compare.1115 = pred[] compare(s32[] %constant.1113, s32[] %constant.1114), direction=LT
  %constant.1116 = s32[] constant(0)
  %constant.1117 = s32[] constant(32)
  %add.1118 = s32[] add(s32[] %constant.1116, s32[] %constant.1117)
  %constant.1119 = s32[] constant(0)
  %select.1120 = s32[] select(pred[] %compare.1115, s32[] %add.1118, s32[] %constant.1119)
  %constant.1121 = s32[] constant(0)
  %constant.1122 = s32[] constant(0)
  %compare.1123 = pred[] compare(s32[] %constant.1121, s32[] %constant.1122), direction=LT
  %constant.1124 = s32[] constant(0)
  %constant.1125 = s32[] constant(32)
  %add.1126 = s32[] add(s32[] %constant.1124, s32[] %constant.1125)
  %constant.1127 = s32[] constant(0)
  %select.1128 = s32[] select(pred[] %compare.1123, s32[] %add.1126, s32[] %constant.1127)
  %constant.1129 = s32[] constant(0)
  %constant.1130 = s32[] constant(0)
  %compare.1131 = pred[] compare(s32[] %constant.1129, s32[] %constant.1130), direction=LT
  %constant.1132 = s32[] constant(0)
  %constant.1133 = s32[] constant(16)
  %add.1134 = s32[] add(s32[] %constant.1132, s32[] %constant.1133)
  %constant.1135 = s32[] constant(0)
  %select.1136 = s32[] select(pred[] %compare.1131, s32[] %add.1134, s32[] %constant.1135)
  %dynamic-update-slice.1137 = f32[2,16,32,32,16]{4,3,2,1,0} dynamic-update-slice(f32[2,16,32,32,16]{4,3,2,1,0} %get-tuple-element.299, f32[1,16,32,32,16]{4,3,2,1,0} %broadcast.1099, s32[] %select.1104, s32[] %select.1112, s32[] %select.1120, /*index=5*/s32[] %select.1128, s32[] %select.1136)
  %get-tuple-element.300 = f32[2,16,32,32,16]{4,3,2,1,0} get-tuple-element((u32[2,2]{1,0}, f32[2,16]{1,0}, f32[2,16]{1,0}, f32[2,3,3,8,16]{4,3,2,1,0}, f32[2,16]{1,0}, /*index=5*/f32[2,16]{1,0}, f32[2,1,1,16,16]{4,3,2,1,0}, f32[2,8]{1,0}, f32[2,8]{1,0}, s32[], /*index=10*/f32[16,32,32,8]{3,2,1,0}, pred[], pred[], pred[], pred[], /*index=15*/pred[], pred[], pred[], pred[], pred[], /*index=20*/f32[2,16,32,32,8]{4,3,2,1,0}, f32[2,16,32,32,8]{4,3,2,1,0}, f32[2,16,32,32,8]{4,3,2,1,0}, f32[2,16,32,32,8]{4,3,2,1,0}, f32[2,3,3,8,16]{4,3,2,1,0}, /*index=25*/f32[2,16,32,32,8]{4,3,2,1,0}, f32[2,1,1,1,16]{4,3,2,1,0}, f32[2,3,3,8,16]{4,3,2,1,0}, f32[2,16]{1,0}, f32[2,1,1,1,16]{4,3,2,1,0}, /*index=30*/f32[2,16,32,32,16]{4,3,2,1,0}, f32[2,16,32,32,16]{4,3,2,1,0}, f32[2,16,32,32,16]{4,3,2,1,0}, f32[2,16,32,32,16]{4,3,2,1,0}, f32[2,16,32,32,16]{4,3,2,1,0}, /*index=35*/f32[2,1,1,16,16]{4,3,2,1,0}, f32[2,16,32,32,16]{4,3,2,1,0}, f32[2,1,1,1,16]{4,3,2,1,0}, f32[2,1,1,16,16]{4,3,2,1,0}, f32[2,16]{1,0}, /*index=40*/f32[2,1,1,1,16]{4,3,2,1,0}, f32[2,16,32,32,16]{4,3,2,1,0}, f32[2,16,32,32,8]{4,3,2,1,0}, f32[2,16,32,32,8]{4,3,2,1,0}, f32[2,16,32,32,8]{4,3,2,1,0}, /*index=45*/f32[2,16,32,32,8]{4,3,2,1,0}, f32[2,16,32,32,8]{4,3,2,1,0}, f32[2,16,32,32,8]{4,3,2,1,0}, f32[2,16,1,1,8]{4,3,2,1,0}, f32[2,16,32,32,8]{4,3,2,1,0}, /*index=50*/f32[2,16,1024,8]{3,2,1,0}, f32[2,16,8]{2,1,0}, f32[2,16,8]{2,1,0}, f32[2,1,1,1,8]{4,3,2,1,0}, f32[2,16,32,32,8]{4,3,2,1,0}) %parameter.266), index=33
  %broadcast.1138 = f32[1,16,32,32,16]{4,3,2,1,0} broadcast(f32[16,32,32,16]{3,2,1,0} %multiply.533), dimensions={1,2,3,4}
  %constant.1139 = s32[] constant(0)
  %compare.1140 = pred[] compare(s32[] %get-tuple-element.276, s32[] %constant.1139), direction=LT
  %constant.1141 = s32[] constant(2)
  %add.1142 = s32[] add(s32[] %get-tuple-element.276, s32[] %constant.1141)
  %select.1143 = s32[] select(pred[] %compare.1140, s32[] %add.1142, s32[] %get-tuple-element.276)
  %constant.1144 = s32[] constant(0)
  %constant.1145 = s32[] constant(0)
  %compare.1146 = pred[] compare(s32[] %constant.1144, s32[] %constant.1145), direction=LT
  %constant.1147 = s32[] constant(0)
  %constant.1148 = s32[] constant(16)
  %add.1149 = s32[] add(s32[] %constant.1147, s32[] %constant.1148)
  %constant.1150 = s32[] constant(0)
  %select.1151 = s32[] select(pred[] %compare.1146, s32[] %add.1149, s32[] %constant.1150)
  %constant.1152 = s32[] constant(0)
  %constant.1153 = s32[] constant(0)
  %compare.1154 = pred[] compare(s32[] %constant.1152, s32[] %constant.1153), direction=LT
  %constant.1155 = s32[] constant(0)
  %constant.1156 = s32[] constant(32)
  %add.1157 = s32[] add(s32[] %constant.1155, s32[] %constant.1156)
  %constant.1158 = s32[] constant(0)
  %select.1159 = s32[] select(pred[] %compare.1154, s32[] %add.1157, s32[] %constant.1158)
  %constant.1160 = s32[] constant(0)
  %constant.1161 = s32[] constant(0)
  %compare.1162 = pred[] compare(s32[] %constant.1160, s32[] %constant.1161), direction=LT
  %constant.1163 = s32[] constant(0)
  %constant.1164 = s32[] constant(32)
  %add.1165 = s32[] add(s32[] %constant.1163, s32[] %constant.1164)
  %constant.1166 = s32[] constant(0)
  %select.1167 = s32[] select(pred[] %compare.1162, s32[] %add.1165, s32[] %constant.1166)
  %constant.1168 = s32[] constant(0)
  %constant.1169 = s32[] constant(0)
  %compare.1170 = pred[] compare(s32[] %constant.1168, s32[] %constant.1169), direction=LT
  %constant.1171 = s32[] constant(0)
  %constant.1172 = s32[] constant(16)
  %add.1173 = s32[] add(s32[] %constant.1171, s32[] %constant.1172)
  %constant.1174 = s32[] constant(0)
  %select.1175 = s32[] select(pred[] %compare.1170, s32[] %add.1173, s32[] %constant.1174)
  %dynamic-update-slice.1176 = f32[2,16,32,32,16]{4,3,2,1,0} dynamic-update-slice(f32[2,16,32,32,16]{4,3,2,1,0} %get-tuple-element.300, f32[1,16,32,32,16]{4,3,2,1,0} %broadcast.1138, s32[] %select.1143, s32[] %select.1151, s32[] %select.1159, /*index=5*/s32[] %select.1167, s32[] %select.1175)
  %get-tuple-element.301 = f32[2,16,32,32,16]{4,3,2,1,0} get-tuple-element((u32[2,2]{1,0}, f32[2,16]{1,0}, f32[2,16]{1,0}, f32[2,3,3,8,16]{4,3,2,1,0}, f32[2,16]{1,0}, /*index=5*/f32[2,16]{1,0}, f32[2,1,1,16,16]{4,3,2,1,0}, f32[2,8]{1,0}, f32[2,8]{1,0}, s32[], /*index=10*/f32[16,32,32,8]{3,2,1,0}, pred[], pred[], pred[], pred[], /*index=15*/pred[], pred[], pred[], pred[], pred[], /*index=20*/f32[2,16,32,32,8]{4,3,2,1,0}, f32[2,16,32,32,8]{4,3,2,1,0}, f32[2,16,32,32,8]{4,3,2,1,0}, f32[2,16,32,32,8]{4,3,2,1,0}, f32[2,3,3,8,16]{4,3,2,1,0}, /*index=25*/f32[2,16,32,32,8]{4,3,2,1,0}, f32[2,1,1,1,16]{4,3,2,1,0}, f32[2,3,3,8,16]{4,3,2,1,0}, f32[2,16]{1,0}, f32[2,1,1,1,16]{4,3,2,1,0}, /*index=30*/f32[2,16,32,32,16]{4,3,2,1,0}, f32[2,16,32,32,16]{4,3,2,1,0}, f32[2,16,32,32,16]{4,3,2,1,0}, f32[2,16,32,32,16]{4,3,2,1,0}, f32[2,16,32,32,16]{4,3,2,1,0}, /*index=35*/f32[2,1,1,16,16]{4,3,2,1,0}, f32[2,16,32,32,16]{4,3,2,1,0}, f32[2,1,1,1,16]{4,3,2,1,0}, f32[2,1,1,16,16]{4,3,2,1,0}, f32[2,16]{1,0}, /*index=40*/f32[2,1,1,1,16]{4,3,2,1,0}, f32[2,16,32,32,16]{4,3,2,1,0}, f32[2,16,32,32,8]{4,3,2,1,0}, f32[2,16,32,32,8]{4,3,2,1,0}, f32[2,16,32,32,8]{4,3,2,1,0}, /*index=45*/f32[2,16,32,32,8]{4,3,2,1,0}, f32[2,16,32,32,8]{4,3,2,1,0}, f32[2,16,32,32,8]{4,3,2,1,0}, f32[2,16,1,1,8]{4,3,2,1,0}, f32[2,16,32,32,8]{4,3,2,1,0}, /*index=50*/f32[2,16,1024,8]{3,2,1,0}, f32[2,16,8]{2,1,0}, f32[2,16,8]{2,1,0}, f32[2,1,1,1,8]{4,3,2,1,0}, f32[2,16,32,32,8]{4,3,2,1,0}) %parameter.266), index=34
  %constant.628 = f32[] constant(-0.5)
  %broadcast.629 = f32[16,32,32,16]{3,2,1,0} broadcast(f32[] %constant.628), dimensions={}
  %divide.627 = f32[16,32,32,16]{3,2,1,0} divide(f32[16,32,32,16]{3,2,1,0} %rsqrt.537, f32[16,32,32,16]{3,2,1,0} %add.536)
  %multiply.630 = f32[16,32,32,16]{3,2,1,0} multiply(f32[16,32,32,16]{3,2,1,0} %broadcast.629, f32[16,32,32,16]{3,2,1,0} %divide.627)
  %broadcast.1177 = f32[1,16,32,32,16]{4,3,2,1,0} broadcast(f32[16,32,32,16]{3,2,1,0} %multiply.630), dimensions={1,2,3,4}
  %constant.1178 = s32[] constant(0)
  %compare.1179 = pred[] compare(s32[] %get-tuple-element.276, s32[] %constant.1178), direction=LT
  %constant.1180 = s32[] constant(2)
  %add.1181 = s32[] add(s32[] %get-tuple-element.276, s32[] %constant.1180)
  %select.1182 = s32[] select(pred[] %compare.1179, s32[] %add.1181, s32[] %get-tuple-element.276)
  %constant.1183 = s32[] constant(0)
  %constant.1184 = s32[] constant(0)
  %compare.1185 = pred[] compare(s32[] %constant.1183, s32[] %constant.1184), direction=LT
  %constant.1186 = s32[] constant(0)
  %constant.1187 = s32[] constant(16)
  %add.1188 = s32[] add(s32[] %constant.1186, s32[] %constant.1187)
  %constant.1189 = s32[] constant(0)
  %select.1190 = s32[] select(pred[] %compare.1185, s32[] %add.1188, s32[] %constant.1189)
  %constant.1191 = s32[] constant(0)
  %constant.1192 = s32[] constant(0)
  %compare.1193 = pred[] compare(s32[] %constant.1191, s32[] %constant.1192), direction=LT
  %constant.1194 = s32[] constant(0)
  %constant.1195 = s32[] constant(32)
  %add.1196 = s32[] add(s32[] %constant.1194, s32[] %constant.1195)
  %constant.1197 = s32[] constant(0)
  %select.1198 = s32[] select(pred[] %compare.1193, s32[] %add.1196, s32[] %constant.1197)
  %constant.1199 = s32[] constant(0)
  %constant.1200 = s32[] constant(0)
  %compare.1201 = pred[] compare(s32[] %constant.1199, s32[] %constant.1200), direction=LT
  %constant.1202 = s32[] constant(0)
  %constant.1203 = s32[] constant(32)
  %add.1204 = s32[] add(s32[] %constant.1202, s32[] %constant.1203)
  %constant.1205 = s32[] constant(0)
  %select.1206 = s32[] select(pred[] %compare.1201, s32[] %add.1204, s32[] %constant.1205)
  %constant.1207 = s32[] constant(0)
  %constant.1208 = s32[] constant(0)
  %compare.1209 = pred[] compare(s32[] %constant.1207, s32[] %constant.1208), direction=LT
  %constant.1210 = s32[] constant(0)
  %constant.1211 = s32[] constant(16)
  %add.1212 = s32[] add(s32[] %constant.1210, s32[] %constant.1211)
  %constant.1213 = s32[] constant(0)
  %select.1214 = s32[] select(pred[] %compare.1209, s32[] %add.1212, s32[] %constant.1213)
  %dynamic-update-slice.1215 = f32[2,16,32,32,16]{4,3,2,1,0} dynamic-update-slice(f32[2,16,32,32,16]{4,3,2,1,0} %get-tuple-element.301, f32[1,16,32,32,16]{4,3,2,1,0} %broadcast.1177, s32[] %select.1182, s32[] %select.1190, s32[] %select.1198, /*index=5*/s32[] %select.1206, s32[] %select.1214)
  %get-tuple-element.302 = f32[2,1,1,16,16]{4,3,2,1,0} get-tuple-element((u32[2,2]{1,0}, f32[2,16]{1,0}, f32[2,16]{1,0}, f32[2,3,3,8,16]{4,3,2,1,0}, f32[2,16]{1,0}, /*index=5*/f32[2,16]{1,0}, f32[2,1,1,16,16]{4,3,2,1,0}, f32[2,8]{1,0}, f32[2,8]{1,0}, s32[], /*index=10*/f32[16,32,32,8]{3,2,1,0}, pred[], pred[], pred[], pred[], /*index=15*/pred[], pred[], pred[], pred[], pred[], /*index=20*/f32[2,16,32,32,8]{4,3,2,1,0}, f32[2,16,32,32,8]{4,3,2,1,0}, f32[2,16,32,32,8]{4,3,2,1,0}, f32[2,16,32,32,8]{4,3,2,1,0}, f32[2,3,3,8,16]{4,3,2,1,0}, /*index=25*/f32[2,16,32,32,8]{4,3,2,1,0}, f32[2,1,1,1,16]{4,3,2,1,0}, f32[2,3,3,8,16]{4,3,2,1,0}, f32[2,16]{1,0}, f32[2,1,1,1,16]{4,3,2,1,0}, /*index=30*/f32[2,16,32,32,16]{4,3,2,1,0}, f32[2,16,32,32,16]{4,3,2,1,0}, f32[2,16,32,32,16]{4,3,2,1,0}, f32[2,16,32,32,16]{4,3,2,1,0}, f32[2,16,32,32,16]{4,3,2,1,0}, /*index=35*/f32[2,1,1,16,16]{4,3,2,1,0}, f32[2,16,32,32,16]{4,3,2,1,0}, f32[2,1,1,1,16]{4,3,2,1,0}, f32[2,1,1,16,16]{4,3,2,1,0}, f32[2,16]{1,0}, /*index=40*/f32[2,1,1,1,16]{4,3,2,1,0}, f32[2,16,32,32,16]{4,3,2,1,0}, f32[2,16,32,32,8]{4,3,2,1,0}, f32[2,16,32,32,8]{4,3,2,1,0}, f32[2,16,32,32,8]{4,3,2,1,0}, /*index=45*/f32[2,16,32,32,8]{4,3,2,1,0}, f32[2,16,32,32,8]{4,3,2,1,0}, f32[2,16,32,32,8]{4,3,2,1,0}, f32[2,16,1,1,8]{4,3,2,1,0}, f32[2,16,32,32,8]{4,3,2,1,0}, /*index=50*/f32[2,16,1024,8]{3,2,1,0}, f32[2,16,8]{2,1,0}, f32[2,16,8]{2,1,0}, f32[2,1,1,1,8]{4,3,2,1,0}, f32[2,16,32,32,8]{4,3,2,1,0}) %parameter.266), index=35
  %broadcast.1216 = f32[1,1,1,16,16]{4,3,2,1,0} broadcast(f32[1,1,16,16]{3,2,1,0} %multiply.550), dimensions={1,2,3,4}
  %constant.1217 = s32[] constant(0)
  %compare.1218 = pred[] compare(s32[] %get-tuple-element.276, s32[] %constant.1217), direction=LT
  %constant.1219 = s32[] constant(2)
  %add.1220 = s32[] add(s32[] %get-tuple-element.276, s32[] %constant.1219)
  %select.1221 = s32[] select(pred[] %compare.1218, s32[] %add.1220, s32[] %get-tuple-element.276)
  %constant.1222 = s32[] constant(0)
  %constant.1223 = s32[] constant(0)
  %compare.1224 = pred[] compare(s32[] %constant.1222, s32[] %constant.1223), direction=LT
  %constant.1225 = s32[] constant(0)
  %constant.1226 = s32[] constant(1)
  %add.1227 = s32[] add(s32[] %constant.1225, s32[] %constant.1226)
  %constant.1228 = s32[] constant(0)
  %select.1229 = s32[] select(pred[] %compare.1224, s32[] %add.1227, s32[] %constant.1228)
  %constant.1230 = s32[] constant(0)
  %constant.1231 = s32[] constant(0)
  %compare.1232 = pred[] compare(s32[] %constant.1230, s32[] %constant.1231), direction=LT
  %constant.1233 = s32[] constant(0)
  %constant.1234 = s32[] constant(1)
  %add.1235 = s32[] add(s32[] %constant.1233, s32[] %constant.1234)
  %constant.1236 = s32[] constant(0)
  %select.1237 = s32[] select(pred[] %compare.1232, s32[] %add.1235, s32[] %constant.1236)
  %constant.1238 = s32[] constant(0)
  %constant.1239 = s32[] constant(0)
  %compare.1240 = pred[] compare(s32[] %constant.1238, s32[] %constant.1239), direction=LT
  %constant.1241 = s32[] constant(0)
  %constant.1242 = s32[] constant(16)
  %add.1243 = s32[] add(s32[] %constant.1241, s32[] %constant.1242)
  %constant.1244 = s32[] constant(0)
  %select.1245 = s32[] select(pred[] %compare.1240, s32[] %add.1243, s32[] %constant.1244)
  %constant.1246 = s32[] constant(0)
  %constant.1247 = s32[] constant(0)
  %compare.1248 = pred[] compare(s32[] %constant.1246, s32[] %constant.1247), direction=LT
  %constant.1249 = s32[] constant(0)
  %constant.1250 = s32[] constant(16)
  %add.1251 = s32[] add(s32[] %constant.1249, s32[] %constant.1250)
  %constant.1252 = s32[] constant(0)
  %select.1253 = s32[] select(pred[] %compare.1248, s32[] %add.1251, s32[] %constant.1252)
  %dynamic-update-slice.1254 = f32[2,1,1,16,16]{4,3,2,1,0} dynamic-update-slice(f32[2,1,1,16,16]{4,3,2,1,0} %get-tuple-element.302, f32[1,1,1,16,16]{4,3,2,1,0} %broadcast.1216, s32[] %select.1221, s32[] %select.1229, s32[] %select.1237, /*index=5*/s32[] %select.1245, s32[] %select.1253)
  %get-tuple-element.303 = f32[2,16,32,32,16]{4,3,2,1,0} get-tuple-element((u32[2,2]{1,0}, f32[2,16]{1,0}, f32[2,16]{1,0}, f32[2,3,3,8,16]{4,3,2,1,0}, f32[2,16]{1,0}, /*index=5*/f32[2,16]{1,0}, f32[2,1,1,16,16]{4,3,2,1,0}, f32[2,8]{1,0}, f32[2,8]{1,0}, s32[], /*index=10*/f32[16,32,32,8]{3,2,1,0}, pred[], pred[], pred[], pred[], /*index=15*/pred[], pred[], pred[], pred[], pred[], /*index=20*/f32[2,16,32,32,8]{4,3,2,1,0}, f32[2,16,32,32,8]{4,3,2,1,0}, f32[2,16,32,32,8]{4,3,2,1,0}, f32[2,16,32,32,8]{4,3,2,1,0}, f32[2,3,3,8,16]{4,3,2,1,0}, /*index=25*/f32[2,16,32,32,8]{4,3,2,1,0}, f32[2,1,1,1,16]{4,3,2,1,0}, f32[2,3,3,8,16]{4,3,2,1,0}, f32[2,16]{1,0}, f32[2,1,1,1,16]{4,3,2,1,0}, /*index=30*/f32[2,16,32,32,16]{4,3,2,1,0}, f32[2,16,32,32,16]{4,3,2,1,0}, f32[2,16,32,32,16]{4,3,2,1,0}, f32[2,16,32,32,16]{4,3,2,1,0}, f32[2,16,32,32,16]{4,3,2,1,0}, /*index=35*/f32[2,1,1,16,16]{4,3,2,1,0}, f32[2,16,32,32,16]{4,3,2,1,0}, f32[2,1,1,1,16]{4,3,2,1,0}, f32[2,1,1,16,16]{4,3,2,1,0}, f32[2,16]{1,0}, /*index=40*/f32[2,1,1,1,16]{4,3,2,1,0}, f32[2,16,32,32,16]{4,3,2,1,0}, f32[2,16,32,32,8]{4,3,2,1,0}, f32[2,16,32,32,8]{4,3,2,1,0}, f32[2,16,32,32,8]{4,3,2,1,0}, /*index=45*/f32[2,16,32,32,8]{4,3,2,1,0}, f32[2,16,32,32,8]{4,3,2,1,0}, f32[2,16,32,32,8]{4,3,2,1,0}, f32[2,16,1,1,8]{4,3,2,1,0}, f32[2,16,32,32,8]{4,3,2,1,0}, /*index=50*/f32[2,16,1024,8]{3,2,1,0}, f32[2,16,8]{2,1,0}, f32[2,16,8]{2,1,0}, f32[2,1,1,1,8]{4,3,2,1,0}, f32[2,16,32,32,8]{4,3,2,1,0}) %parameter.266), index=36
  %broadcast.1255 = f32[1,16,32,32,16]{4,3,2,1,0} broadcast(f32[16,32,32,16]{3,2,1,0} %multiply.542), dimensions={1,2,3,4}
  %constant.1256 = s32[] constant(0)
  %compare.1257 = pred[] compare(s32[] %get-tuple-element.276, s32[] %constant.1256), direction=LT
  %constant.1258 = s32[] constant(2)
  %add.1259 = s32[] add(s32[] %get-tuple-element.276, s32[] %constant.1258)
  %select.1260 = s32[] select(pred[] %compare.1257, s32[] %add.1259, s32[] %get-tuple-element.276)
  %constant.1261 = s32[] constant(0)
  %constant.1262 = s32[] constant(0)
  %compare.1263 = pred[] compare(s32[] %constant.1261, s32[] %constant.1262), direction=LT
  %constant.1264 = s32[] constant(0)
  %constant.1265 = s32[] constant(16)
  %add.1266 = s32[] add(s32[] %constant.1264, s32[] %constant.1265)
  %constant.1267 = s32[] constant(0)
  %select.1268 = s32[] select(pred[] %compare.1263, s32[] %add.1266, s32[] %constant.1267)
  %constant.1269 = s32[] constant(0)
  %constant.1270 = s32[] constant(0)
  %compare.1271 = pred[] compare(s32[] %constant.1269, s32[] %constant.1270), direction=LT
  %constant.1272 = s32[] constant(0)
  %constant.1273 = s32[] constant(32)
  %add.1274 = s32[] add(s32[] %constant.1272, s32[] %constant.1273)
  %constant.1275 = s32[] constant(0)
  %select.1276 = s32[] select(pred[] %compare.1271, s32[] %add.1274, s32[] %constant.1275)
  %constant.1277 = s32[] constant(0)
  %constant.1278 = s32[] constant(0)
  %compare.1279 = pred[] compare(s32[] %constant.1277, s32[] %constant.1278), direction=LT
  %constant.1280 = s32[] constant(0)
  %constant.1281 = s32[] constant(32)
  %add.1282 = s32[] add(s32[] %constant.1280, s32[] %constant.1281)
  %constant.1283 = s32[] constant(0)
  %select.1284 = s32[] select(pred[] %compare.1279, s32[] %add.1282, s32[] %constant.1283)
  %constant.1285 = s32[] constant(0)
  %constant.1286 = s32[] constant(0)
  %compare.1287 = pred[] compare(s32[] %constant.1285, s32[] %constant.1286), direction=LT
  %constant.1288 = s32[] constant(0)
  %constant.1289 = s32[] constant(16)
  %add.1290 = s32[] add(s32[] %constant.1288, s32[] %constant.1289)
  %constant.1291 = s32[] constant(0)
  %select.1292 = s32[] select(pred[] %compare.1287, s32[] %add.1290, s32[] %constant.1291)
  %dynamic-update-slice.1293 = f32[2,16,32,32,16]{4,3,2,1,0} dynamic-update-slice(f32[2,16,32,32,16]{4,3,2,1,0} %get-tuple-element.303, f32[1,16,32,32,16]{4,3,2,1,0} %broadcast.1255, s32[] %select.1260, s32[] %select.1268, s32[] %select.1276, /*index=5*/s32[] %select.1284, s32[] %select.1292)
  %get-tuple-element.304 = f32[2,1,1,1,16]{4,3,2,1,0} get-tuple-element((u32[2,2]{1,0}, f32[2,16]{1,0}, f32[2,16]{1,0}, f32[2,3,3,8,16]{4,3,2,1,0}, f32[2,16]{1,0}, /*index=5*/f32[2,16]{1,0}, f32[2,1,1,16,16]{4,3,2,1,0}, f32[2,8]{1,0}, f32[2,8]{1,0}, s32[], /*index=10*/f32[16,32,32,8]{3,2,1,0}, pred[], pred[], pred[], pred[], /*index=15*/pred[], pred[], pred[], pred[], pred[], /*index=20*/f32[2,16,32,32,8]{4,3,2,1,0}, f32[2,16,32,32,8]{4,3,2,1,0}, f32[2,16,32,32,8]{4,3,2,1,0}, f32[2,16,32,32,8]{4,3,2,1,0}, f32[2,3,3,8,16]{4,3,2,1,0}, /*index=25*/f32[2,16,32,32,8]{4,3,2,1,0}, f32[2,1,1,1,16]{4,3,2,1,0}, f32[2,3,3,8,16]{4,3,2,1,0}, f32[2,16]{1,0}, f32[2,1,1,1,16]{4,3,2,1,0}, /*index=30*/f32[2,16,32,32,16]{4,3,2,1,0}, f32[2,16,32,32,16]{4,3,2,1,0}, f32[2,16,32,32,16]{4,3,2,1,0}, f32[2,16,32,32,16]{4,3,2,1,0}, f32[2,16,32,32,16]{4,3,2,1,0}, /*index=35*/f32[2,1,1,16,16]{4,3,2,1,0}, f32[2,16,32,32,16]{4,3,2,1,0}, f32[2,1,1,1,16]{4,3,2,1,0}, f32[2,1,1,16,16]{4,3,2,1,0}, f32[2,16]{1,0}, /*index=40*/f32[2,1,1,1,16]{4,3,2,1,0}, f32[2,16,32,32,16]{4,3,2,1,0}, f32[2,16,32,32,8]{4,3,2,1,0}, f32[2,16,32,32,8]{4,3,2,1,0}, f32[2,16,32,32,8]{4,3,2,1,0}, /*index=45*/f32[2,16,32,32,8]{4,3,2,1,0}, f32[2,16,32,32,8]{4,3,2,1,0}, f32[2,16,32,32,8]{4,3,2,1,0}, f32[2,16,1,1,8]{4,3,2,1,0}, f32[2,16,32,32,8]{4,3,2,1,0}, /*index=50*/f32[2,16,1024,8]{3,2,1,0}, f32[2,16,8]{2,1,0}, f32[2,16,8]{2,1,0}, f32[2,1,1,1,8]{4,3,2,1,0}, f32[2,16,32,32,8]{4,3,2,1,0}) %parameter.266), index=37
  %broadcast.1294 = f32[1,1,1,1,16]{4,3,2,1,0} broadcast(f32[1,1,1,16]{3,2,1,0} %broadcast.547), dimensions={1,2,3,4}
  %constant.1295 = s32[] constant(0)
  %compare.1296 = pred[] compare(s32[] %get-tuple-element.276, s32[] %constant.1295), direction=LT
  %constant.1297 = s32[] constant(2)
  %add.1298 = s32[] add(s32[] %get-tuple-element.276, s32[] %constant.1297)
  %select.1299 = s32[] select(pred[] %compare.1296, s32[] %add.1298, s32[] %get-tuple-element.276)
  %constant.1300 = s32[] constant(0)
  %constant.1301 = s32[] constant(0)
  %compare.1302 = pred[] compare(s32[] %constant.1300, s32[] %constant.1301), direction=LT
  %constant.1303 = s32[] constant(0)
  %constant.1304 = s32[] constant(1)
  %add.1305 = s32[] add(s32[] %constant.1303, s32[] %constant.1304)
  %constant.1306 = s32[] constant(0)
  %select.1307 = s32[] select(pred[] %compare.1302, s32[] %add.1305, s32[] %constant.1306)
  %constant.1308 = s32[] constant(0)
  %constant.1309 = s32[] constant(0)
  %compare.1310 = pred[] compare(s32[] %constant.1308, s32[] %constant.1309), direction=LT
  %constant.1311 = s32[] constant(0)
  %constant.1312 = s32[] constant(1)
  %add.1313 = s32[] add(s32[] %constant.1311, s32[] %constant.1312)
  %constant.1314 = s32[] constant(0)
  %select.1315 = s32[] select(pred[] %compare.1310, s32[] %add.1313, s32[] %constant.1314)
  %constant.1316 = s32[] constant(0)
  %constant.1317 = s32[] constant(0)
  %compare.1318 = pred[] compare(s32[] %constant.1316, s32[] %constant.1317), direction=LT
  %constant.1319 = s32[] constant(0)
  %constant.1320 = s32[] constant(1)
  %add.1321 = s32[] add(s32[] %constant.1319, s32[] %constant.1320)
  %constant.1322 = s32[] constant(0)
  %select.1323 = s32[] select(pred[] %compare.1318, s32[] %add.1321, s32[] %constant.1322)
  %constant.1324 = s32[] constant(0)
  %constant.1325 = s32[] constant(0)
  %compare.1326 = pred[] compare(s32[] %constant.1324, s32[] %constant.1325), direction=LT
  %constant.1327 = s32[] constant(0)
  %constant.1328 = s32[] constant(16)
  %add.1329 = s32[] add(s32[] %constant.1327, s32[] %constant.1328)
  %constant.1330 = s32[] constant(0)
  %select.1331 = s32[] select(pred[] %compare.1326, s32[] %add.1329, s32[] %constant.1330)
  %dynamic-update-slice.1332 = f32[2,1,1,1,16]{4,3,2,1,0} dynamic-update-slice(f32[2,1,1,1,16]{4,3,2,1,0} %get-tuple-element.304, f32[1,1,1,1,16]{4,3,2,1,0} %broadcast.1294, s32[] %select.1299, s32[] %select.1307, s32[] %select.1315, /*index=5*/s32[] %select.1323, s32[] %select.1331)
  %get-tuple-element.305 = f32[2,1,1,16,16]{4,3,2,1,0} get-tuple-element((u32[2,2]{1,0}, f32[2,16]{1,0}, f32[2,16]{1,0}, f32[2,3,3,8,16]{4,3,2,1,0}, f32[2,16]{1,0}, /*index=5*/f32[2,16]{1,0}, f32[2,1,1,16,16]{4,3,2,1,0}, f32[2,8]{1,0}, f32[2,8]{1,0}, s32[], /*index=10*/f32[16,32,32,8]{3,2,1,0}, pred[], pred[], pred[], pred[], /*index=15*/pred[], pred[], pred[], pred[], pred[], /*index=20*/f32[2,16,32,32,8]{4,3,2,1,0}, f32[2,16,32,32,8]{4,3,2,1,0}, f32[2,16,32,32,8]{4,3,2,1,0}, f32[2,16,32,32,8]{4,3,2,1,0}, f32[2,3,3,8,16]{4,3,2,1,0}, /*index=25*/f32[2,16,32,32,8]{4,3,2,1,0}, f32[2,1,1,1,16]{4,3,2,1,0}, f32[2,3,3,8,16]{4,3,2,1,0}, f32[2,16]{1,0}, f32[2,1,1,1,16]{4,3,2,1,0}, /*index=30*/f32[2,16,32,32,16]{4,3,2,1,0}, f32[2,16,32,32,16]{4,3,2,1,0}, f32[2,16,32,32,16]{4,3,2,1,0}, f32[2,16,32,32,16]{4,3,2,1,0}, f32[2,16,32,32,16]{4,3,2,1,0}, /*index=35*/f32[2,1,1,16,16]{4,3,2,1,0}, f32[2,16,32,32,16]{4,3,2,1,0}, f32[2,1,1,1,16]{4,3,2,1,0}, f32[2,1,1,16,16]{4,3,2,1,0}, f32[2,16]{1,0}, /*index=40*/f32[2,1,1,1,16]{4,3,2,1,0}, f32[2,16,32,32,16]{4,3,2,1,0}, f32[2,16,32,32,8]{4,3,2,1,0}, f32[2,16,32,32,8]{4,3,2,1,0}, f32[2,16,32,32,8]{4,3,2,1,0}, /*index=45*/f32[2,16,32,32,8]{4,3,2,1,0}, f32[2,16,32,32,8]{4,3,2,1,0}, f32[2,16,32,32,8]{4,3,2,1,0}, f32[2,16,1,1,8]{4,3,2,1,0}, f32[2,16,32,32,8]{4,3,2,1,0}, /*index=50*/f32[2,16,1024,8]{3,2,1,0}, f32[2,16,8]{2,1,0}, f32[2,16,8]{2,1,0}, f32[2,1,1,1,8]{4,3,2,1,0}, f32[2,16,32,32,8]{4,3,2,1,0}) %parameter.266), index=38
  %constant.631 = f32[] constant(2)
  %broadcast.632 = f32[1,1,16,16]{3,2,1,0} broadcast(f32[] %constant.631), dimensions={}
  %multiply.633 = f32[1,1,16,16]{3,2,1,0} multiply(f32[1,1,16,16]{3,2,1,0} %broadcast.632, f32[1,1,16,16]{3,2,1,0} %reshape.475)
  %broadcast.1333 = f32[1,1,1,16,16]{4,3,2,1,0} broadcast(f32[1,1,16,16]{3,2,1,0} %multiply.633), dimensions={1,2,3,4}
  %constant.1334 = s32[] constant(0)
  %compare.1335 = pred[] compare(s32[] %get-tuple-element.276, s32[] %constant.1334), direction=LT
  %constant.1336 = s32[] constant(2)
  %add.1337 = s32[] add(s32[] %get-tuple-element.276, s32[] %constant.1336)
  %select.1338 = s32[] select(pred[] %compare.1335, s32[] %add.1337, s32[] %get-tuple-element.276)
  %constant.1339 = s32[] constant(0)
  %constant.1340 = s32[] constant(0)
  %compare.1341 = pred[] compare(s32[] %constant.1339, s32[] %constant.1340), direction=LT
  %constant.1342 = s32[] constant(0)
  %constant.1343 = s32[] constant(1)
  %add.1344 = s32[] add(s32[] %constant.1342, s32[] %constant.1343)
  %constant.1345 = s32[] constant(0)
  %select.1346 = s32[] select(pred[] %compare.1341, s32[] %add.1344, s32[] %constant.1345)
  %constant.1347 = s32[] constant(0)
  %constant.1348 = s32[] constant(0)
  %compare.1349 = pred[] compare(s32[] %constant.1347, s32[] %constant.1348), direction=LT
  %constant.1350 = s32[] constant(0)
  %constant.1351 = s32[] constant(1)
  %add.1352 = s32[] add(s32[] %constant.1350, s32[] %constant.1351)
  %constant.1353 = s32[] constant(0)
  %select.1354 = s32[] select(pred[] %compare.1349, s32[] %add.1352, s32[] %constant.1353)
  %constant.1355 = s32[] constant(0)
  %constant.1356 = s32[] constant(0)
  %compare.1357 = pred[] compare(s32[] %constant.1355, s32[] %constant.1356), direction=LT
  %constant.1358 = s32[] constant(0)
  %constant.1359 = s32[] constant(16)
  %add.1360 = s32[] add(s32[] %constant.1358, s32[] %constant.1359)
  %constant.1361 = s32[] constant(0)
  %select.1362 = s32[] select(pred[] %compare.1357, s32[] %add.1360, s32[] %constant.1361)
  %constant.1363 = s32[] constant(0)
  %constant.1364 = s32[] constant(0)
  %compare.1365 = pred[] compare(s32[] %constant.1363, s32[] %constant.1364), direction=LT
  %constant.1366 = s32[] constant(0)
  %constant.1367 = s32[] constant(16)
  %add.1368 = s32[] add(s32[] %constant.1366, s32[] %constant.1367)
  %constant.1369 = s32[] constant(0)
  %select.1370 = s32[] select(pred[] %compare.1365, s32[] %add.1368, s32[] %constant.1369)
  %dynamic-update-slice.1371 = f32[2,1,1,16,16]{4,3,2,1,0} dynamic-update-slice(f32[2,1,1,16,16]{4,3,2,1,0} %get-tuple-element.305, f32[1,1,1,16,16]{4,3,2,1,0} %broadcast.1333, s32[] %select.1338, s32[] %select.1346, s32[] %select.1354, /*index=5*/s32[] %select.1362, s32[] %select.1370)
  %get-tuple-element.306 = f32[2,16]{1,0} get-tuple-element((u32[2,2]{1,0}, f32[2,16]{1,0}, f32[2,16]{1,0}, f32[2,3,3,8,16]{4,3,2,1,0}, f32[2,16]{1,0}, /*index=5*/f32[2,16]{1,0}, f32[2,1,1,16,16]{4,3,2,1,0}, f32[2,8]{1,0}, f32[2,8]{1,0}, s32[], /*index=10*/f32[16,32,32,8]{3,2,1,0}, pred[], pred[], pred[], pred[], /*index=15*/pred[], pred[], pred[], pred[], pred[], /*index=20*/f32[2,16,32,32,8]{4,3,2,1,0}, f32[2,16,32,32,8]{4,3,2,1,0}, f32[2,16,32,32,8]{4,3,2,1,0}, f32[2,16,32,32,8]{4,3,2,1,0}, f32[2,3,3,8,16]{4,3,2,1,0}, /*index=25*/f32[2,16,32,32,8]{4,3,2,1,0}, f32[2,1,1,1,16]{4,3,2,1,0}, f32[2,3,3,8,16]{4,3,2,1,0}, f32[2,16]{1,0}, f32[2,1,1,1,16]{4,3,2,1,0}, /*index=30*/f32[2,16,32,32,16]{4,3,2,1,0}, f32[2,16,32,32,16]{4,3,2,1,0}, f32[2,16,32,32,16]{4,3,2,1,0}, f32[2,16,32,32,16]{4,3,2,1,0}, f32[2,16,32,32,16]{4,3,2,1,0}, /*index=35*/f32[2,1,1,16,16]{4,3,2,1,0}, f32[2,16,32,32,16]{4,3,2,1,0}, f32[2,1,1,1,16]{4,3,2,1,0}, f32[2,1,1,16,16]{4,3,2,1,0}, f32[2,16]{1,0}, /*index=40*/f32[2,1,1,1,16]{4,3,2,1,0}, f32[2,16,32,32,16]{4,3,2,1,0}, f32[2,16,32,32,8]{4,3,2,1,0}, f32[2,16,32,32,8]{4,3,2,1,0}, f32[2,16,32,32,8]{4,3,2,1,0}, /*index=45*/f32[2,16,32,32,8]{4,3,2,1,0}, f32[2,16,32,32,8]{4,3,2,1,0}, f32[2,16,32,32,8]{4,3,2,1,0}, f32[2,16,1,1,8]{4,3,2,1,0}, f32[2,16,32,32,8]{4,3,2,1,0}, /*index=50*/f32[2,16,1024,8]{3,2,1,0}, f32[2,16,8]{2,1,0}, f32[2,16,8]{2,1,0}, f32[2,1,1,1,8]{4,3,2,1,0}, f32[2,16,32,32,8]{4,3,2,1,0}) %parameter.266), index=39
  %constant.635 = f32[] constant(-0.5)
  %broadcast.636 = f32[16]{0} broadcast(f32[] %constant.635), dimensions={}
  %divide.634 = f32[16]{0} divide(f32[16]{0} %rsqrt.546, f32[16]{0} %reduce.545)
  %multiply.637 = f32[16]{0} multiply(f32[16]{0} %broadcast.636, f32[16]{0} %divide.634)
  %broadcast.1372 = f32[1,16]{1,0} broadcast(f32[16]{0} %multiply.637), dimensions={1}
  %constant.1373 = s32[] constant(0)
  %compare.1374 = pred[] compare(s32[] %get-tuple-element.276, s32[] %constant.1373), direction=LT
  %constant.1375 = s32[] constant(2)
  %add.1376 = s32[] add(s32[] %get-tuple-element.276, s32[] %constant.1375)
  %select.1377 = s32[] select(pred[] %compare.1374, s32[] %add.1376, s32[] %get-tuple-element.276)
  %constant.1378 = s32[] constant(0)
  %constant.1379 = s32[] constant(0)
  %compare.1380 = pred[] compare(s32[] %constant.1378, s32[] %constant.1379), direction=LT
  %constant.1381 = s32[] constant(0)
  %constant.1382 = s32[] constant(16)
  %add.1383 = s32[] add(s32[] %constant.1381, s32[] %constant.1382)
  %constant.1384 = s32[] constant(0)
  %select.1385 = s32[] select(pred[] %compare.1380, s32[] %add.1383, s32[] %constant.1384)
  %dynamic-update-slice.1386 = f32[2,16]{1,0} dynamic-update-slice(f32[2,16]{1,0} %get-tuple-element.306, f32[1,16]{1,0} %broadcast.1372, s32[] %select.1377, s32[] %select.1385)
  %get-tuple-element.307 = f32[2,1,1,1,16]{4,3,2,1,0} get-tuple-element((u32[2,2]{1,0}, f32[2,16]{1,0}, f32[2,16]{1,0}, f32[2,3,3,8,16]{4,3,2,1,0}, f32[2,16]{1,0}, /*index=5*/f32[2,16]{1,0}, f32[2,1,1,16,16]{4,3,2,1,0}, f32[2,8]{1,0}, f32[2,8]{1,0}, s32[], /*index=10*/f32[16,32,32,8]{3,2,1,0}, pred[], pred[], pred[], pred[], /*index=15*/pred[], pred[], pred[], pred[], pred[], /*index=20*/f32[2,16,32,32,8]{4,3,2,1,0}, f32[2,16,32,32,8]{4,3,2,1,0}, f32[2,16,32,32,8]{4,3,2,1,0}, f32[2,16,32,32,8]{4,3,2,1,0}, f32[2,3,3,8,16]{4,3,2,1,0}, /*index=25*/f32[2,16,32,32,8]{4,3,2,1,0}, f32[2,1,1,1,16]{4,3,2,1,0}, f32[2,3,3,8,16]{4,3,2,1,0}, f32[2,16]{1,0}, f32[2,1,1,1,16]{4,3,2,1,0}, /*index=30*/f32[2,16,32,32,16]{4,3,2,1,0}, f32[2,16,32,32,16]{4,3,2,1,0}, f32[2,16,32,32,16]{4,3,2,1,0}, f32[2,16,32,32,16]{4,3,2,1,0}, f32[2,16,32,32,16]{4,3,2,1,0}, /*index=35*/f32[2,1,1,16,16]{4,3,2,1,0}, f32[2,16,32,32,16]{4,3,2,1,0}, f32[2,1,1,1,16]{4,3,2,1,0}, f32[2,1,1,16,16]{4,3,2,1,0}, f32[2,16]{1,0}, /*index=40*/f32[2,1,1,1,16]{4,3,2,1,0}, f32[2,16,32,32,16]{4,3,2,1,0}, f32[2,16,32,32,8]{4,3,2,1,0}, f32[2,16,32,32,8]{4,3,2,1,0}, f32[2,16,32,32,8]{4,3,2,1,0}, /*index=45*/f32[2,16,32,32,8]{4,3,2,1,0}, f32[2,16,32,32,8]{4,3,2,1,0}, f32[2,16,32,32,8]{4,3,2,1,0}, f32[2,16,1,1,8]{4,3,2,1,0}, f32[2,16,32,32,8]{4,3,2,1,0}, /*index=50*/f32[2,16,1024,8]{3,2,1,0}, f32[2,16,8]{2,1,0}, f32[2,16,8]{2,1,0}, f32[2,1,1,1,8]{4,3,2,1,0}, f32[2,16,32,32,8]{4,3,2,1,0}) %parameter.266), index=40
  %broadcast.1387 = f32[1,1,1,1,16]{4,3,2,1,0} broadcast(f32[1,1,1,16]{3,2,1,0} %broadcast.552), dimensions={1,2,3,4}
  %constant.1388 = s32[] constant(0)
  %compare.1389 = pred[] compare(s32[] %get-tuple-element.276, s32[] %constant.1388), direction=LT
  %constant.1390 = s32[] constant(2)
  %add.1391 = s32[] add(s32[] %get-tuple-element.276, s32[] %constant.1390)
  %select.1392 = s32[] select(pred[] %compare.1389, s32[] %add.1391, s32[] %get-tuple-element.276)
  %constant.1393 = s32[] constant(0)
  %constant.1394 = s32[] constant(0)
  %compare.1395 = pred[] compare(s32[] %constant.1393, s32[] %constant.1394), direction=LT
  %constant.1396 = s32[] constant(0)
  %constant.1397 = s32[] constant(1)
  %add.1398 = s32[] add(s32[] %constant.1396, s32[] %constant.1397)
  %constant.1399 = s32[] constant(0)
  %select.1400 = s32[] select(pred[] %compare.1395, s32[] %add.1398, s32[] %constant.1399)
  %constant.1401 = s32[] constant(0)
  %constant.1402 = s32[] constant(0)
  %compare.1403 = pred[] compare(s32[] %constant.1401, s32[] %constant.1402), direction=LT
  %constant.1404 = s32[] constant(0)
  %constant.1405 = s32[] constant(1)
  %add.1406 = s32[] add(s32[] %constant.1404, s32[] %constant.1405)
  %constant.1407 = s32[] constant(0)
  %select.1408 = s32[] select(pred[] %compare.1403, s32[] %add.1406, s32[] %constant.1407)
  %constant.1409 = s32[] constant(0)
  %constant.1410 = s32[] constant(0)
  %compare.1411 = pred[] compare(s32[] %constant.1409, s32[] %constant.1410), direction=LT
  %constant.1412 = s32[] constant(0)
  %constant.1413 = s32[] constant(1)
  %add.1414 = s32[] add(s32[] %constant.1412, s32[] %constant.1413)
  %constant.1415 = s32[] constant(0)
  %select.1416 = s32[] select(pred[] %compare.1411, s32[] %add.1414, s32[] %constant.1415)
  %constant.1417 = s32[] constant(0)
  %constant.1418 = s32[] constant(0)
  %compare.1419 = pred[] compare(s32[] %constant.1417, s32[] %constant.1418), direction=LT
  %constant.1420 = s32[] constant(0)
  %constant.1421 = s32[] constant(16)
  %add.1422 = s32[] add(s32[] %constant.1420, s32[] %constant.1421)
  %constant.1423 = s32[] constant(0)
  %select.1424 = s32[] select(pred[] %compare.1419, s32[] %add.1422, s32[] %constant.1423)
  %dynamic-update-slice.1425 = f32[2,1,1,1,16]{4,3,2,1,0} dynamic-update-slice(f32[2,1,1,1,16]{4,3,2,1,0} %get-tuple-element.307, f32[1,1,1,1,16]{4,3,2,1,0} %broadcast.1387, s32[] %select.1392, s32[] %select.1400, s32[] %select.1408, /*index=5*/s32[] %select.1416, s32[] %select.1424)
  %get-tuple-element.308 = f32[2,16,32,32,16]{4,3,2,1,0} get-tuple-element((u32[2,2]{1,0}, f32[2,16]{1,0}, f32[2,16]{1,0}, f32[2,3,3,8,16]{4,3,2,1,0}, f32[2,16]{1,0}, /*index=5*/f32[2,16]{1,0}, f32[2,1,1,16,16]{4,3,2,1,0}, f32[2,8]{1,0}, f32[2,8]{1,0}, s32[], /*index=10*/f32[16,32,32,8]{3,2,1,0}, pred[], pred[], pred[], pred[], /*index=15*/pred[], pred[], pred[], pred[], pred[], /*index=20*/f32[2,16,32,32,8]{4,3,2,1,0}, f32[2,16,32,32,8]{4,3,2,1,0}, f32[2,16,32,32,8]{4,3,2,1,0}, f32[2,16,32,32,8]{4,3,2,1,0}, f32[2,3,3,8,16]{4,3,2,1,0}, /*index=25*/f32[2,16,32,32,8]{4,3,2,1,0}, f32[2,1,1,1,16]{4,3,2,1,0}, f32[2,3,3,8,16]{4,3,2,1,0}, f32[2,16]{1,0}, f32[2,1,1,1,16]{4,3,2,1,0}, /*index=30*/f32[2,16,32,32,16]{4,3,2,1,0}, f32[2,16,32,32,16]{4,3,2,1,0}, f32[2,16,32,32,16]{4,3,2,1,0}, f32[2,16,32,32,16]{4,3,2,1,0}, f32[2,16,32,32,16]{4,3,2,1,0}, /*index=35*/f32[2,1,1,16,16]{4,3,2,1,0}, f32[2,16,32,32,16]{4,3,2,1,0}, f32[2,1,1,1,16]{4,3,2,1,0}, f32[2,1,1,16,16]{4,3,2,1,0}, f32[2,16]{1,0}, /*index=40*/f32[2,1,1,1,16]{4,3,2,1,0}, f32[2,16,32,32,16]{4,3,2,1,0}, f32[2,16,32,32,8]{4,3,2,1,0}, f32[2,16,32,32,8]{4,3,2,1,0}, f32[2,16,32,32,8]{4,3,2,1,0}, /*index=45*/f32[2,16,32,32,8]{4,3,2,1,0}, f32[2,16,32,32,8]{4,3,2,1,0}, f32[2,16,32,32,8]{4,3,2,1,0}, f32[2,16,1,1,8]{4,3,2,1,0}, f32[2,16,32,32,8]{4,3,2,1,0}, /*index=50*/f32[2,16,1024,8]{3,2,1,0}, f32[2,16,8]{2,1,0}, f32[2,16,8]{2,1,0}, f32[2,1,1,1,8]{4,3,2,1,0}, f32[2,16,32,32,8]{4,3,2,1,0}) %parameter.266), index=41
  %broadcast.1426 = f32[1,16,32,32,16]{4,3,2,1,0} broadcast(f32[16,32,32,16]{3,2,1,0} %convolution.551), dimensions={1,2,3,4}
  %constant.1427 = s32[] constant(0)
  %compare.1428 = pred[] compare(s32[] %get-tuple-element.276, s32[] %constant.1427), direction=LT
  %constant.1429 = s32[] constant(2)
  %add.1430 = s32[] add(s32[] %get-tuple-element.276, s32[] %constant.1429)
  %select.1431 = s32[] select(pred[] %compare.1428, s32[] %add.1430, s32[] %get-tuple-element.276)
  %constant.1432 = s32[] constant(0)
  %constant.1433 = s32[] constant(0)
  %compare.1434 = pred[] compare(s32[] %constant.1432, s32[] %constant.1433), direction=LT
  %constant.1435 = s32[] constant(0)
  %constant.1436 = s32[] constant(16)
  %add.1437 = s32[] add(s32[] %constant.1435, s32[] %constant.1436)
  %constant.1438 = s32[] constant(0)
  %select.1439 = s32[] select(pred[] %compare.1434, s32[] %add.1437, s32[] %constant.1438)
  %constant.1440 = s32[] constant(0)
  %constant.1441 = s32[] constant(0)
  %compare.1442 = pred[] compare(s32[] %constant.1440, s32[] %constant.1441), direction=LT
  %constant.1443 = s32[] constant(0)
  %constant.1444 = s32[] constant(32)
  %add.1445 = s32[] add(s32[] %constant.1443, s32[] %constant.1444)
  %constant.1446 = s32[] constant(0)
  %select.1447 = s32[] select(pred[] %compare.1442, s32[] %add.1445, s32[] %constant.1446)
  %constant.1448 = s32[] constant(0)
  %constant.1449 = s32[] constant(0)
  %compare.1450 = pred[] compare(s32[] %constant.1448, s32[] %constant.1449), direction=LT
  %constant.1451 = s32[] constant(0)
  %constant.1452 = s32[] constant(32)
  %add.1453 = s32[] add(s32[] %constant.1451, s32[] %constant.1452)
  %constant.1454 = s32[] constant(0)
  %select.1455 = s32[] select(pred[] %compare.1450, s32[] %add.1453, s32[] %constant.1454)
  %constant.1456 = s32[] constant(0)
  %constant.1457 = s32[] constant(0)
  %compare.1458 = pred[] compare(s32[] %constant.1456, s32[] %constant.1457), direction=LT
  %constant.1459 = s32[] constant(0)
  %constant.1460 = s32[] constant(16)
  %add.1461 = s32[] add(s32[] %constant.1459, s32[] %constant.1460)
  %constant.1462 = s32[] constant(0)
  %select.1463 = s32[] select(pred[] %compare.1458, s32[] %add.1461, s32[] %constant.1462)
  %dynamic-update-slice.1464 = f32[2,16,32,32,16]{4,3,2,1,0} dynamic-update-slice(f32[2,16,32,32,16]{4,3,2,1,0} %get-tuple-element.308, f32[1,16,32,32,16]{4,3,2,1,0} %broadcast.1426, s32[] %select.1431, s32[] %select.1439, s32[] %select.1447, /*index=5*/s32[] %select.1455, s32[] %select.1463)
  %get-tuple-element.309 = f32[2,16,32,32,8]{4,3,2,1,0} get-tuple-element((u32[2,2]{1,0}, f32[2,16]{1,0}, f32[2,16]{1,0}, f32[2,3,3,8,16]{4,3,2,1,0}, f32[2,16]{1,0}, /*index=5*/f32[2,16]{1,0}, f32[2,1,1,16,16]{4,3,2,1,0}, f32[2,8]{1,0}, f32[2,8]{1,0}, s32[], /*index=10*/f32[16,32,32,8]{3,2,1,0}, pred[], pred[], pred[], pred[], /*index=15*/pred[], pred[], pred[], pred[], pred[], /*index=20*/f32[2,16,32,32,8]{4,3,2,1,0}, f32[2,16,32,32,8]{4,3,2,1,0}, f32[2,16,32,32,8]{4,3,2,1,0}, f32[2,16,32,32,8]{4,3,2,1,0}, f32[2,3,3,8,16]{4,3,2,1,0}, /*index=25*/f32[2,16,32,32,8]{4,3,2,1,0}, f32[2,1,1,1,16]{4,3,2,1,0}, f32[2,3,3,8,16]{4,3,2,1,0}, f32[2,16]{1,0}, f32[2,1,1,1,16]{4,3,2,1,0}, /*index=30*/f32[2,16,32,32,16]{4,3,2,1,0}, f32[2,16,32,32,16]{4,3,2,1,0}, f32[2,16,32,32,16]{4,3,2,1,0}, f32[2,16,32,32,16]{4,3,2,1,0}, f32[2,16,32,32,16]{4,3,2,1,0}, /*index=35*/f32[2,1,1,16,16]{4,3,2,1,0}, f32[2,16,32,32,16]{4,3,2,1,0}, f32[2,1,1,1,16]{4,3,2,1,0}, f32[2,1,1,16,16]{4,3,2,1,0}, f32[2,16]{1,0}, /*index=40*/f32[2,1,1,1,16]{4,3,2,1,0}, f32[2,16,32,32,16]{4,3,2,1,0}, f32[2,16,32,32,8]{4,3,2,1,0}, f32[2,16,32,32,8]{4,3,2,1,0}, f32[2,16,32,32,8]{4,3,2,1,0}, /*index=45*/f32[2,16,32,32,8]{4,3,2,1,0}, f32[2,16,32,32,8]{4,3,2,1,0}, f32[2,16,32,32,8]{4,3,2,1,0}, f32[2,16,1,1,8]{4,3,2,1,0}, f32[2,16,32,32,8]{4,3,2,1,0}, /*index=50*/f32[2,16,1024,8]{3,2,1,0}, f32[2,16,8]{2,1,0}, f32[2,16,8]{2,1,0}, f32[2,1,1,1,8]{4,3,2,1,0}, f32[2,16,32,32,8]{4,3,2,1,0}) %parameter.266), index=42
  %broadcast.1465 = f32[1,16,32,32,8]{4,3,2,1,0} broadcast(f32[16,32,32,8]{3,2,1,0} %multiply.573), dimensions={1,2,3,4}
  %constant.1466 = s32[] constant(0)
  %compare.1467 = pred[] compare(s32[] %get-tuple-element.276, s32[] %constant.1466), direction=LT
  %constant.1468 = s32[] constant(2)
  %add.1469 = s32[] add(s32[] %get-tuple-element.276, s32[] %constant.1468)
  %select.1470 = s32[] select(pred[] %compare.1467, s32[] %add.1469, s32[] %get-tuple-element.276)
  %constant.1471 = s32[] constant(0)
  %constant.1472 = s32[] constant(0)
  %compare.1473 = pred[] compare(s32[] %constant.1471, s32[] %constant.1472), direction=LT
  %constant.1474 = s32[] constant(0)
  %constant.1475 = s32[] constant(16)
  %add.1476 = s32[] add(s32[] %constant.1474, s32[] %constant.1475)
  %constant.1477 = s32[] constant(0)
  %select.1478 = s32[] select(pred[] %compare.1473, s32[] %add.1476, s32[] %constant.1477)
  %constant.1479 = s32[] constant(0)
  %constant.1480 = s32[] constant(0)
  %compare.1481 = pred[] compare(s32[] %constant.1479, s32[] %constant.1480), direction=LT
  %constant.1482 = s32[] constant(0)
  %constant.1483 = s32[] constant(32)
  %add.1484 = s32[] add(s32[] %constant.1482, s32[] %constant.1483)
  %constant.1485 = s32[] constant(0)
  %select.1486 = s32[] select(pred[] %compare.1481, s32[] %add.1484, s32[] %constant.1485)
  %constant.1487 = s32[] constant(0)
  %constant.1488 = s32[] constant(0)
  %compare.1489 = pred[] compare(s32[] %constant.1487, s32[] %constant.1488), direction=LT
  %constant.1490 = s32[] constant(0)
  %constant.1491 = s32[] constant(32)
  %add.1492 = s32[] add(s32[] %constant.1490, s32[] %constant.1491)
  %constant.1493 = s32[] constant(0)
  %select.1494 = s32[] select(pred[] %compare.1489, s32[] %add.1492, s32[] %constant.1493)
  %constant.1495 = s32[] constant(0)
  %constant.1496 = s32[] constant(0)
  %compare.1497 = pred[] compare(s32[] %constant.1495, s32[] %constant.1496), direction=LT
  %constant.1498 = s32[] constant(0)
  %constant.1499 = s32[] constant(8)
  %add.1500 = s32[] add(s32[] %constant.1498, s32[] %constant.1499)
  %constant.1501 = s32[] constant(0)
  %select.1502 = s32[] select(pred[] %compare.1497, s32[] %add.1500, s32[] %constant.1501)
  %dynamic-update-slice.1503 = f32[2,16,32,32,8]{4,3,2,1,0} dynamic-update-slice(f32[2,16,32,32,8]{4,3,2,1,0} %get-tuple-element.309, f32[1,16,32,32,8]{4,3,2,1,0} %broadcast.1465, s32[] %select.1470, s32[] %select.1478, s32[] %select.1486, /*index=5*/s32[] %select.1494, s32[] %select.1502)
  %get-tuple-element.310 = f32[2,16,32,32,8]{4,3,2,1,0} get-tuple-element((u32[2,2]{1,0}, f32[2,16]{1,0}, f32[2,16]{1,0}, f32[2,3,3,8,16]{4,3,2,1,0}, f32[2,16]{1,0}, /*index=5*/f32[2,16]{1,0}, f32[2,1,1,16,16]{4,3,2,1,0}, f32[2,8]{1,0}, f32[2,8]{1,0}, s32[], /*index=10*/f32[16,32,32,8]{3,2,1,0}, pred[], pred[], pred[], pred[], /*index=15*/pred[], pred[], pred[], pred[], pred[], /*index=20*/f32[2,16,32,32,8]{4,3,2,1,0}, f32[2,16,32,32,8]{4,3,2,1,0}, f32[2,16,32,32,8]{4,3,2,1,0}, f32[2,16,32,32,8]{4,3,2,1,0}, f32[2,3,3,8,16]{4,3,2,1,0}, /*index=25*/f32[2,16,32,32,8]{4,3,2,1,0}, f32[2,1,1,1,16]{4,3,2,1,0}, f32[2,3,3,8,16]{4,3,2,1,0}, f32[2,16]{1,0}, f32[2,1,1,1,16]{4,3,2,1,0}, /*index=30*/f32[2,16,32,32,16]{4,3,2,1,0}, f32[2,16,32,32,16]{4,3,2,1,0}, f32[2,16,32,32,16]{4,3,2,1,0}, f32[2,16,32,32,16]{4,3,2,1,0}, f32[2,16,32,32,16]{4,3,2,1,0}, /*index=35*/f32[2,1,1,16,16]{4,3,2,1,0}, f32[2,16,32,32,16]{4,3,2,1,0}, f32[2,1,1,1,16]{4,3,2,1,0}, f32[2,1,1,16,16]{4,3,2,1,0}, f32[2,16]{1,0}, /*index=40*/f32[2,1,1,1,16]{4,3,2,1,0}, f32[2,16,32,32,16]{4,3,2,1,0}, f32[2,16,32,32,8]{4,3,2,1,0}, f32[2,16,32,32,8]{4,3,2,1,0}, f32[2,16,32,32,8]{4,3,2,1,0}, /*index=45*/f32[2,16,32,32,8]{4,3,2,1,0}, f32[2,16,32,32,8]{4,3,2,1,0}, f32[2,16,32,32,8]{4,3,2,1,0}, f32[2,16,1,1,8]{4,3,2,1,0}, f32[2,16,32,32,8]{4,3,2,1,0}, /*index=50*/f32[2,16,1024,8]{3,2,1,0}, f32[2,16,8]{2,1,0}, f32[2,16,8]{2,1,0}, f32[2,1,1,1,8]{4,3,2,1,0}, f32[2,16,32,32,8]{4,3,2,1,0}) %parameter.266), index=43
  %broadcast.1504 = f32[1,16,32,32,8]{4,3,2,1,0} broadcast(f32[16,32,32,8]{3,2,1,0} %slice.560), dimensions={1,2,3,4}
  %constant.1505 = s32[] constant(0)
  %compare.1506 = pred[] compare(s32[] %get-tuple-element.276, s32[] %constant.1505), direction=LT
  %constant.1507 = s32[] constant(2)
  %add.1508 = s32[] add(s32[] %get-tuple-element.276, s32[] %constant.1507)
  %select.1509 = s32[] select(pred[] %compare.1506, s32[] %add.1508, s32[] %get-tuple-element.276)
  %constant.1510 = s32[] constant(0)
  %constant.1511 = s32[] constant(0)
  %compare.1512 = pred[] compare(s32[] %constant.1510, s32[] %constant.1511), direction=LT
  %constant.1513 = s32[] constant(0)
  %constant.1514 = s32[] constant(16)
  %add.1515 = s32[] add(s32[] %constant.1513, s32[] %constant.1514)
  %constant.1516 = s32[] constant(0)
  %select.1517 = s32[] select(pred[] %compare.1512, s32[] %add.1515, s32[] %constant.1516)
  %constant.1518 = s32[] constant(0)
  %constant.1519 = s32[] constant(0)
  %compare.1520 = pred[] compare(s32[] %constant.1518, s32[] %constant.1519), direction=LT
  %constant.1521 = s32[] constant(0)
  %constant.1522 = s32[] constant(32)
  %add.1523 = s32[] add(s32[] %constant.1521, s32[] %constant.1522)
  %constant.1524 = s32[] constant(0)
  %select.1525 = s32[] select(pred[] %compare.1520, s32[] %add.1523, s32[] %constant.1524)
  %constant.1526 = s32[] constant(0)
  %constant.1527 = s32[] constant(0)
  %compare.1528 = pred[] compare(s32[] %constant.1526, s32[] %constant.1527), direction=LT
  %constant.1529 = s32[] constant(0)
  %constant.1530 = s32[] constant(32)
  %add.1531 = s32[] add(s32[] %constant.1529, s32[] %constant.1530)
  %constant.1532 = s32[] constant(0)
  %select.1533 = s32[] select(pred[] %compare.1528, s32[] %add.1531, s32[] %constant.1532)
  %constant.1534 = s32[] constant(0)
  %constant.1535 = s32[] constant(0)
  %compare.1536 = pred[] compare(s32[] %constant.1534, s32[] %constant.1535), direction=LT
  %constant.1537 = s32[] constant(0)
  %constant.1538 = s32[] constant(8)
  %add.1539 = s32[] add(s32[] %constant.1537, s32[] %constant.1538)
  %constant.1540 = s32[] constant(0)
…
  %get-tuple-element.9479 = f32[2,16]{1,0} get-tuple-element((f32[2,16]{1,0}, f32[2,16]{1,0}, f32[2,3,3,8,16]{4,3,2,1,0}, f32[2,16]{1,0}, f32[2,16]{1,0}, /*index=5*/f32[2,1,1,16,16]{4,3,2,1,0}, f32[2,8]{1,0}, f32[2,8]{1,0}, f32[2,16,32,32,8]{4,3,2,1,0}, f32[2,16,32,32,8]{4,3,2,1,0}, /*index=10*/f32[2,16,32,32,8]{4,3,2,1,0}, f32[2,16,32,32,8]{4,3,2,1,0}, f32[2,3,3,8,16]{4,3,2,1,0}, f32[2,16,32,32,8]{4,3,2,1,0}, f32[2,1,1,1,16]{4,3,2,1,0}, /*index=15*/f32[2,3,3,8,16]{4,3,2,1,0}, f32[2,3,3,8,16]{4,3,2,1,0}, f32[2,16]{1,0}, f32[2,1,1,1,16]{4,3,2,1,0}, f32[2,16,32,32,16]{4,3,2,1,0}, /*index=20*/f32[2,16,32,32,16]{4,3,2,1,0}, f32[2,16,32,32,16]{4,3,2,1,0}, f32[2,16,32,32,16]{4,3,2,1,0}, f32[2,16,32,32,16]{4,3,2,1,0}, f32[2,1,1,16,16]{4,3,2,1,0}, /*index=25*/f32[2,16,32,32,16]{4,3,2,1,0}, f32[2,1,1,1,16]{4,3,2,1,0}, f32[2,1,1,16,16]{4,3,2,1,0}, f32[2,1,1,16,16]{4,3,2,1,0}, f32[2,16]{1,0}, /*index=30*/f32[2,1,1,1,16]{4,3,2,1,0}, f32[2,16,32,32,16]{4,3,2,1,0}, f32[2,16,32,32,8]{4,3,2,1,0}, f32[2,16,32,32,8]{4,3,2,1,0}, f32[2,16,32,32,8]{4,3,2,1,0}, /*index=35*/f32[2,16,32,32,8]{4,3,2,1,0}, f32[2,16,32,32,8]{4,3,2,1,0}, f32[2,16,32,32,8]{4,3,2,1,0}, f32[2,16,1,1,8]{4,3,2,1,0}, f32[2,16,32,32,8]{4,3,2,1,0}, /*index=40*/f32[2,16,1024,8]{3,2,1,0}, f32[2,16,8]{2,1,0}, f32[2,16,8]{2,1,0}, f32[2,1,1,1,8]{4,3,2,1,0}, f32[2,16,32,32,8]{4,3,2,1,0}, /*index=45*/s32[], pred[], f32[16,32,32,8]{3,2,1,0}, pred[], pred[], /*index=50*/pred[], pred[], pred[], pred[], pred[], /*index=55*/pred[], pred[], f32[2,16]{1,0}, f32[2,16]{1,0}, f32[2,3,3,8,16]{4,3,2,1,0}, /*index=60*/f32[2,16]{1,0}, f32[2,16]{1,0}, f32[2,1,1,16,16]{4,3,2,1,0}, f32[2,8]{1,0}, f32[2,8]{1,0}) %while.9418), index=60
  %get-tuple-element.9480 = f32[2,16]{1,0} get-tuple-element((f32[2,16]{1,0}, f32[2,16]{1,0}, f32[2,3,3,8,16]{4,3,2,1,0}, f32[2,16]{1,0}, f32[2,16]{1,0}, /*index=5*/f32[2,1,1,16,16]{4,3,2,1,0}, f32[2,8]{1,0}, f32[2,8]{1,0}, f32[2,16,32,32,8]{4,3,2,1,0}, f32[2,16,32,32,8]{4,3,2,1,0}, /*index=10*/f32[2,16,32,32,8]{4,3,2,1,0}, f32[2,16,32,32,8]{4,3,2,1,0}, f32[2,3,3,8,16]{4,3,2,1,0}, f32[2,16,32,32,8]{4,3,2,1,0}, f32[2,1,1,1,16]{4,3,2,1,0}, /*index=15*/f32[2,3,3,8,16]{4,3,2,1,0}, f32[2,3,3,8,16]{4,3,2,1,0}, f32[2,16]{1,0}, f32[2,1,1,1,16]{4,3,2,1,0}, f32[2,16,32,32,16]{4,3,2,1,0}, /*index=20*/f32[2,16,32,32,16]{4,3,2,1,0}, f32[2,16,32,32,16]{4,3,2,1,0}, f32[2,16,32,32,16]{4,3,2,1,0}, f32[2,16,32,32,16]{4,3,2,1,0}, f32[2,1,1,16,16]{4,3,2,1,0}, /*index=25*/f32[2,16,32,32,16]{4,3,2,1,0}, f32[2,1,1,1,16]{4,3,2,1,0}, f32[2,1,1,16,16]{4,3,2,1,0}, f32[2,1,1,16,16]{4,3,2,1,0}, f32[2,16]{1,0}, /*index=30*/f32[2,1,1,1,16]{4,3,2,1,0}, f32[2,16,32,32,16]{4,3,2,1,0}, f32[2,16,32,32,8]{4,3,2,1,0}, f32[2,16,32,32,8]{4,3,2,1,0}, f32[2,16,32,32,8]{4,3,2,1,0}, /*index=35*/f32[2,16,32,32,8]{4,3,2,1,0}, f32[2,16,32,32,8]{4,3,2,1,0}, f32[2,16,32,32,8]{4,3,2,1,0}, f32[2,16,1,1,8]{4,3,2,1,0}, f32[2,16,32,32,8]{4,3,2,1,0}, /*index=40*/f32[2,16,1024,8]{3,2,1,0}, f32[2,16,8]{2,1,0}, f32[2,16,8]{2,1,0}, f32[2,1,1,1,8]{4,3,2,1,0}, f32[2,16,32,32,8]{4,3,2,1,0}, /*index=45*/s32[], pred[], f32[16,32,32,8]{3,2,1,0}, pred[], pred[], /*index=50*/pred[], pred[], pred[], pred[], pred[], /*index=55*/pred[], pred[], f32[2,16]{1,0}, f32[2,16]{1,0}, f32[2,3,3,8,16]{4,3,2,1,0}, /*index=60*/f32[2,16]{1,0}, f32[2,16]{1,0}, f32[2,1,1,16,16]{4,3,2,1,0}, f32[2,8]{1,0}, f32[2,8]{1,0}) %while.9418), index=61
  %get-tuple-element.9481 = f32[2,1,1,16,16]{4,3,2,1,0} get-tuple-element((f32[2,16]{1,0}, f32[2,16]{1,0}, f32[2,3,3,8,16]{4,3,2,1,0}, f32[2,16]{1,0}, f32[2,16]{1,0}, /*index=5*/f32[2,1,1,16,16]{4,3,2,1,0}, f32[2,8]{1,0}, f32[2,8]{1,0}, f32[2,16,32,32,8]{4,3,2,1,0}, f32[2,16,32,32,8]{4,3,2,1,0}, /*index=10*/f32[2,16,32,32,8]{4,3,2,1,0}, f32[2,16,32,32,8]{4,3,2,1,0}, f32[2,3,3,8,16]{4,3,2,1,0}, f32[2,16,32,32,8]{4,3,2,1,0}, f32[2,1,1,1,16]{4,3,2,1,0}, /*index=15*/f32[2,3,3,8,16]{4,3,2,1,0}, f32[2,3,3,8,16]{4,3,2,1,0}, f32[2,16]{1,0}, f32[2,1,1,1,16]{4,3,2,1,0}, f32[2,16,32,32,16]{4,3,2,1,0}, /*index=20*/f32[2,16,32,32,16]{4,3,2,1,0}, f32[2,16,32,32,16]{4,3,2,1,0}, f32[2,16,32,32,16]{4,3,2,1,0}, f32[2,16,32,32,16]{4,3,2,1,0}, f32[2,1,1,16,16]{4,3,2,1,0}, /*index=25*/f32[2,16,32,32,16]{4,3,2,1,0}, f32[2,1,1,1,16]{4,3,2,1,0}, f32[2,1,1,16,16]{4,3,2,1,0}, f32[2,1,1,16,16]{4,3,2,1,0}, f32[2,16]{1,0}, /*index=30*/f32[2,1,1,1,16]{4,3,2,1,0}, f32[2,16,32,32,16]{4,3,2,1,0}, f32[2,16,32,32,8]{4,3,2,1,0}, f32[2,16,32,32,8]{4,3,2,1,0}, f32[2,16,32,32,8]{4,3,2,1,0}, /*index=35*/f32[2,16,32,32,8]{4,3,2,1,0}, f32[2,16,32,32,8]{4,3,2,1,0}, f32[2,16,32,32,8]{4,3,2,1,0}, f32[2,16,1,1,8]{4,3,2,1,0}, f32[2,16,32,32,8]{4,3,2,1,0}, /*index=40*/f32[2,16,1024,8]{3,2,1,0}, f32[2,16,8]{2,1,0}, f32[2,16,8]{2,1,0}, f32[2,1,1,1,8]{4,3,2,1,0}, f32[2,16,32,32,8]{4,3,2,1,0}, /*index=45*/s32[], pred[], f32[16,32,32,8]{3,2,1,0}, pred[], pred[], /*index=50*/pred[], pred[], pred[], pred[], pred[], /*index=55*/pred[], pred[], f32[2,16]{1,0}, f32[2,16]{1,0}, f32[2,3,3,8,16]{4,3,2,1,0}, /*index=60*/f32[2,16]{1,0}, f32[2,16]{1,0}, f32[2,1,1,16,16]{4,3,2,1,0}, f32[2,8]{1,0}, f32[2,8]{1,0}) %while.9418), index=62
  %get-tuple-element.9482 = f32[2,8]{1,0} get-tuple-element((f32[2,16]{1,0}, f32[2,16]{1,0}, f32[2,3,3,8,16]{4,3,2,1,0}, f32[2,16]{1,0}, f32[2,16]{1,0}, /*index=5*/f32[2,1,1,16,16]{4,3,2,1,0}, f32[2,8]{1,0}, f32[2,8]{1,0}, f32[2,16,32,32,8]{4,3,2,1,0}, f32[2,16,32,32,8]{4,3,2,1,0}, /*index=10*/f32[2,16,32,32,8]{4,3,2,1,0}, f32[2,16,32,32,8]{4,3,2,1,0}, f32[2,3,3,8,16]{4,3,2,1,0}, f32[2,16,32,32,8]{4,3,2,1,0}, f32[2,1,1,1,16]{4,3,2,1,0}, /*index=15*/f32[2,3,3,8,16]{4,3,2,1,0}, f32[2,3,3,8,16]{4,3,2,1,0}, f32[2,16]{1,0}, f32[2,1,1,1,16]{4,3,2,1,0}, f32[2,16,32,32,16]{4,3,2,1,0}, /*index=20*/f32[2,16,32,32,16]{4,3,2,1,0}, f32[2,16,32,32,16]{4,3,2,1,0}, f32[2,16,32,32,16]{4,3,2,1,0}, f32[2,16,32,32,16]{4,3,2,1,0}, f32[2,1,1,16,16]{4,3,2,1,0}, /*index=25*/f32[2,16,32,32,16]{4,3,2,1,0}, f32[2,1,1,1,16]{4,3,2,1,0}, f32[2,1,1,16,16]{4,3,2,1,0}, f32[2,1,1,16,16]{4,3,2,1,0}, f32[2,16]{1,0}, /*index=30*/f32[2,1,1,1,16]{4,3,2,1,0}, f32[2,16,32,32,16]{4,3,2,1,0}, f32[2,16,32,32,8]{4,3,2,1,0}, f32[2,16,32,32,8]{4,3,2,1,0}, f32[2,16,32,32,8]{4,3,2,1,0}, /*index=35*/f32[2,16,32,32,8]{4,3,2,1,0}, f32[2,16,32,32,8]{4,3,2,1,0}, f32[2,16,32,32,8]{4,3,2,1,0}, f32[2,16,1,1,8]{4,3,2,1,0}, f32[2,16,32,32,8]{4,3,2,1,0}, /*index=40*/f32[2,16,1024,8]{3,2,1,0}, f32[2,16,8]{2,1,0}, f32[2,16,8]{2,1,0}, f32[2,1,1,1,8]{4,3,2,1,0}, f32[2,16,32,32,8]{4,3,2,1,0}, /*index=45*/s32[], pred[], f32[16,32,32,8]{3,2,1,0}, pred[], pred[], /*index=50*/pred[], pred[], pred[], pred[], pred[], /*index=55*/pred[], pred[], f32[2,16]{1,0}, f32[2,16]{1,0}, f32[2,3,3,8,16]{4,3,2,1,0}, /*index=60*/f32[2,16]{1,0}, f32[2,16]{1,0}, f32[2,1,1,16,16]{4,3,2,1,0}, f32[2,8]{1,0}, f32[2,8]{1,0}) %while.9418), index=63
  %get-tuple-element.9483 = f32[2,8]{1,0} get-tuple-element((f32[2,16]{1,0}, f32[2,16]{1,0}, f32[2,3,3,8,16]{4,3,2,1,0}, f32[2,16]{1,0}, f32[2,16]{1,0}, /*index=5*/f32[2,1,1,16,16]{4,3,2,1,0}, f32[2,8]{1,0}, f32[2,8]{1,0}, f32[2,16,32,32,8]{4,3,2,1,0}, f32[2,16,32,32,8]{4,3,2,1,0}, /*index=10*/f32[2,16,32,32,8]{4,3,2,1,0}, f32[2,16,32,32,8]{4,3,2,1,0}, f32[2,3,3,8,16]{4,3,2,1,0}, f32[2,16,32,32,8]{4,3,2,1,0}, f32[2,1,1,1,16]{4,3,2,1,0}, /*index=15*/f32[2,3,3,8,16]{4,3,2,1,0}, f32[2,3,3,8,16]{4,3,2,1,0}, f32[2,16]{1,0}, f32[2,1,1,1,16]{4,3,2,1,0}, f32[2,16,32,32,16]{4,3,2,1,0}, /*index=20*/f32[2,16,32,32,16]{4,3,2,1,0}, f32[2,16,32,32,16]{4,3,2,1,0}, f32[2,16,32,32,16]{4,3,2,1,0}, f32[2,16,32,32,16]{4,3,2,1,0}, f32[2,1,1,16,16]{4,3,2,1,0}, /*index=25*/f32[2,16,32,32,16]{4,3,2,1,0}, f32[2,1,1,1,16]{4,3,2,1,0}, f32[2,1,1,16,16]{4,3,2,1,0}, f32[2,1,1,16,16]{4,3,2,1,0}, f32[2,16]{1,0}, /*index=30*/f32[2,1,1,1,16]{4,3,2,1,0}, f32[2,16,32,32,16]{4,3,2,1,0}, f32[2,16,32,32,8]{4,3,2,1,0}, f32[2,16,32,32,8]{4,3,2,1,0}, f32[2,16,32,32,8]{4,3,2,1,0}, /*index=35*/f32[2,16,32,32,8]{4,3,2,1,0}, f32[2,16,32,32,8]{4,3,2,1,0}, f32[2,16,32,32,8]{4,3,2,1,0}, f32[2,16,1,1,8]{4,3,2,1,0}, f32[2,16,32,32,8]{4,3,2,1,0}, /*index=40*/f32[2,16,1024,8]{3,2,1,0}, f32[2,16,8]{2,1,0}, f32[2,16,8]{2,1,0}, f32[2,1,1,1,8]{4,3,2,1,0}, f32[2,16,32,32,8]{4,3,2,1,0}, /*index=45*/s32[], pred[], f32[16,32,32,8]{3,2,1,0}, pred[], pred[], /*index=50*/pred[], pred[], pred[], pred[], pred[], /*index=55*/pred[], pred[], f32[2,16]{1,0}, f32[2,16]{1,0}, f32[2,3,3,8,16]{4,3,2,1,0}, /*index=60*/f32[2,16]{1,0}, f32[2,16]{1,0}, f32[2,1,1,16,16]{4,3,2,1,0}, f32[2,8]{1,0}, f32[2,8]{1,0}) %while.9418), index=64
  %tuple.9484 = (s32[], pred[], f32[16,32,32,8]{3,2,1,0}, pred[], pred[], /*index=5*/pred[], pred[], pred[], pred[], pred[], /*index=10*/pred[], pred[], f32[2,16]{1,0}, f32[2,16]{1,0}, f32[2,3,3,8,16]{4,3,2,1,0}, /*index=15*/f32[2,16]{1,0}, f32[2,16]{1,0}, f32[2,1,1,16,16]{4,3,2,1,0}, f32[2,8]{1,0}, f32[2,8]{1,0}) tuple(s32[] %get-tuple-element.9464, pred[] %get-tuple-element.9465, f32[16,32,32,8]{3,2,1,0} %get-tuple-element.9466, pred[] %get-tuple-element.9467, pred[] %get-tuple-element.9468, /*index=5*/pred[] %get-tuple-element.9469, pred[] %get-tuple-element.9470, pred[] %get-tuple-element.9471, pred[] %get-tuple-element.9472, pred[] %get-tuple-element.9473, /*index=10*/pred[] %get-tuple-element.9474, pred[] %get-tuple-element.9475, f32[2,16]{1,0} %get-tuple-element.9476, f32[2,16]{1,0} %get-tuple-element.9477, f32[2,3,3,8,16]{4,3,2,1,0} %get-tuple-element.9478, /*index=15*/f32[2,16]{1,0} %get-tuple-element.9479, f32[2,16]{1,0} %get-tuple-element.9480, f32[2,1,1,16,16]{4,3,2,1,0} %get-tuple-element.9481, f32[2,8]{1,0} %get-tuple-element.9482, f32[2,8]{1,0} %get-tuple-element.9483)
  %get-tuple-element.9485 = s32[] get-tuple-element((s32[], pred[], f32[16,32,32,8]{3,2,1,0}, pred[], pred[], /*index=5*/pred[], pred[], pred[], pred[], pred[], /*index=10*/pred[], pred[], f32[2,16]{1,0}, f32[2,16]{1,0}, f32[2,3,3,8,16]{4,3,2,1,0}, /*index=15*/f32[2,16]{1,0}, f32[2,16]{1,0}, f32[2,1,1,16,16]{4,3,2,1,0}, f32[2,8]{1,0}, f32[2,8]{1,0}) %tuple.9484), index=0
  %get-tuple-element.9486 = pred[] get-tuple-element((s32[], pred[], f32[16,32,32,8]{3,2,1,0}, pred[], pred[], /*index=5*/pred[], pred[], pred[], pred[], pred[], /*index=10*/pred[], pred[], f32[2,16]{1,0}, f32[2,16]{1,0}, f32[2,3,3,8,16]{4,3,2,1,0}, /*index=15*/f32[2,16]{1,0}, f32[2,16]{1,0}, f32[2,1,1,16,16]{4,3,2,1,0}, f32[2,8]{1,0}, f32[2,8]{1,0}) %tuple.9484), index=1
  %get-tuple-element.9487 = f32[16,32,32,8]{3,2,1,0} get-tuple-element((s32[], pred[], f32[16,32,32,8]{3,2,1,0}, pred[], pred[], /*index=5*/pred[], pred[], pred[], pred[], pred[], /*index=10*/pred[], pred[], f32[2,16]{1,0}, f32[2,16]{1,0}, f32[2,3,3,8,16]{4,3,2,1,0}, /*index=15*/f32[2,16]{1,0}, f32[2,16]{1,0}, f32[2,1,1,16,16]{4,3,2,1,0}, f32[2,8]{1,0}, f32[2,8]{1,0}) %tuple.9484), index=2
  %get-tuple-element.9488 = pred[] get-tuple-element((s32[], pred[], f32[16,32,32,8]{3,2,1,0}, pred[], pred[], /*index=5*/pred[], pred[], pred[], pred[], pred[], /*index=10*/pred[], pred[], f32[2,16]{1,0}, f32[2,16]{1,0}, f32[2,3,3,8,16]{4,3,2,1,0}, /*index=15*/f32[2,16]{1,0}, f32[2,16]{1,0}, f32[2,1,1,16,16]{4,3,2,1,0}, f32[2,8]{1,0}, f32[2,8]{1,0}) %tuple.9484), index=3
  %get-tuple-element.9489 = pred[] get-tuple-element((s32[], pred[], f32[16,32,32,8]{3,2,1,0}, pred[], pred[], /*index=5*/pred[], pred[], pred[], pred[], pred[], /*index=10*/pred[], pred[], f32[2,16]{1,0}, f32[2,16]{1,0}, f32[2,3,3,8,16]{4,3,2,1,0}, /*index=15*/f32[2,16]{1,0}, f32[2,16]{1,0}, f32[2,1,1,16,16]{4,3,2,1,0}, f32[2,8]{1,0}, f32[2,8]{1,0}) %tuple.9484), index=4
  %get-tuple-element.9490 = pred[] get-tuple-element((s32[], pred[], f32[16,32,32,8]{3,2,1,0}, pred[], pred[], /*index=5*/pred[], pred[], pred[], pred[], pred[], /*index=10*/pred[], pred[], f32[2,16]{1,0}, f32[2,16]{1,0}, f32[2,3,3,8,16]{4,3,2,1,0}, /*index=15*/f32[2,16]{1,0}, f32[2,16]{1,0}, f32[2,1,1,16,16]{4,3,2,1,0}, f32[2,8]{1,0}, f32[2,8]{1,0}) %tuple.9484), index=5
  %get-tuple-element.9491 = pred[] get-tuple-element((s32[], pred[], f32[16,32,32,8]{3,2,1,0}, pred[], pred[], /*index=5*/pred[], pred[], pred[], pred[], pred[], /*index=10*/pred[], pred[], f32[2,16]{1,0}, f32[2,16]{1,0}, f32[2,3,3,8,16]{4,3,2,1,0}, /*index=15*/f32[2,16]{1,0}, f32[2,16]{1,0}, f32[2,1,1,16,16]{4,3,2,1,0}, f32[2,8]{1,0}, f32[2,8]{1,0}) %tuple.9484), index=6
  %get-tuple-element.9492 = pred[] get-tuple-element((s32[], pred[], f32[16,32,32,8]{3,2,1,0}, pred[], pred[], /*index=5*/pred[], pred[], pred[], pred[], pred[], /*index=10*/pred[], pred[], f32[2,16]{1,0}, f32[2,16]{1,0}, f32[2,3,3,8,16]{4,3,2,1,0}, /*index=15*/f32[2,16]{1,0}, f32[2,16]{1,0}, f32[2,1,1,16,16]{4,3,2,1,0}, f32[2,8]{1,0}, f32[2,8]{1,0}) %tuple.9484), index=7
  %get-tuple-element.9493 = pred[] get-tuple-element((s32[], pred[], f32[16,32,32,8]{3,2,1,0}, pred[], pred[], /*index=5*/pred[], pred[], pred[], pred[], pred[], /*index=10*/pred[], pred[], f32[2,16]{1,0}, f32[2,16]{1,0}, f32[2,3,3,8,16]{4,3,2,1,0}, /*index=15*/f32[2,16]{1,0}, f32[2,16]{1,0}, f32[2,1,1,16,16]{4,3,2,1,0}, f32[2,8]{1,0}, f32[2,8]{1,0}) %tuple.9484), index=8
  %get-tuple-element.9494 = pred[] get-tuple-element((s32[], pred[], f32[16,32,32,8]{3,2,1,0}, pred[], pred[], /*index=5*/pred[], pred[], pred[], pred[], pred[], /*index=10*/pred[], pred[], f32[2,16]{1,0}, f32[2,16]{1,0}, f32[2,3,3,8,16]{4,3,2,1,0}, /*index=15*/f32[2,16]{1,0}, f32[2,16]{1,0}, f32[2,1,1,16,16]{4,3,2,1,0}, f32[2,8]{1,0}, f32[2,8]{1,0}) %tuple.9484), index=9
  %get-tuple-element.9495 = pred[] get-tuple-element((s32[], pred[], f32[16,32,32,8]{3,2,1,0}, pred[], pred[], /*index=5*/pred[], pred[], pred[], pred[], pred[], /*index=10*/pred[], pred[], f32[2,16]{1,0}, f32[2,16]{1,0}, f32[2,3,3,8,16]{4,3,2,1,0}, /*index=15*/f32[2,16]{1,0}, f32[2,16]{1,0}, f32[2,1,1,16,16]{4,3,2,1,0}, f32[2,8]{1,0}, f32[2,8]{1,0}) %tuple.9484), index=10
  %get-tuple-element.9496 = pred[] get-tuple-element((s32[], pred[], f32[16,32,32,8]{3,2,1,0}, pred[], pred[], /*index=5*/pred[], pred[], pred[], pred[], pred[], /*index=10*/pred[], pred[], f32[2,16]{1,0}, f32[2,16]{1,0}, f32[2,3,3,8,16]{4,3,2,1,0}, /*index=15*/f32[2,16]{1,0}, f32[2,16]{1,0}, f32[2,1,1,16,16]{4,3,2,1,0}, f32[2,8]{1,0}, f32[2,8]{1,0}) %tuple.9484), index=11
  %get-tuple-element.9497 = f32[2,16]{1,0} get-tuple-element((s32[], pred[], f32[16,32,32,8]{3,2,1,0}, pred[], pred[], /*index=5*/pred[], pred[], pred[], pred[], pred[], /*index=10*/pred[], pred[], f32[2,16]{1,0}, f32[2,16]{1,0}, f32[2,3,3,8,16]{4,3,2,1,0}, /*index=15*/f32[2,16]{1,0}, f32[2,16]{1,0}, f32[2,1,1,16,16]{4,3,2,1,0}, f32[2,8]{1,0}, f32[2,8]{1,0}) %tuple.9484), index=12
  %get-tuple-element.9498 = f32[2,16]{1,0} get-tuple-element((s32[], pred[], f32[16,32,32,8]{3,2,1,0}, pred[], pred[], /*index=5*/pred[], pred[], pred[], pred[], pred[], /*index=10*/pred[], pred[], f32[2,16]{1,0}, f32[2,16]{1,0}, f32[2,3,3,8,16]{4,3,2,1,0}, /*index=15*/f32[2,16]{1,0}, f32[2,16]{1,0}, f32[2,1,1,16,16]{4,3,2,1,0}, f32[2,8]{1,0}, f32[2,8]{1,0}) %tuple.9484), index=13
  %get-tuple-element.9499 = f32[2,3,3,8,16]{4,3,2,1,0} get-tuple-element((s32[], pred[], f32[16,32,32,8]{3,2,1,0}, pred[], pred[], /*index=5*/pred[], pred[], pred[], pred[], pred[], /*index=10*/pred[], pred[], f32[2,16]{1,0}, f32[2,16]{1,0}, f32[2,3,3,8,16]{4,3,2,1,0}, /*index=15*/f32[2,16]{1,0}, f32[2,16]{1,0}, f32[2,1,1,16,16]{4,3,2,1,0}, f32[2,8]{1,0}, f32[2,8]{1,0}) %tuple.9484), index=14
  %get-tuple-element.9500 = f32[2,16]{1,0} get-tuple-element((s32[], pred[], f32[16,32,32,8]{3,2,1,0}, pred[], pred[], /*index=5*/pred[], pred[], pred[], pred[], pred[], /*index=10*/pred[], pred[], f32[2,16]{1,0}, f32[2,16]{1,0}, f32[2,3,3,8,16]{4,3,2,1,0}, /*index=15*/f32[2,16]{1,0}, f32[2,16]{1,0}, f32[2,1,1,16,16]{4,3,2,1,0}, f32[2,8]{1,0}, f32[2,8]{1,0}) %tuple.9484), index=15
  %get-tuple-element.9501 = f32[2,16]{1,0} get-tuple-element((s32[], pred[], f32[16,32,32,8]{3,2,1,0}, pred[], pred[], /*index=5*/pred[], pred[], pred[], pred[], pred[], /*index=10*/pred[], pred[], f32[2,16]{1,0}, f32[2,16]{1,0}, f32[2,3,3,8,16]{4,3,2,1,0}, /*index=15*/f32[2,16]{1,0}, f32[2,16]{1,0}, f32[2,1,1,16,16]{4,3,2,1,0}, f32[2,8]{1,0}, f32[2,8]{1,0}) %tuple.9484), index=16
  %get-tuple-element.9502 = f32[2,1,1,16,16]{4,3,2,1,0} get-tuple-element((s32[], pred[], f32[16,32,32,8]{3,2,1,0}, pred[], pred[], /*index=5*/pred[], pred[], pred[], pred[], pred[], /*index=10*/pred[], pred[], f32[2,16]{1,0}, f32[2,16]{1,0}, f32[2,3,3,8,16]{4,3,2,1,0}, /*index=15*/f32[2,16]{1,0}, f32[2,16]{1,0}, f32[2,1,1,16,16]{4,3,2,1,0}, f32[2,8]{1,0}, f32[2,8]{1,0}) %tuple.9484), index=17
  %get-tuple-element.9503 = f32[2,8]{1,0} get-tuple-element((s32[], pred[], f32[16,32,32,8]{3,2,1,0}, pred[], pred[], /*index=5*/pred[], pred[], pred[], pred[], pred[], /*index=10*/pred[], pred[], f32[2,16]{1,0}, f32[2,16]{1,0}, f32[2,3,3,8,16]{4,3,2,1,0}, /*index=15*/f32[2,16]{1,0}, f32[2,16]{1,0}, f32[2,1,1,16,16]{4,3,2,1,0}, f32[2,8]{1,0}, f32[2,8]{1,0}) %tuple.9484), index=18
  %get-tuple-element.9504 = f32[2,8]{1,0} get-tuple-element((s32[], pred[], f32[16,32,32,8]{3,2,1,0}, pred[], pred[], /*index=5*/pred[], pred[], pred[], pred[], pred[], /*index=10*/pred[], pred[], f32[2,16]{1,0}, f32[2,16]{1,0}, f32[2,3,3,8,16]{4,3,2,1,0}, /*index=15*/f32[2,16]{1,0}, f32[2,16]{1,0}, f32[2,1,1,16,16]{4,3,2,1,0}, f32[2,8]{1,0}, f32[2,8]{1,0}) %tuple.9484), index=19
  %tuple.9505 = (pred[], f32[16,32,32,8]{3,2,1,0}, pred[], pred[], pred[], /*index=5*/pred[], pred[], pred[], pred[], pred[], /*index=10*/pred[], f32[2,16]{1,0}, f32[2,16]{1,0}, f32[2,3,3,8,16]{4,3,2,1,0}, f32[2,16]{1,0}, /*index=15*/f32[2,16]{1,0}, f32[2,1,1,16,16]{4,3,2,1,0}, f32[2,8]{1,0}, f32[2,8]{1,0}) tuple(pred[] %get-tuple-element.9486, f32[16,32,32,8]{3,2,1,0} %get-tuple-element.9487, pred[] %get-tuple-element.9488, pred[] %get-tuple-element.9489, pred[] %get-tuple-element.9490, /*index=5*/pred[] %get-tuple-element.9491, pred[] %get-tuple-element.9492, pred[] %get-tuple-element.9493, pred[] %get-tuple-element.9494, pred[] %get-tuple-element.9495, /*index=10*/pred[] %get-tuple-element.9496, f32[2,16]{1,0} %get-tuple-element.9497, f32[2,16]{1,0} %get-tuple-element.9498, f32[2,3,3,8,16]{4,3,2,1,0} %get-tuple-element.9499, f32[2,16]{1,0} %get-tuple-element.9500, /*index=15*/f32[2,16]{1,0} %get-tuple-element.9501, f32[2,1,1,16,16]{4,3,2,1,0} %get-tuple-element.9502, f32[2,8]{1,0} %get-tuple-element.9503, f32[2,8]{1,0} %get-tuple-element.9504)
  %get-tuple-element.9506 = pred[] get-tuple-element((pred[], f32[16,32,32,8]{3,2,1,0}, pred[], pred[], pred[], /*index=5*/pred[], pred[], pred[], pred[], pred[], /*index=10*/pred[], f32[2,16]{1,0}, f32[2,16]{1,0}, f32[2,3,3,8,16]{4,3,2,1,0}, f32[2,16]{1,0}, /*index=15*/f32[2,16]{1,0}, f32[2,1,1,16,16]{4,3,2,1,0}, f32[2,8]{1,0}, f32[2,8]{1,0}) %tuple.9505), index=0
  %get-tuple-element.9508 = pred[] get-tuple-element((pred[], f32[16,32,32,8]{3,2,1,0}, pred[], pred[], pred[], /*index=5*/pred[], pred[], pred[], pred[], pred[], /*index=10*/pred[], f32[2,16]{1,0}, f32[2,16]{1,0}, f32[2,3,3,8,16]{4,3,2,1,0}, f32[2,16]{1,0}, /*index=15*/f32[2,16]{1,0}, f32[2,1,1,16,16]{4,3,2,1,0}, f32[2,8]{1,0}, f32[2,8]{1,0}) %tuple.9505), index=2
  %get-tuple-element.9509 = pred[] get-tuple-element((pred[], f32[16,32,32,8]{3,2,1,0}, pred[], pred[], pred[], /*index=5*/pred[], pred[], pred[], pred[], pred[], /*index=10*/pred[], f32[2,16]{1,0}, f32[2,16]{1,0}, f32[2,3,3,8,16]{4,3,2,1,0}, f32[2,16]{1,0}, /*index=15*/f32[2,16]{1,0}, f32[2,1,1,16,16]{4,3,2,1,0}, f32[2,8]{1,0}, f32[2,8]{1,0}) %tuple.9505), index=3
  %get-tuple-element.9510 = pred[] get-tuple-element((pred[], f32[16,32,32,8]{3,2,1,0}, pred[], pred[], pred[], /*index=5*/pred[], pred[], pred[], pred[], pred[], /*index=10*/pred[], f32[2,16]{1,0}, f32[2,16]{1,0}, f32[2,3,3,8,16]{4,3,2,1,0}, f32[2,16]{1,0}, /*index=15*/f32[2,16]{1,0}, f32[2,1,1,16,16]{4,3,2,1,0}, f32[2,8]{1,0}, f32[2,8]{1,0}) %tuple.9505), index=4
  %get-tuple-element.9511 = pred[] get-tuple-element((pred[], f32[16,32,32,8]{3,2,1,0}, pred[], pred[], pred[], /*index=5*/pred[], pred[], pred[], pred[], pred[], /*index=10*/pred[], f32[2,16]{1,0}, f32[2,16]{1,0}, f32[2,3,3,8,16]{4,3,2,1,0}, f32[2,16]{1,0}, /*index=15*/f32[2,16]{1,0}, f32[2,1,1,16,16]{4,3,2,1,0}, f32[2,8]{1,0}, f32[2,8]{1,0}) %tuple.9505), index=5
  %get-tuple-element.9512 = pred[] get-tuple-element((pred[], f32[16,32,32,8]{3,2,1,0}, pred[], pred[], pred[], /*index=5*/pred[], pred[], pred[], pred[], pred[], /*index=10*/pred[], f32[2,16]{1,0}, f32[2,16]{1,0}, f32[2,3,3,8,16]{4,3,2,1,0}, f32[2,16]{1,0}, /*index=15*/f32[2,16]{1,0}, f32[2,1,1,16,16]{4,3,2,1,0}, f32[2,8]{1,0}, f32[2,8]{1,0}) %tuple.9505), index=6
  %get-tuple-element.9513 = pred[] get-tuple-element((pred[], f32[16,32,32,8]{3,2,1,0}, pred[], pred[], pred[], /*index=5*/pred[], pred[], pred[], pred[], pred[], /*index=10*/pred[], f32[2,16]{1,0}, f32[2,16]{1,0}, f32[2,3,3,8,16]{4,3,2,1,0}, f32[2,16]{1,0}, /*index=15*/f32[2,16]{1,0}, f32[2,1,1,16,16]{4,3,2,1,0}, f32[2,8]{1,0}, f32[2,8]{1,0}) %tuple.9505), index=7
  %get-tuple-element.9514 = pred[] get-tuple-element((pred[], f32[16,32,32,8]{3,2,1,0}, pred[], pred[], pred[], /*index=5*/pred[], pred[], pred[], pred[], pred[], /*index=10*/pred[], f32[2,16]{1,0}, f32[2,16]{1,0}, f32[2,3,3,8,16]{4,3,2,1,0}, f32[2,16]{1,0}, /*index=15*/f32[2,16]{1,0}, f32[2,1,1,16,16]{4,3,2,1,0}, f32[2,8]{1,0}, f32[2,8]{1,0}) %tuple.9505), index=8
  %get-tuple-element.9515 = pred[] get-tuple-element((pred[], f32[16,32,32,8]{3,2,1,0}, pred[], pred[], pred[], /*index=5*/pred[], pred[], pred[], pred[], pred[], /*index=10*/pred[], f32[2,16]{1,0}, f32[2,16]{1,0}, f32[2,3,3,8,16]{4,3,2,1,0}, f32[2,16]{1,0}, /*index=15*/f32[2,16]{1,0}, f32[2,1,1,16,16]{4,3,2,1,0}, f32[2,8]{1,0}, f32[2,8]{1,0}) %tuple.9505), index=9
  %get-tuple-element.9516 = pred[] get-tuple-element((pred[], f32[16,32,32,8]{3,2,1,0}, pred[], pred[], pred[], /*index=5*/pred[], pred[], pred[], pred[], pred[], /*index=10*/pred[], f32[2,16]{1,0}, f32[2,16]{1,0}, f32[2,3,3,8,16]{4,3,2,1,0}, f32[2,16]{1,0}, /*index=15*/f32[2,16]{1,0}, f32[2,1,1,16,16]{4,3,2,1,0}, f32[2,8]{1,0}, f32[2,8]{1,0}) %tuple.9505), index=10
  %log.2221 = f32[16,32,32,1]{3,2,1,0} log(f32[16,32,32,1]{3,2,1,0} %add.2220)
  %constant.2228 = f32[] constant(0)
  %reduce.2233 = f32[16]{0} reduce(f32[16,32,32,1]{3,2,1,0} %log.2221, f32[] %constant.2228), dimensions={3,2,1}, to_apply=%primitive_computation_add__1.2229
  %negate.2234 = f32[16]{0} negate(f32[16]{0} %reduce.2233)
  %constant.2238 = f32[] constant(0)
  %broadcast.2239 = f32[16]{0} broadcast(f32[] %constant.2238), dimensions={}
  %add.2240 = f32[16]{0} add(f32[16]{0} %negate.2234, f32[16]{0} %broadcast.2239)
  %get-tuple-element.2392 = f32[] get-tuple-element((f32[], f32[]) %tuple.2390), index=1
  %constant.2450 = f32[] constant(32)
  %multiply.2451 = f32[] multiply(f32[] %get-tuple-element.2392, f32[] %constant.2450)
  %constant.2452 = f32[] constant(32)
  %multiply.2453 = f32[] multiply(f32[] %multiply.2451, f32[] %constant.2452)
  %broadcast.2456 = f32[16]{0} broadcast(f32[] %multiply.2453), dimensions={}
  %constant.2454 = f32[] constant(1)
  %broadcast.2455 = f32[16]{0} broadcast(f32[] %constant.2454), dimensions={}
  %multiply.2457 = f32[16]{0} multiply(f32[16]{0} %broadcast.2456, f32[16]{0} %broadcast.2455)
  %add.2458 = f32[16]{0} add(f32[16]{0} %add.2240, f32[16]{0} %multiply.2457)
  %log.4621 = f32[16,32,32,1]{3,2,1,0} log(f32[16,32,32,1]{3,2,1,0} %add.4620)
  %constant.4628 = f32[] constant(0)
  %reduce.4633 = f32[16]{0} reduce(f32[16,32,32,1]{3,2,1,0} %log.4621, f32[] %constant.4628), dimensions={3,2,1}, to_apply=%primitive_computation_add__1.4629
  %negate.4634 = f32[16]{0} negate(f32[16]{0} %reduce.4633)
  %add.4636 = f32[16]{0} add(f32[16]{0} %add.2458, f32[16]{0} %negate.4634)
  %multiply.4637 = f32[16,32,32,3]{3,2,1,0} multiply(f32[16,32,32,3]{3,2,1,0} %concatenate.4635, f32[16,32,32,3]{3,2,1,0} %concatenate.4635)
  %constant.4641 = f32[] constant(0)
  %reduce.4646 = f32[16]{0} reduce(f32[16,32,32,3]{3,2,1,0} %multiply.4637, f32[] %constant.4641), dimensions={3,2,1}, to_apply=%primitive_computation_add__1.4642
  %constant.4647 = f32[] constant(-0.5)
  %broadcast.4648 = f32[16]{0} broadcast(f32[] %constant.4647), dimensions={}
  %multiply.4649 = f32[16]{0} multiply(f32[16]{0} %reduce.4646, f32[16]{0} %broadcast.4648)
  %constant.4650 = f32[] constant(6.28318548)
  %log.4651 = f32[] log(f32[] %constant.4650)
  %convert.4652 = f32[] convert(f32[] %log.4651)
  %constant.4653 = f32[] constant(1536)
  %multiply.4654 = f32[] multiply(f32[] %convert.4652, f32[] %constant.4653)
  %broadcast.4655 = f32[16]{0} broadcast(f32[] %multiply.4654), dimensions={}
  %subtract.4656 = f32[16]{0} subtract(f32[16]{0} %multiply.4649, f32[16]{0} %broadcast.4655)
  %add.4657 = f32[16]{0} add(f32[16]{0} %add.4636, f32[16]{0} %subtract.4656)
  %constant.4658 = f32[] constant(0)
  %reduce.4663 = f32[] reduce(f32[16]{0} %add.4657, f32[] %constant.4658), dimensions={0}, to_apply=%primitive_computation_add__1.4659
  %constant.4664 = f32[] constant(16)
  %divide.4665 = f32[] divide(f32[] %reduce.4663, f32[] %constant.4664)
  %negate.4666 = f32[] negate(f32[] %divide.4665)
  %get-tuple-element.9517 = f32[2,16]{1,0} get-tuple-element((pred[], f32[16,32,32,8]{3,2,1,0}, pred[], pred[], pred[], /*index=5*/pred[], pred[], pred[], pred[], pred[], /*index=10*/pred[], f32[2,16]{1,0}, f32[2,16]{1,0}, f32[2,3,3,8,16]{4,3,2,1,0}, f32[2,16]{1,0}, /*index=15*/f32[2,16]{1,0}, f32[2,1,1,16,16]{4,3,2,1,0}, f32[2,8]{1,0}, f32[2,8]{1,0}) %tuple.9505), index=11
  %get-tuple-element.9518 = f32[2,16]{1,0} get-tuple-element((pred[], f32[16,32,32,8]{3,2,1,0}, pred[], pred[], pred[], /*index=5*/pred[], pred[], pred[], pred[], pred[], /*index=10*/pred[], f32[2,16]{1,0}, f32[2,16]{1,0}, f32[2,3,3,8,16]{4,3,2,1,0}, f32[2,16]{1,0}, /*index=15*/f32[2,16]{1,0}, f32[2,1,1,16,16]{4,3,2,1,0}, f32[2,8]{1,0}, f32[2,8]{1,0}) %tuple.9505), index=12
  %get-tuple-element.9519 = f32[2,3,3,8,16]{4,3,2,1,0} get-tuple-element((pred[], f32[16,32,32,8]{3,2,1,0}, pred[], pred[], pred[], /*index=5*/pred[], pred[], pred[], pred[], pred[], /*index=10*/pred[], f32[2,16]{1,0}, f32[2,16]{1,0}, f32[2,3,3,8,16]{4,3,2,1,0}, f32[2,16]{1,0}, /*index=15*/f32[2,16]{1,0}, f32[2,1,1,16,16]{4,3,2,1,0}, f32[2,8]{1,0}, f32[2,8]{1,0}) %tuple.9505), index=13
  %get-tuple-element.9520 = f32[2,16]{1,0} get-tuple-element((pred[], f32[16,32,32,8]{3,2,1,0}, pred[], pred[], pred[], /*index=5*/pred[], pred[], pred[], pred[], pred[], /*index=10*/pred[], f32[2,16]{1,0}, f32[2,16]{1,0}, f32[2,3,3,8,16]{4,3,2,1,0}, f32[2,16]{1,0}, /*index=15*/f32[2,16]{1,0}, f32[2,1,1,16,16]{4,3,2,1,0}, f32[2,8]{1,0}, f32[2,8]{1,0}) %tuple.9505), index=14
  %get-tuple-element.9521 = f32[2,16]{1,0} get-tuple-element((pred[], f32[16,32,32,8]{3,2,1,0}, pred[], pred[], pred[], /*index=5*/pred[], pred[], pred[], pred[], pred[], /*index=10*/pred[], f32[2,16]{1,0}, f32[2,16]{1,0}, f32[2,3,3,8,16]{4,3,2,1,0}, f32[2,16]{1,0}, /*index=15*/f32[2,16]{1,0}, f32[2,1,1,16,16]{4,3,2,1,0}, f32[2,8]{1,0}, f32[2,8]{1,0}) %tuple.9505), index=15
  %get-tuple-element.9522 = f32[2,1,1,16,16]{4,3,2,1,0} get-tuple-element((pred[], f32[16,32,32,8]{3,2,1,0}, pred[], pred[], pred[], /*index=5*/pred[], pred[], pred[], pred[], pred[], /*index=10*/pred[], f32[2,16]{1,0}, f32[2,16]{1,0}, f32[2,3,3,8,16]{4,3,2,1,0}, f32[2,16]{1,0}, /*index=15*/f32[2,16]{1,0}, f32[2,1,1,16,16]{4,3,2,1,0}, f32[2,8]{1,0}, f32[2,8]{1,0}) %tuple.9505), index=16
  %get-tuple-element.9523 = f32[2,8]{1,0} get-tuple-element((pred[], f32[16,32,32,8]{3,2,1,0}, pred[], pred[], pred[], /*index=5*/pred[], pred[], pred[], pred[], pred[], /*index=10*/pred[], f32[2,16]{1,0}, f32[2,16]{1,0}, f32[2,3,3,8,16]{4,3,2,1,0}, f32[2,16]{1,0}, /*index=15*/f32[2,16]{1,0}, f32[2,1,1,16,16]{4,3,2,1,0}, f32[2,8]{1,0}, f32[2,8]{1,0}) %tuple.9505), index=17
  %get-tuple-element.9524 = f32[2,8]{1,0} get-tuple-element((pred[], f32[16,32,32,8]{3,2,1,0}, pred[], pred[], pred[], /*index=5*/pred[], pred[], pred[], pred[], pred[], /*index=10*/pred[], f32[2,16]{1,0}, f32[2,16]{1,0}, f32[2,3,3,8,16]{4,3,2,1,0}, f32[2,16]{1,0}, /*index=15*/f32[2,16]{1,0}, f32[2,1,1,16,16]{4,3,2,1,0}, f32[2,8]{1,0}, f32[2,8]{1,0}) %tuple.9505), index=18
  %get-tuple-element.9507 = f32[16,32,32,8]{3,2,1,0} get-tuple-element((pred[], f32[16,32,32,8]{3,2,1,0}, pred[], pred[], pred[], /*index=5*/pred[], pred[], pred[], pred[], pred[], /*index=10*/pred[], f32[2,16]{1,0}, f32[2,16]{1,0}, f32[2,3,3,8,16]{4,3,2,1,0}, f32[2,16]{1,0}, /*index=15*/f32[2,16]{1,0}, f32[2,1,1,16,16]{4,3,2,1,0}, f32[2,8]{1,0}, f32[2,8]{1,0}) %tuple.9505), index=1
  %constant.9525 = f32[] constant(0)
  %reduce.9530 = f32[8]{0} reduce(f32[16,32,32,8]{3,2,1,0} %get-tuple-element.9507, f32[] %constant.9525), dimensions={0,1,2}, to_apply=%primitive_computation_add__1.9526
  %reshape.9531 = f32[1,1,1,8]{3,2,1,0} reshape(f32[8]{0} %reduce.9530)
  %constant.9532 = f32[] constant(0)
  %reduce.9537 = f32[8]{0} reduce(f32[1,1,1,8]{3,2,1,0} %reshape.9531, f32[] %constant.9532), dimensions={0,1,2}, to_apply=%primitive_computation_add__1.9533
  %broadcast.9538 = f32[8]{0} broadcast(f32[8]{0} %reduce.9537), dimensions={0}
  %multiply.9539 = f32[16,32,32,8]{3,2,1,0} multiply(f32[16,32,32,8]{3,2,1,0} %convolution.128, f32[16,32,32,8]{3,2,1,0} %get-tuple-element.9507)
  %constant.9540 = f32[] constant(0)
  %reduce.9545 = f32[8]{0} reduce(f32[16,32,32,8]{3,2,1,0} %multiply.9539, f32[] %constant.9540), dimensions={0,1,2}, to_apply=%primitive_computation_add__1.9541
  %reshape.9546 = f32[1,1,1,8]{3,2,1,0} reshape(f32[8]{0} %reduce.9545)
  %constant.9547 = f32[] constant(0)
  %reduce.9552 = f32[8]{0} reduce(f32[1,1,1,8]{3,2,1,0} %reshape.9546, f32[] %constant.9547), dimensions={0,1,2}, to_apply=%primitive_computation_add__1.9548
  %broadcast.9553 = f32[8]{0} broadcast(f32[8]{0} %reduce.9552), dimensions={0}
  %reshape.9554 = f32[8]{0} reshape(f32[1,1,1,8]{3,2,1,0} %broadcast.129)
  %broadcast.9555 = f32[16,32,32,8]{3,2,1,0} broadcast(f32[8]{0} %reshape.9554), dimensions={3}
  %multiply.9556 = f32[16,32,32,8]{3,2,1,0} multiply(f32[16,32,32,8]{3,2,1,0} %get-tuple-element.9507, f32[16,32,32,8]{3,2,1,0} %broadcast.9555)
  %convolution.9557 = f32[1,1,2,8]{3,2,1,0} convolution(f32[16,32,32,2]{3,2,1,0} %broadcast.86, f32[16,32,32,8]{3,2,1,0} %multiply.9556), window={size=32x32}, dim_labels=f01b_i01o->01bf
  %reshape.9566 = f32[1,1,8]{2,1,0} reshape(f32[1,1,1,8]{3,2,1,0} %broadcast.124)
  %broadcast.9567 = f32[1,1,2,8]{3,2,1,0} broadcast(f32[1,1,8]{2,1,0} %reshape.9566), dimensions={0,1,3}
  %multiply.9568 = f32[1,1,2,8]{3,2,1,0} multiply(f32[1,1,2,8]{3,2,1,0} %convolution.9557, f32[1,1,2,8]{3,2,1,0} %broadcast.9567)
  %multiply.9558 = f32[1,1,2,8]{3,2,1,0} multiply(f32[1,1,2,8]{3,2,1,0} %parameter.11, f32[1,1,2,8]{3,2,1,0} %convolution.9557)
  %constant.9559 = f32[] constant(0)
  %reduce.9564 = f32[1,1,8]{2,1,0} reduce(f32[1,1,2,8]{3,2,1,0} %multiply.9558, f32[] %constant.9559), dimensions={2}, to_apply=%primitive_computation_add__1.9560
  %reshape.9565 = f32[1,1,1,8]{3,2,1,0} reshape(f32[1,1,8]{2,1,0} %reduce.9564)
  %constant.9569 = f32[] constant(0)
  %reduce.9574 = f32[8]{0} reduce(f32[1,1,1,8]{3,2,1,0} %reshape.9565, f32[] %constant.9569), dimensions={0,1,2}, to_apply=%primitive_computation_add__1.9570
  %broadcast.9575 = f32[8]{0} broadcast(f32[8]{0} %reduce.9574), dimensions={0}
  %constant.121 = f32[] constant(-0.5)
  %broadcast.122 = f32[8]{0} broadcast(f32[] %constant.121), dimensions={}
  %divide.120 = f32[8]{0} divide(f32[8]{0} %rsqrt.119, f32[8]{0} %reduce.118)
  %multiply.123 = f32[8]{0} multiply(f32[8]{0} %broadcast.122, f32[8]{0} %divide.120)
  %multiply.9576 = f32[8]{0} multiply(f32[8]{0} %broadcast.9575, f32[8]{0} %multiply.123)
  %broadcast.9577 = f32[1,1,2,8]{3,2,1,0} broadcast(f32[8]{0} %multiply.9576), dimensions={3}
  %constant.110 = f32[] constant(2)
  %broadcast.111 = f32[1,1,2,8]{3,2,1,0} broadcast(f32[] %constant.110), dimensions={}
  %multiply.112 = f32[1,1,2,8]{3,2,1,0} multiply(f32[1,1,2,8]{3,2,1,0} %broadcast.111, f32[1,1,2,8]{3,2,1,0} %parameter.11)
  %multiply.9578 = f32[1,1,2,8]{3,2,1,0} multiply(f32[1,1,2,8]{3,2,1,0} %broadcast.9577, f32[1,1,2,8]{3,2,1,0} %multiply.112)
  %add.9579 = f32[1,1,2,8]{3,2,1,0} add(f32[1,1,2,8]{3,2,1,0} %multiply.9568, f32[1,1,2,8]{3,2,1,0} %multiply.9578)
  %constant.7225 = f32[] constant(0)
  %reduce.7230 = f32[2]{0} reduce(f32[16,32,32,2]{3,2,1,0} %multiply.7224, f32[] %constant.7225), dimensions={0,1,2}, to_apply=%primitive_computation_add__1.7226
  %reshape.7231 = f32[1,1,1,2]{3,2,1,0} reshape(f32[2]{0} %reduce.7230)
  %constant.7232 = f32[] constant(0)
  %reduce.7237 = f32[2]{0} reduce(f32[1,1,1,2]{3,2,1,0} %reshape.7231, f32[] %constant.7232), dimensions={0,1,2}, to_apply=%primitive_computation_add__1.7233
  %broadcast.7238 = f32[2]{0} broadcast(f32[2]{0} %reduce.7237), dimensions={0}
  %multiply.7239 = f32[16,32,32,2]{3,2,1,0} multiply(f32[16,32,32,2]{3,2,1,0} %convolution.2172, f32[16,32,32,2]{3,2,1,0} %multiply.7224)
  %constant.7240 = f32[] constant(0)
  %reduce.7245 = f32[2]{0} reduce(f32[16,32,32,2]{3,2,1,0} %multiply.7239, f32[] %constant.7240), dimensions={0,1,2}, to_apply=%primitive_computation_add__1.7241
  %reshape.7246 = f32[1,1,1,2]{3,2,1,0} reshape(f32[2]{0} %reduce.7245)
  %constant.7247 = f32[] constant(0)
  %reduce.7252 = f32[2]{0} reduce(f32[1,1,1,2]{3,2,1,0} %reshape.7246, f32[] %constant.7247), dimensions={0,1,2}, to_apply=%primitive_computation_add__1.7248
  %broadcast.7253 = f32[2]{0} broadcast(f32[2]{0} %reduce.7252), dimensions={0}
  %convolution.7257 = f32[1,1,8,2]{3,2,1,0} convolution(f32[16,32,32,8]{3,2,1,0} %get-tuple-element.2108, f32[16,32,32,2]{3,2,1,0} %multiply.7256), window={size=32x32}, dim_labels=f01b_i01o->01bf
  %reshape.7266 = f32[1,1,2]{2,1,0} reshape(f32[1,1,1,2]{3,2,1,0} %broadcast.2168)
  %broadcast.7267 = f32[1,1,8,2]{3,2,1,0} broadcast(f32[1,1,2]{2,1,0} %reshape.7266), dimensions={0,1,3}
  %multiply.7268 = f32[1,1,8,2]{3,2,1,0} multiply(f32[1,1,8,2]{3,2,1,0} %convolution.7257, f32[1,1,8,2]{3,2,1,0} %broadcast.7267)
  %multiply.7258 = f32[1,1,8,2]{3,2,1,0} multiply(f32[1,1,8,2]{3,2,1,0} %parameter.14, f32[1,1,8,2]{3,2,1,0} %convolution.7257)
  %constant.7259 = f32[] constant(0)
  %reduce.7264 = f32[1,1,2]{2,1,0} reduce(f32[1,1,8,2]{3,2,1,0} %multiply.7258, f32[] %constant.7259), dimensions={2}, to_apply=%primitive_computation_add__1.7260
  %reshape.7265 = f32[1,1,1,2]{3,2,1,0} reshape(f32[1,1,2]{2,1,0} %reduce.7264)
  %constant.7269 = f32[] constant(0)
  %reduce.7274 = f32[2]{0} reduce(f32[1,1,1,2]{3,2,1,0} %reshape.7265, f32[] %constant.7269), dimensions={0,1,2}, to_apply=%primitive_computation_add__1.7270
  %broadcast.7275 = f32[2]{0} broadcast(f32[2]{0} %reduce.7274), dimensions={0}
  %constant.2165 = f32[] constant(-0.5)
  %broadcast.2166 = f32[2]{0} broadcast(f32[] %constant.2165), dimensions={}
  %divide.2164 = f32[2]{0} divide(f32[2]{0} %rsqrt.2163, f32[2]{0} %reduce.2162)
  %multiply.2167 = f32[2]{0} multiply(f32[2]{0} %broadcast.2166, f32[2]{0} %divide.2164)
  %multiply.7276 = f32[2]{0} multiply(f32[2]{0} %broadcast.7275, f32[2]{0} %multiply.2167)
  %broadcast.7277 = f32[1,1,8,2]{3,2,1,0} broadcast(f32[2]{0} %multiply.7276), dimensions={3}
  %constant.2154 = f32[] constant(2)
  %broadcast.2155 = f32[1,1,8,2]{3,2,1,0} broadcast(f32[] %constant.2154), dimensions={}
  %multiply.2156 = f32[1,1,8,2]{3,2,1,0} multiply(f32[1,1,8,2]{3,2,1,0} %broadcast.2155, f32[1,1,8,2]{3,2,1,0} %parameter.14)
  %multiply.7278 = f32[1,1,8,2]{3,2,1,0} multiply(f32[1,1,8,2]{3,2,1,0} %broadcast.7277, f32[1,1,8,2]{3,2,1,0} %multiply.2156)
  %add.7279 = f32[1,1,8,2]{3,2,1,0} add(f32[1,1,8,2]{3,2,1,0} %multiply.7268, f32[1,1,8,2]{3,2,1,0} %multiply.7278)
  %multiply.7216 = f32[16,32,32,2]{3,2,1,0} multiply(f32[16,32,32,2]{3,2,1,0} %add.2180, f32[16,32,32,2]{3,2,1,0} %add.7215)
  %constant.7217 = f32[] constant(0)
  %reduce.7222 = f32[] reduce(f32[16,32,32,2]{3,2,1,0} %multiply.7216, f32[] %constant.7217), dimensions={0,1,2,3}, to_apply=%primitive_computation_add__1.7218
  %convolution.7096 = f32[1,1,3,3]{3,2,1,0} convolution(f32[16,32,32,3]{3,2,1,0} %concatenate.2235, f32[16,32,32,3]{3,2,1,0} %add.7095), window={size=32x32}, dim_labels=f01b_i01o->01bf
  %constant.7097 = f32[] constant(0)
  %reduce.7102 = f32[3,3]{1,0} reduce(f32[1,1,3,3]{3,2,1,0} %convolution.7096, f32[] %constant.7097), dimensions={0,1}, to_apply=%primitive_computation_add__1.7098
  %broadcast.7103 = f32[3,3]{1,0} broadcast(f32[3,3]{1,0} %reduce.7102), dimensions={0,1}
  %get-tuple-element.2426 = f32[3,3]{1,0} get-tuple-element((pred[], f32[3,3]{1,0}, f32[3,3]{1,0}, s32[3]{0}) %call.2424), index=1
  %get-tuple-element.2427 = f32[3,3]{1,0} get-tuple-element((pred[], f32[3,3]{1,0}, f32[3,3]{1,0}, s32[3]{0}) %call.2424), index=2
  %get-tuple-element.2428 = s32[3]{0} get-tuple-element((pred[], f32[3,3]{1,0}, f32[3,3]{1,0}, s32[3]{0}) %call.2424), index=3
  %get-tuple-element.2448 = pred[3,3]{1,0} get-tuple-element((pred[], pred[3,3]{1,0}, f32[3,3]{1,0}) %call.2446), index=1
  %get-tuple-element.2449 = f32[3,3]{1,0} get-tuple-element((pred[], pred[3,3]{1,0}, f32[3,3]{1,0}) %call.2446), index=2
  %multiply.7114 = f32[16]{0} multiply(f32[16]{0} %broadcast.4671, f32[16]{0} %broadcast.2455)
  %constant.7115 = f32[] constant(0)
  %reduce.7120 = f32[] reduce(f32[16]{0} %multiply.7114, f32[] %constant.7115), dimensions={0}, to_apply=%primitive_computation_add__1.7116
  %constant.7121 = f32[] constant(32)
  %multiply.7122 = f32[] multiply(f32[] %reduce.7120, f32[] %constant.7121)
  %constant.7123 = f32[] constant(32)
  %multiply.7124 = f32[] multiply(f32[] %multiply.7122, f32[] %constant.7123)
  %broadcast.7125 = f32[3,3]{1,0} broadcast(f32[] %multiply.7124), dimensions={}
  %call.7135 = (f32[3,3]{1,0}) call(pred[3,3]{1,0} %get-tuple-element.2448, f32[3,3]{1,0} %get-tuple-element.2449, f32[3,3]{1,0} %broadcast.7125), to_apply=%jit_transpose__where_.7126
  %get-tuple-element.7136 = f32[3,3]{1,0} get-tuple-element((f32[3,3]{1,0}) %call.7135), index=0
  %transpose.7137 = f32[3,3]{0,1} transpose(f32[3,3]{1,0} %get-tuple-element.7136), dimensions={1,0}
  %call.7199 = (f32[3,3]{0,1}) call(f32[3,3]{1,0} %get-tuple-element.2426, f32[3,3]{1,0} %get-tuple-element.2427, s32[3]{0} %get-tuple-element.2428, f32[3,3]{0,1} %transpose.7137), to_apply=%jit_transpose_solve_.7185
  %get-tuple-element.7200 = f32[3,3]{0,1} get-tuple-element((f32[3,3]{0,1}) %call.7199), index=0
  %add.7201 = f32[3,3]{1,0} add(f32[3,3]{1,0} %broadcast.7103, f32[3,3]{0,1} %get-tuple-element.7200)
  %get-tuple-element.7015 = f32[2,16]{1,0} get-tuple-element((pred[], f32[16,32,32,8]{3,2,1,0}, pred[], pred[], pred[], /*index=5*/pred[], pred[], pred[], pred[], pred[], /*index=10*/pred[], f32[2,16]{1,0}, f32[2,16]{1,0}, f32[2,3,3,8,16]{4,3,2,1,0}, f32[2,16]{1,0}, /*index=15*/f32[2,16]{1,0}, f32[2,1,1,16,16]{4,3,2,1,0}, f32[2,8]{1,0}, f32[2,8]{1,0}) %tuple.7003), index=11
  %get-tuple-element.7016 = f32[2,16]{1,0} get-tuple-element((pred[], f32[16,32,32,8]{3,2,1,0}, pred[], pred[], pred[], /*index=5*/pred[], pred[], pred[], pred[], pred[], /*index=10*/pred[], f32[2,16]{1,0}, f32[2,16]{1,0}, f32[2,3,3,8,16]{4,3,2,1,0}, f32[2,16]{1,0}, /*index=15*/f32[2,16]{1,0}, f32[2,1,1,16,16]{4,3,2,1,0}, f32[2,8]{1,0}, f32[2,8]{1,0}) %tuple.7003), index=12
  %get-tuple-element.7017 = f32[2,3,3,8,16]{4,3,2,1,0} get-tuple-element((pred[], f32[16,32,32,8]{3,2,1,0}, pred[], pred[], pred[], /*index=5*/pred[], pred[], pred[], pred[], pred[], /*index=10*/pred[], f32[2,16]{1,0}, f32[2,16]{1,0}, f32[2,3,3,8,16]{4,3,2,1,0}, f32[2,16]{1,0}, /*index=15*/f32[2,16]{1,0}, f32[2,1,1,16,16]{4,3,2,1,0}, f32[2,8]{1,0}, f32[2,8]{1,0}) %tuple.7003), index=13
  %get-tuple-element.7018 = f32[2,16]{1,0} get-tuple-element((pred[], f32[16,32,32,8]{3,2,1,0}, pred[], pred[], pred[], /*index=5*/pred[], pred[], pred[], pred[], pred[], /*index=10*/pred[], f32[2,16]{1,0}, f32[2,16]{1,0}, f32[2,3,3,8,16]{4,3,2,1,0}, f32[2,16]{1,0}, /*index=15*/f32[2,16]{1,0}, f32[2,1,1,16,16]{4,3,2,1,0}, f32[2,8]{1,0}, f32[2,8]{1,0}) %tuple.7003), index=14
  %get-tuple-element.7019 = f32[2,16]{1,0} get-tuple-element((pred[], f32[16,32,32,8]{3,2,1,0}, pred[], pred[], pred[], /*index=5*/pred[], pred[], pred[], pred[], pred[], /*index=10*/pred[], f32[2,16]{1,0}, f32[2,16]{1,0}, f32[2,3,3,8,16]{4,3,2,1,0}, f32[2,16]{1,0}, /*index=15*/f32[2,16]{1,0}, f32[2,1,1,16,16]{4,3,2,1,0}, f32[2,8]{1,0}, f32[2,8]{1,0}) %tuple.7003), index=15
  %get-tuple-element.7020 = f32[2,1,1,16,16]{4,3,2,1,0} get-tuple-element((pred[], f32[16,32,32,8]{3,2,1,0}, pred[], pred[], pred[], /*index=5*/pred[], pred[], pred[], pred[], pred[], /*index=10*/pred[], f32[2,16]{1,0}, f32[2,16]{1,0}, f32[2,3,3,8,16]{4,3,2,1,0}, f32[2,16]{1,0}, /*index=15*/f32[2,16]{1,0}, f32[2,1,1,16,16]{4,3,2,1,0}, f32[2,8]{1,0}, f32[2,8]{1,0}) %tuple.7003), index=16
  %get-tuple-element.7021 = f32[2,8]{1,0} get-tuple-element((pred[], f32[16,32,32,8]{3,2,1,0}, pred[], pred[], pred[], /*index=5*/pred[], pred[], pred[], pred[], pred[], /*index=10*/pred[], f32[2,16]{1,0}, f32[2,16]{1,0}, f32[2,3,3,8,16]{4,3,2,1,0}, f32[2,16]{1,0}, /*index=15*/f32[2,16]{1,0}, f32[2,1,1,16,16]{4,3,2,1,0}, f32[2,8]{1,0}, f32[2,8]{1,0}) %tuple.7003), index=17
  %get-tuple-element.7022 = f32[2,8]{1,0} get-tuple-element((pred[], f32[16,32,32,8]{3,2,1,0}, pred[], pred[], pred[], /*index=5*/pred[], pred[], pred[], pred[], pred[], /*index=10*/pred[], f32[2,16]{1,0}, f32[2,16]{1,0}, f32[2,3,3,8,16]{4,3,2,1,0}, f32[2,16]{1,0}, /*index=15*/f32[2,16]{1,0}, f32[2,1,1,16,16]{4,3,2,1,0}, f32[2,8]{1,0}, f32[2,8]{1,0}) %tuple.7003), index=18
  %constant.7023 = f32[] constant(0)
  %reduce.7028 = f32[8]{0} reduce(f32[16,32,32,8]{3,2,1,0} %get-tuple-element.7005, f32[] %constant.7023), dimensions={0,1,2}, to_apply=%primitive_computation_add__1.7024
  %reshape.7029 = f32[1,1,1,8]{3,2,1,0} reshape(f32[8]{0} %reduce.7028)
  %constant.7030 = f32[] constant(0)
  %reduce.7035 = f32[8]{0} reduce(f32[1,1,1,8]{3,2,1,0} %reshape.7029, f32[] %constant.7030), dimensions={0,1,2}, to_apply=%primitive_computation_add__1.7031
  %broadcast.7036 = f32[8]{0} broadcast(f32[8]{0} %reduce.7035), dimensions={0}
  %multiply.7037 = f32[16,32,32,8]{3,2,1,0} multiply(f32[16,32,32,8]{3,2,1,0} %convolution.2528, f32[16,32,32,8]{3,2,1,0} %get-tuple-element.7005)
  %constant.7038 = f32[] constant(0)
  %reduce.7043 = f32[8]{0} reduce(f32[16,32,32,8]{3,2,1,0} %multiply.7037, f32[] %constant.7038), dimensions={0,1,2}, to_apply=%primitive_computation_add__1.7039
  %reshape.7044 = f32[1,1,1,8]{3,2,1,0} reshape(f32[8]{0} %reduce.7043)
  %constant.7045 = f32[] constant(0)
  %reduce.7050 = f32[8]{0} reduce(f32[1,1,1,8]{3,2,1,0} %reshape.7044, f32[] %constant.7045), dimensions={0,1,2}, to_apply=%primitive_computation_add__1.7046
  %broadcast.7051 = f32[8]{0} broadcast(f32[8]{0} %reduce.7050), dimensions={0}
  %convolution.7055 = f32[1,1,2,8]{3,2,1,0} convolution(f32[16,32,32,2]{3,2,1,0} %broadcast.2486, f32[16,32,32,8]{3,2,1,0} %multiply.7054), window={size=32x32}, dim_labels=f01b_i01o->01bf
  %reshape.7064 = f32[1,1,8]{2,1,0} reshape(f32[1,1,1,8]{3,2,1,0} %broadcast.2524)
  %broadcast.7065 = f32[1,1,2,8]{3,2,1,0} broadcast(f32[1,1,8]{2,1,0} %reshape.7064), dimensions={0,1,3}
  %multiply.7066 = f32[1,1,2,8]{3,2,1,0} multiply(f32[1,1,2,8]{3,2,1,0} %convolution.7055, f32[1,1,2,8]{3,2,1,0} %broadcast.7065)
  %multiply.7056 = f32[1,1,2,8]{3,2,1,0} multiply(f32[1,1,2,8]{3,2,1,0} %parameter.27, f32[1,1,2,8]{3,2,1,0} %convolution.7055)
  %constant.7057 = f32[] constant(0)
  %reduce.7062 = f32[1,1,8]{2,1,0} reduce(f32[1,1,2,8]{3,2,1,0} %multiply.7056, f32[] %constant.7057), dimensions={2}, to_apply=%primitive_computation_add__1.7058
  %reshape.7063 = f32[1,1,1,8]{3,2,1,0} reshape(f32[1,1,8]{2,1,0} %reduce.7062)
  %constant.7067 = f32[] constant(0)
  %reduce.7072 = f32[8]{0} reduce(f32[1,1,1,8]{3,2,1,0} %reshape.7063, f32[] %constant.7067), dimensions={0,1,2}, to_apply=%primitive_computation_add__1.7068
  %broadcast.7073 = f32[8]{0} broadcast(f32[8]{0} %reduce.7072), dimensions={0}
  %constant.2521 = f32[] constant(-0.5)
  %broadcast.2522 = f32[8]{0} broadcast(f32[] %constant.2521), dimensions={}
  %divide.2520 = f32[8]{0} divide(f32[8]{0} %rsqrt.2519, f32[8]{0} %reduce.2518)
  %multiply.2523 = f32[8]{0} multiply(f32[8]{0} %broadcast.2522, f32[8]{0} %divide.2520)
  %multiply.7074 = f32[8]{0} multiply(f32[8]{0} %broadcast.7073, f32[8]{0} %multiply.2523)
  %broadcast.7075 = f32[1,1,2,8]{3,2,1,0} broadcast(f32[8]{0} %multiply.7074), dimensions={3}
  %constant.2510 = f32[] constant(2)
  %broadcast.2511 = f32[1,1,2,8]{3,2,1,0} broadcast(f32[] %constant.2510), dimensions={}
  %multiply.2512 = f32[1,1,2,8]{3,2,1,0} multiply(f32[1,1,2,8]{3,2,1,0} %broadcast.2511, f32[1,1,2,8]{3,2,1,0} %parameter.27)
  %multiply.7076 = f32[1,1,2,8]{3,2,1,0} multiply(f32[1,1,2,8]{3,2,1,0} %broadcast.7075, f32[1,1,2,8]{3,2,1,0} %multiply.2512)
  %add.7077 = f32[1,1,2,8]{3,2,1,0} add(f32[1,1,2,8]{3,2,1,0} %multiply.7066, f32[1,1,2,8]{3,2,1,0} %multiply.7076)
  %constant.4723 = f32[] constant(0)
  %reduce.4728 = f32[2]{0} reduce(f32[16,32,32,2]{3,2,1,0} %multiply.4722, f32[] %constant.4723), dimensions={0,1,2}, to_apply=%primitive_computation_add__1.4724
  %reshape.4729 = f32[1,1,1,2]{3,2,1,0} reshape(f32[2]{0} %reduce.4728)
  %constant.4730 = f32[] constant(0)
  %reduce.4735 = f32[2]{0} reduce(f32[1,1,1,2]{3,2,1,0} %reshape.4729, f32[] %constant.4730), dimensions={0,1,2}, to_apply=%primitive_computation_add__1.4731
  %broadcast.4736 = f32[2]{0} broadcast(f32[2]{0} %reduce.4735), dimensions={0}
  %multiply.4737 = f32[16,32,32,2]{3,2,1,0} multiply(f32[16,32,32,2]{3,2,1,0} %convolution.4572, f32[16,32,32,2]{3,2,1,0} %multiply.4722)
  %constant.4738 = f32[] constant(0)
  %reduce.4743 = f32[2]{0} reduce(f32[16,32,32,2]{3,2,1,0} %multiply.4737, f32[] %constant.4738), dimensions={0,1,2}, to_apply=%primitive_computation_add__1.4739
  %reshape.4744 = f32[1,1,1,2]{3,2,1,0} reshape(f32[2]{0} %reduce.4743)
  %constant.4745 = f32[] constant(0)
  %reduce.4750 = f32[2]{0} reduce(f32[1,1,1,2]{3,2,1,0} %reshape.4744, f32[] %constant.4745), dimensions={0,1,2}, to_apply=%primitive_computation_add__1.4746
  %broadcast.4751 = f32[2]{0} broadcast(f32[2]{0} %reduce.4750), dimensions={0}
  %convolution.4755 = f32[1,1,8,2]{3,2,1,0} convolution(f32[16,32,32,8]{3,2,1,0} %get-tuple-element.4508, f32[16,32,32,2]{3,2,1,0} %multiply.4754), window={size=32x32}, dim_labels=f01b_i01o->01bf
  %reshape.4764 = f32[1,1,2]{2,1,0} reshape(f32[1,1,1,2]{3,2,1,0} %broadcast.4568)
  %broadcast.4765 = f32[1,1,8,2]{3,2,1,0} broadcast(f32[1,1,2]{2,1,0} %reshape.4764), dimensions={0,1,3}
  %multiply.4766 = f32[1,1,8,2]{3,2,1,0} multiply(f32[1,1,8,2]{3,2,1,0} %convolution.4755, f32[1,1,8,2]{3,2,1,0} %broadcast.4765)
  %multiply.4756 = f32[1,1,8,2]{3,2,1,0} multiply(f32[1,1,8,2]{3,2,1,0} %parameter.30, f32[1,1,8,2]{3,2,1,0} %convolution.4755)
  %constant.4757 = f32[] constant(0)
  %reduce.4762 = f32[1,1,2]{2,1,0} reduce(f32[1,1,8,2]{3,2,1,0} %multiply.4756, f32[] %constant.4757), dimensions={2}, to_apply=%primitive_computation_add__1.4758
  %reshape.4763 = f32[1,1,1,2]{3,2,1,0} reshape(f32[1,1,2]{2,1,0} %reduce.4762)
  %constant.4767 = f32[] constant(0)
  %reduce.4772 = f32[2]{0} reduce(f32[1,1,1,2]{3,2,1,0} %reshape.4763, f32[] %constant.4767), dimensions={0,1,2}, to_apply=%primitive_computation_add__1.4768
  %broadcast.4773 = f32[2]{0} broadcast(f32[2]{0} %reduce.4772), dimensions={0}
  %constant.4565 = f32[] constant(-0.5)
  %broadcast.4566 = f32[2]{0} broadcast(f32[] %constant.4565), dimensions={}
  %divide.4564 = f32[2]{0} divide(f32[2]{0} %rsqrt.4563, f32[2]{0} %reduce.4562)
  %multiply.4567 = f32[2]{0} multiply(f32[2]{0} %broadcast.4566, f32[2]{0} %divide.4564)
  %multiply.4774 = f32[2]{0} multiply(f32[2]{0} %broadcast.4773, f32[2]{0} %multiply.4567)
  %broadcast.4775 = f32[1,1,8,2]{3,2,1,0} broadcast(f32[2]{0} %multiply.4774), dimensions={3}
  %constant.4554 = f32[] constant(2)
  %broadcast.4555 = f32[1,1,8,2]{3,2,1,0} broadcast(f32[] %constant.4554), dimensions={}
  %multiply.4556 = f32[1,1,8,2]{3,2,1,0} multiply(f32[1,1,8,2]{3,2,1,0} %broadcast.4555, f32[1,1,8,2]{3,2,1,0} %parameter.30)
  %multiply.4776 = f32[1,1,8,2]{3,2,1,0} multiply(f32[1,1,8,2]{3,2,1,0} %broadcast.4775, f32[1,1,8,2]{3,2,1,0} %multiply.4556)
  %add.4777 = f32[1,1,8,2]{3,2,1,0} add(f32[1,1,8,2]{3,2,1,0} %multiply.4766, f32[1,1,8,2]{3,2,1,0} %multiply.4776)
  %multiply.4714 = f32[16,32,32,2]{3,2,1,0} multiply(f32[16,32,32,2]{3,2,1,0} %add.4580, f32[16,32,32,2]{3,2,1,0} %add.4713)
  %constant.4715 = f32[] constant(0)
  %reduce.4720 = f32[] reduce(f32[16,32,32,2]{3,2,1,0} %multiply.4714, f32[] %constant.4715), dimensions={0,1,2,3}, to_apply=%primitive_computation_add__1.4716
  ROOT %tuple.9580 = (f32[], f32[2,16]{1,0}, f32[2,16]{1,0}, f32[2,3,3,8,16]{4,3,2,1,0}, f32[2,16]{1,0}, /*index=5*/f32[2,16]{1,0}, f32[2,1,1,16,16]{4,3,2,1,0}, f32[2,8]{1,0}, f32[2,8]{1,0}, f32[8]{0}, /*index=10*/f32[8]{0}, f32[1,1,2,8]{3,2,1,0}, f32[2]{0}, f32[2]{0}, f32[1,1,8,2]{3,2,1,0}, /*index=15*/f32[], f32[3,3]{1,0}, f32[2,16]{1,0}, f32[2,16]{1,0}, f32[2,3,3,8,16]{4,3,2,1,0}, /*index=20*/f32[2,16]{1,0}, f32[2,16]{1,0}, f32[2,1,1,16,16]{4,3,2,1,0}, f32[2,8]{1,0}, f32[2,8]{1,0}, /*index=25*/f32[8]{0}, f32[8]{0}, f32[1,1,2,8]{3,2,1,0}, f32[2]{0}, f32[2]{0}, /*index=30*/f32[1,1,8,2]{3,2,1,0}, f32[]) tuple(f32[] %negate.4666, f32[2,16]{1,0} %get-tuple-element.9517, f32[2,16]{1,0} %get-tuple-element.9518, f32[2,3,3,8,16]{4,3,2,1,0} %get-tuple-element.9519, f32[2,16]{1,0} %get-tuple-element.9520, /*index=5*/f32[2,16]{1,0} %get-tuple-element.9521, f32[2,1,1,16,16]{4,3,2,1,0} %get-tuple-element.9522, f32[2,8]{1,0} %get-tuple-element.9523, f32[2,8]{1,0} %get-tuple-element.9524, f32[8]{0} %broadcast.9538, /*index=10*/f32[8]{0} %broadcast.9553, f32[1,1,2,8]{3,2,1,0} %add.9579, f32[2]{0} %broadcast.7238, f32[2]{0} %broadcast.7253, f32[1,1,8,2]{3,2,1,0} %add.7279, /*index=15*/f32[] %reduce.7222, f32[3,3]{1,0} %add.7201, f32[2,16]{1,0} %get-tuple-element.7015, f32[2,16]{1,0} %get-tuple-element.7016, f32[2,3,3,8,16]{4,3,2,1,0} %get-tuple-element.7017, /*index=20*/f32[2,16]{1,0} %get-tuple-element.7018, f32[2,16]{1,0} %get-tuple-element.7019, f32[2,1,1,16,16]{4,3,2,1,0} %get-tuple-element.7020, f32[2,8]{1,0} %get-tuple-element.7021, f32[2,8]{1,0} %get-tuple-element.7022, /*index=25*/f32[8]{0} %broadcast.7036, f32[8]{0} %broadcast.7051, f32[1,1,2,8]{3,2,1,0} %add.7077, f32[2]{0} %broadcast.4736, f32[2]{0} %broadcast.4751, /*index=30*/f32[1,1,8,2]{3,2,1,0} %add.4777, f32[] %reduce.4720)
}

