HloModule jit__threefry_split__2.20

ENTRY %jit__threefry_split__2.20 (parameter.1: u32[2]) -> (u32[3,2]) {
  %constant.2 = pred[] constant(false)
  %parameter.1 = u32[2]{0} parameter(0)
  %slice.4 = u32[1]{0} slice(u32[2]{0} %parameter.1), slice={[0:1]}
  %reshape.5 = u32[] reshape(u32[1]{0} %slice.4)
  %broadcast.10 = u32[3]{0} broadcast(u32[] %reshape.5), dimensions={}
  %slice.6 = u32[1]{0} slice(u32[2]{0} %parameter.1), slice={[1:2]}
  %reshape.7 = u32[] reshape(u32[1]{0} %slice.6)
  %broadcast.11 = u32[3]{0} broadcast(u32[] %reshape.7), dimensions={}
  %iota.3 = u32[6] iota(), iota_dimension=0
  %slice.8 = u32[3]{0} slice(u32[6] %iota.3), slice={[0:3]}
  %broadcast.12 = u32[3]{0} broadcast(u32[3]{0} %slice.8), dimensions={0}
  %slice.9 = u32[3]{0} slice(u32[6] %iota.3), slice={[3:6]}
  %broadcast.13 = u32[3]{0} broadcast(u32[3]{0} %slice.9), dimensions={0}
  %custom-call.14 = (u32[3]{0}, u32[3]{0}) custom-call(u32[3]{0} %broadcast.10, u32[3]{0} %broadcast.11, u32[3]{0} %broadcast.12, u32[3]{0} %broadcast.13), custom_call_target="cuda_threefry2x32", operand_layout_constraints={u32[3]{0}, u32[3]{0}, u32[3]{0}, u32[3]{0}}, api_version=API_VERSION_STATUS_RETURNING, backend_config="\003\000\000\000\000\000\000\000"
  %get-tuple-element.15 = u32[3]{0} get-tuple-element((u32[3]{0}, u32[3]{0}) %custom-call.14), index=0
  %get-tuple-element.16 = u32[3]{0} get-tuple-element((u32[3]{0}, u32[3]{0}) %custom-call.14), index=1
  %concatenate.17 = u32[6]{0} concatenate(u32[3]{0} %get-tuple-element.15, u32[3]{0} %get-tuple-element.16), dimensions={0}
  %reshape.18 = u32[3,2]{1,0} reshape(u32[6]{0} %concatenate.17)
  ROOT %tuple.19 = (u32[3,2]{1,0}) tuple(u32[3,2]{1,0} %reshape.18)
}

