HloModule jit_init.2716

%body_computation.40 (parameter.41: (s32[], s32[], u32[10], u32[10], u32[], /*index=5*/u32[], u32[], u32[4], u32[4])) -> (s32[], s32[], u32[10], u32[10], u32[], /*index=5*/u32[], u32[], u32[4], u32[4]) {
  %constant.51 = pred[] constant(false)
  %parameter.41 = (s32[], s32[], u32[10]{0}, u32[10]{0}, u32[], /*index=5*/u32[], u32[], u32[4]{0}, u32[4]{0}) parameter(0)
  %get-tuple-element.42 = s32[] get-tuple-element((s32[], s32[], u32[10]{0}, u32[10]{0}, u32[], /*index=5*/u32[], u32[], u32[4]{0}, u32[4]{0}) %parameter.41), index=0
  %constant.107 = s32[] constant(1), metadata={op_type="add" op_name="jit(init)/body/add" source_file="/mnt/home/linmin/projects/deepmind-research/gated_linear_networks/examples/bernoulli_mnist.py" source_line=123}
  %add.108 = s32[] add(s32[] %get-tuple-element.42, s32[] %constant.107), metadata={op_type="add" op_name="jit(init)/body/add" source_file="/mnt/home/linmin/projects/deepmind-research/gated_linear_networks/examples/bernoulli_mnist.py" source_line=123}
  %get-tuple-element.43 = s32[] get-tuple-element((s32[], s32[], u32[10]{0}, u32[10]{0}, u32[], /*index=5*/u32[], u32[], u32[4]{0}, u32[4]{0}) %parameter.41), index=1
  %constant.52 = s32[] constant(1), metadata={op_type="add" op_name="jit(init)/body/add" source_file="/mnt/home/linmin/projects/deepmind-research/gated_linear_networks/examples/bernoulli_mnist.py" source_line=123}
  %add.53 = s32[] add(s32[] %get-tuple-element.43, s32[] %constant.52), metadata={op_type="add" op_name="jit(init)/body/add" source_file="/mnt/home/linmin/projects/deepmind-research/gated_linear_networks/examples/bernoulli_mnist.py" source_line=123}
  %get-tuple-element.44 = u32[10]{0} get-tuple-element((s32[], s32[], u32[10]{0}, u32[10]{0}, u32[], /*index=5*/u32[], u32[], u32[4]{0}, u32[4]{0}) %parameter.41), index=2
  %get-tuple-element.45 = u32[10]{0} get-tuple-element((s32[], s32[], u32[10]{0}, u32[10]{0}, u32[], /*index=5*/u32[], u32[], u32[4]{0}, u32[4]{0}) %parameter.41), index=3
  %add.62 = u32[10]{0} add(u32[10]{0} %get-tuple-element.44, u32[10]{0} %get-tuple-element.45), metadata={op_type="add" op_name="jit(init)/body/add" source_file="/mnt/home/linmin/projects/deepmind-research/gated_linear_networks/examples/bernoulli_mnist.py" source_line=123}
  %get-tuple-element.49 = u32[4]{0} get-tuple-element((s32[], s32[], u32[10]{0}, u32[10]{0}, u32[], /*index=5*/u32[], u32[], u32[4]{0}, u32[4]{0}) %parameter.41), index=7
  %slice.54 = u32[1]{0} slice(u32[4]{0} %get-tuple-element.49), slice={[0:1]}, metadata={op_type="slice" op_name="jit(init)/body/slice[limit_indices=(1,) start_indices=(0,) strides=(1,)]" source_file="/mnt/home/linmin/projects/deepmind-research/gated_linear_networks/examples/bernoulli_mnist.py" source_line=123}
  %reshape.55 = u32[] reshape(u32[1]{0} %slice.54), metadata={op_type="squeeze" op_name="jit(init)/body/squeeze[dimensions=(0,)]" source_file="/mnt/home/linmin/projects/deepmind-research/gated_linear_networks/examples/bernoulli_mnist.py" source_line=123}
  %broadcast.63 = u32[10]{0} broadcast(u32[] %reshape.55), dimensions={}, metadata={op_type="shift_left" op_name="jit(init)/body/shift_left" source_file="/mnt/home/linmin/projects/deepmind-research/gated_linear_networks/examples/bernoulli_mnist.py" source_line=123}
  %shift-left.64 = u32[10]{0} shift-left(u32[10]{0} %get-tuple-element.45, u32[10]{0} %broadcast.63), metadata={op_type="shift_left" op_name="jit(init)/body/shift_left" source_file="/mnt/home/linmin/projects/deepmind-research/gated_linear_networks/examples/bernoulli_mnist.py" source_line=123}
  %constant.65 = u32[] constant(32), metadata={op_type="sub" op_name="jit(init)/body/sub" source_file="/mnt/home/linmin/projects/deepmind-research/gated_linear_networks/examples/bernoulli_mnist.py" source_line=123}
  %subtract.66 = u32[] subtract(u32[] %constant.65, u32[] %reshape.55), metadata={op_type="sub" op_name="jit(init)/body/sub" source_file="/mnt/home/linmin/projects/deepmind-research/gated_linear_networks/examples/bernoulli_mnist.py" source_line=123}
  %broadcast.67 = u32[10]{0} broadcast(u32[] %subtract.66), dimensions={}, metadata={op_type="shift_right_logical" op_name="jit(init)/body/shift_right_logical" source_file="/mnt/home/linmin/projects/deepmind-research/gated_linear_networks/examples/bernoulli_mnist.py" source_line=123}
  %shift-right-logical.68 = u32[10]{0} shift-right-logical(u32[10]{0} %get-tuple-element.45, u32[10]{0} %broadcast.67), metadata={op_type="shift_right_logical" op_name="jit(init)/body/shift_right_logical" source_file="/mnt/home/linmin/projects/deepmind-research/gated_linear_networks/examples/bernoulli_mnist.py" source_line=123}
  %or.69 = u32[10]{0} or(u32[10]{0} %shift-left.64, u32[10]{0} %shift-right-logical.68), metadata={op_type="or" op_name="jit(init)/body/or" source_file="/mnt/home/linmin/projects/deepmind-research/gated_linear_networks/examples/bernoulli_mnist.py" source_line=123}
  %xor.70 = u32[10]{0} xor(u32[10]{0} %add.62, u32[10]{0} %or.69), metadata={op_type="xor" op_name="jit(init)/body/xor" source_file="/mnt/home/linmin/projects/deepmind-research/gated_linear_networks/examples/bernoulli_mnist.py" source_line=123}
  %add.71 = u32[10]{0} add(u32[10]{0} %add.62, u32[10]{0} %xor.70), metadata={op_type="add" op_name="jit(init)/body/add" source_file="/mnt/home/linmin/projects/deepmind-research/gated_linear_networks/examples/bernoulli_mnist.py" source_line=123}
  %slice.56 = u32[1]{0} slice(u32[4]{0} %get-tuple-element.49), slice={[1:2]}, metadata={op_type="slice" op_name="jit(init)/body/slice[limit_indices=(2,) start_indices=(1,) strides=(1,)]" source_file="/mnt/home/linmin/projects/deepmind-research/gated_linear_networks/examples/bernoulli_mnist.py" source_line=123}
  %reshape.57 = u32[] reshape(u32[1]{0} %slice.56), metadata={op_type="squeeze" op_name="jit(init)/body/squeeze[dimensions=(0,)]" source_file="/mnt/home/linmin/projects/deepmind-research/gated_linear_networks/examples/bernoulli_mnist.py" source_line=123}
  %broadcast.72 = u32[10]{0} broadcast(u32[] %reshape.57), dimensions={}, metadata={op_type="shift_left" op_name="jit(init)/body/shift_left" source_file="/mnt/home/linmin/projects/deepmind-research/gated_linear_networks/examples/bernoulli_mnist.py" source_line=123}
  %shift-left.73 = u32[10]{0} shift-left(u32[10]{0} %xor.70, u32[10]{0} %broadcast.72), metadata={op_type="shift_left" op_name="jit(init)/body/shift_left" source_file="/mnt/home/linmin/projects/deepmind-research/gated_linear_networks/examples/bernoulli_mnist.py" source_line=123}
  %constant.74 = u32[] constant(32), metadata={op_type="sub" op_name="jit(init)/body/sub" source_file="/mnt/home/linmin/projects/deepmind-research/gated_linear_networks/examples/bernoulli_mnist.py" source_line=123}
  %subtract.75 = u32[] subtract(u32[] %constant.74, u32[] %reshape.57), metadata={op_type="sub" op_name="jit(init)/body/sub" source_file="/mnt/home/linmin/projects/deepmind-research/gated_linear_networks/examples/bernoulli_mnist.py" source_line=123}
  %broadcast.76 = u32[10]{0} broadcast(u32[] %subtract.75), dimensions={}, metadata={op_type="shift_right_logical" op_name="jit(init)/body/shift_right_logical" source_file="/mnt/home/linmin/projects/deepmind-research/gated_linear_networks/examples/bernoulli_mnist.py" source_line=123}
  %shift-right-logical.77 = u32[10]{0} shift-right-logical(u32[10]{0} %xor.70, u32[10]{0} %broadcast.76), metadata={op_type="shift_right_logical" op_name="jit(init)/body/shift_right_logical" source_file="/mnt/home/linmin/projects/deepmind-research/gated_linear_networks/examples/bernoulli_mnist.py" source_line=123}
  %or.78 = u32[10]{0} or(u32[10]{0} %shift-left.73, u32[10]{0} %shift-right-logical.77), metadata={op_type="or" op_name="jit(init)/body/or" source_file="/mnt/home/linmin/projects/deepmind-research/gated_linear_networks/examples/bernoulli_mnist.py" source_line=123}
  %xor.79 = u32[10]{0} xor(u32[10]{0} %add.71, u32[10]{0} %or.78), metadata={op_type="xor" op_name="jit(init)/body/xor" source_file="/mnt/home/linmin/projects/deepmind-research/gated_linear_networks/examples/bernoulli_mnist.py" source_line=123}
  %add.80 = u32[10]{0} add(u32[10]{0} %add.71, u32[10]{0} %xor.79), metadata={op_type="add" op_name="jit(init)/body/add" source_file="/mnt/home/linmin/projects/deepmind-research/gated_linear_networks/examples/bernoulli_mnist.py" source_line=123}
  %slice.58 = u32[1]{0} slice(u32[4]{0} %get-tuple-element.49), slice={[2:3]}, metadata={op_type="slice" op_name="jit(init)/body/slice[limit_indices=(3,) start_indices=(2,) strides=(1,)]" source_file="/mnt/home/linmin/projects/deepmind-research/gated_linear_networks/examples/bernoulli_mnist.py" source_line=123}
  %reshape.59 = u32[] reshape(u32[1]{0} %slice.58), metadata={op_type="squeeze" op_name="jit(init)/body/squeeze[dimensions=(0,)]" source_file="/mnt/home/linmin/projects/deepmind-research/gated_linear_networks/examples/bernoulli_mnist.py" source_line=123}
  %broadcast.81 = u32[10]{0} broadcast(u32[] %reshape.59), dimensions={}, metadata={op_type="shift_left" op_name="jit(init)/body/shift_left" source_file="/mnt/home/linmin/projects/deepmind-research/gated_linear_networks/examples/bernoulli_mnist.py" source_line=123}
  %shift-left.82 = u32[10]{0} shift-left(u32[10]{0} %xor.79, u32[10]{0} %broadcast.81), metadata={op_type="shift_left" op_name="jit(init)/body/shift_left" source_file="/mnt/home/linmin/projects/deepmind-research/gated_linear_networks/examples/bernoulli_mnist.py" source_line=123}
  %constant.83 = u32[] constant(32), metadata={op_type="sub" op_name="jit(init)/body/sub" source_file="/mnt/home/linmin/projects/deepmind-research/gated_linear_networks/examples/bernoulli_mnist.py" source_line=123}
  %subtract.84 = u32[] subtract(u32[] %constant.83, u32[] %reshape.59), metadata={op_type="sub" op_name="jit(init)/body/sub" source_file="/mnt/home/linmin/projects/deepmind-research/gated_linear_networks/examples/bernoulli_mnist.py" source_line=123}
  %broadcast.85 = u32[10]{0} broadcast(u32[] %subtract.84), dimensions={}, metadata={op_type="shift_right_logical" op_name="jit(init)/body/shift_right_logical" source_file="/mnt/home/linmin/projects/deepmind-research/gated_linear_networks/examples/bernoulli_mnist.py" source_line=123}
  %shift-right-logical.86 = u32[10]{0} shift-right-logical(u32[10]{0} %xor.79, u32[10]{0} %broadcast.85), metadata={op_type="shift_right_logical" op_name="jit(init)/body/shift_right_logical" source_file="/mnt/home/linmin/projects/deepmind-research/gated_linear_networks/examples/bernoulli_mnist.py" source_line=123}
  %or.87 = u32[10]{0} or(u32[10]{0} %shift-left.82, u32[10]{0} %shift-right-logical.86), metadata={op_type="or" op_name="jit(init)/body/or" source_file="/mnt/home/linmin/projects/deepmind-research/gated_linear_networks/examples/bernoulli_mnist.py" source_line=123}
  %xor.88 = u32[10]{0} xor(u32[10]{0} %add.80, u32[10]{0} %or.87), metadata={op_type="xor" op_name="jit(init)/body/xor" source_file="/mnt/home/linmin/projects/deepmind-research/gated_linear_networks/examples/bernoulli_mnist.py" source_line=123}
  %add.89 = u32[10]{0} add(u32[10]{0} %add.80, u32[10]{0} %xor.88), metadata={op_type="add" op_name="jit(init)/body/add" source_file="/mnt/home/linmin/projects/deepmind-research/gated_linear_networks/examples/bernoulli_mnist.py" source_line=123}
  %get-tuple-element.46 = u32[] get-tuple-element((s32[], s32[], u32[10]{0}, u32[10]{0}, u32[], /*index=5*/u32[], u32[], u32[4]{0}, u32[4]{0}) %parameter.41), index=4
  %broadcast.98 = u32[10]{0} broadcast(u32[] %get-tuple-element.46), dimensions={}, metadata={op_type="add" op_name="jit(init)/body/add" source_file="/mnt/home/linmin/projects/deepmind-research/gated_linear_networks/examples/bernoulli_mnist.py" source_line=123}
  %add.99 = u32[10]{0} add(u32[10]{0} %add.89, u32[10]{0} %broadcast.98), metadata={op_type="add" op_name="jit(init)/body/add" source_file="/mnt/home/linmin/projects/deepmind-research/gated_linear_networks/examples/bernoulli_mnist.py" source_line=123}
  %slice.60 = u32[1]{0} slice(u32[4]{0} %get-tuple-element.49), slice={[3:4]}, metadata={op_type="slice" op_name="jit(init)/body/slice[limit_indices=(4,) start_indices=(3,) strides=(1,)]" source_file="/mnt/home/linmin/projects/deepmind-research/gated_linear_networks/examples/bernoulli_mnist.py" source_line=123}
  %reshape.61 = u32[] reshape(u32[1]{0} %slice.60), metadata={op_type="squeeze" op_name="jit(init)/body/squeeze[dimensions=(0,)]" source_file="/mnt/home/linmin/projects/deepmind-research/gated_linear_networks/examples/bernoulli_mnist.py" source_line=123}
  %broadcast.90 = u32[10]{0} broadcast(u32[] %reshape.61), dimensions={}, metadata={op_type="shift_left" op_name="jit(init)/body/shift_left" source_file="/mnt/home/linmin/projects/deepmind-research/gated_linear_networks/examples/bernoulli_mnist.py" source_line=123}
  %shift-left.91 = u32[10]{0} shift-left(u32[10]{0} %xor.88, u32[10]{0} %broadcast.90), metadata={op_type="shift_left" op_name="jit(init)/body/shift_left" source_file="/mnt/home/linmin/projects/deepmind-research/gated_linear_networks/examples/bernoulli_mnist.py" source_line=123}
  %constant.92 = u32[] constant(32), metadata={op_type="sub" op_name="jit(init)/body/sub" source_file="/mnt/home/linmin/projects/deepmind-research/gated_linear_networks/examples/bernoulli_mnist.py" source_line=123}
  %subtract.93 = u32[] subtract(u32[] %constant.92, u32[] %reshape.61), metadata={op_type="sub" op_name="jit(init)/body/sub" source_file="/mnt/home/linmin/projects/deepmind-research/gated_linear_networks/examples/bernoulli_mnist.py" source_line=123}
  %broadcast.94 = u32[10]{0} broadcast(u32[] %subtract.93), dimensions={}, metadata={op_type="shift_right_logical" op_name="jit(init)/body/shift_right_logical" source_file="/mnt/home/linmin/projects/deepmind-research/gated_linear_networks/examples/bernoulli_mnist.py" source_line=123}
  %shift-right-logical.95 = u32[10]{0} shift-right-logical(u32[10]{0} %xor.88, u32[10]{0} %broadcast.94), metadata={op_type="shift_right_logical" op_name="jit(init)/body/shift_right_logical" source_file="/mnt/home/linmin/projects/deepmind-research/gated_linear_networks/examples/bernoulli_mnist.py" source_line=123}
  %or.96 = u32[10]{0} or(u32[10]{0} %shift-left.91, u32[10]{0} %shift-right-logical.95), metadata={op_type="or" op_name="jit(init)/body/or" source_file="/mnt/home/linmin/projects/deepmind-research/gated_linear_networks/examples/bernoulli_mnist.py" source_line=123}
  %xor.97 = u32[10]{0} xor(u32[10]{0} %add.89, u32[10]{0} %or.96), metadata={op_type="xor" op_name="jit(init)/body/xor" source_file="/mnt/home/linmin/projects/deepmind-research/gated_linear_networks/examples/bernoulli_mnist.py" source_line=123}
  %get-tuple-element.47 = u32[] get-tuple-element((s32[], s32[], u32[10]{0}, u32[10]{0}, u32[], /*index=5*/u32[], u32[], u32[4]{0}, u32[4]{0}) %parameter.41), index=5
  %broadcast.100 = u32[10]{0} broadcast(u32[] %get-tuple-element.47), dimensions={}, metadata={op_type="add" op_name="jit(init)/body/add" source_file="/mnt/home/linmin/projects/deepmind-research/gated_linear_networks/examples/bernoulli_mnist.py" source_line=123}
  %add.101 = u32[10]{0} add(u32[10]{0} %xor.97, u32[10]{0} %broadcast.100), metadata={op_type="add" op_name="jit(init)/body/add" source_file="/mnt/home/linmin/projects/deepmind-research/gated_linear_networks/examples/bernoulli_mnist.py" source_line=123}
  %constant.102 = s32[] constant(1), metadata={op_type="add" op_name="jit(init)/body/add" source_file="/mnt/home/linmin/projects/deepmind-research/gated_linear_networks/examples/bernoulli_mnist.py" source_line=123}
  %add.103 = s32[] add(s32[] %get-tuple-element.43, s32[] %constant.102), metadata={op_type="add" op_name="jit(init)/body/add" source_file="/mnt/home/linmin/projects/deepmind-research/gated_linear_networks/examples/bernoulli_mnist.py" source_line=123}
  %convert.104 = u32[] convert(s32[] %add.103), metadata={op_type="convert_element_type" op_name="jit(init)/body/convert_element_type[new_dtype=uint32 weak_type=False]" source_file="/mnt/home/linmin/projects/deepmind-research/gated_linear_networks/examples/bernoulli_mnist.py" source_line=123}
  %broadcast.105 = u32[10]{0} broadcast(u32[] %convert.104), dimensions={}, metadata={op_type="add" op_name="jit(init)/body/add" source_file="/mnt/home/linmin/projects/deepmind-research/gated_linear_networks/examples/bernoulli_mnist.py" source_line=123}
  %add.106 = u32[10]{0} add(u32[10]{0} %add.101, u32[10]{0} %broadcast.105), metadata={op_type="add" op_name="jit(init)/body/add" source_file="/mnt/home/linmin/projects/deepmind-research/gated_linear_networks/examples/bernoulli_mnist.py" source_line=123}
  %get-tuple-element.48 = u32[] get-tuple-element((s32[], s32[], u32[10]{0}, u32[10]{0}, u32[], /*index=5*/u32[], u32[], u32[4]{0}, u32[4]{0}) %parameter.41), index=6
  %get-tuple-element.50 = u32[4]{0} get-tuple-element((s32[], s32[], u32[10]{0}, u32[10]{0}, u32[], /*index=5*/u32[], u32[], u32[4]{0}, u32[4]{0}) %parameter.41), index=8
  ROOT %tuple.109 = (s32[], s32[], u32[10]{0}, u32[10]{0}, u32[], /*index=5*/u32[], u32[], u32[4]{0}, u32[4]{0}) tuple(s32[] %add.108, s32[] %add.53, u32[10]{0} %add.99, u32[10]{0} %add.106, u32[] %get-tuple-element.47, /*index=5*/u32[] %get-tuple-element.48, u32[] %get-tuple-element.46, u32[4]{0} %get-tuple-element.50, u32[4]{0} %get-tuple-element.49)
}

%cond_computation.110 (parameter.111: (s32[], s32[], u32[10], u32[10], u32[], /*index=5*/u32[], u32[], u32[4], u32[4])) -> pred[] {
  %parameter.111 = (s32[], s32[], u32[10]{0}, u32[10]{0}, u32[], /*index=5*/u32[], u32[], u32[4]{0}, u32[4]{0}) parameter(0)
  %get-tuple-element.113 = s32[] get-tuple-element((s32[], s32[], u32[10]{0}, u32[10]{0}, u32[], /*index=5*/u32[], u32[], u32[4]{0}, u32[4]{0}) %parameter.111), index=1
  %get-tuple-element.114 = u32[10]{0} get-tuple-element((s32[], s32[], u32[10]{0}, u32[10]{0}, u32[], /*index=5*/u32[], u32[], u32[4]{0}, u32[4]{0}) %parameter.111), index=2
  %get-tuple-element.115 = u32[10]{0} get-tuple-element((s32[], s32[], u32[10]{0}, u32[10]{0}, u32[], /*index=5*/u32[], u32[], u32[4]{0}, u32[4]{0}) %parameter.111), index=3
  %get-tuple-element.116 = u32[] get-tuple-element((s32[], s32[], u32[10]{0}, u32[10]{0}, u32[], /*index=5*/u32[], u32[], u32[4]{0}, u32[4]{0}) %parameter.111), index=4
  %get-tuple-element.117 = u32[] get-tuple-element((s32[], s32[], u32[10]{0}, u32[10]{0}, u32[], /*index=5*/u32[], u32[], u32[4]{0}, u32[4]{0}) %parameter.111), index=5
  %get-tuple-element.118 = u32[] get-tuple-element((s32[], s32[], u32[10]{0}, u32[10]{0}, u32[], /*index=5*/u32[], u32[], u32[4]{0}, u32[4]{0}) %parameter.111), index=6
  %get-tuple-element.119 = u32[4]{0} get-tuple-element((s32[], s32[], u32[10]{0}, u32[10]{0}, u32[], /*index=5*/u32[], u32[], u32[4]{0}, u32[4]{0}) %parameter.111), index=7
  %get-tuple-element.120 = u32[4]{0} get-tuple-element((s32[], s32[], u32[10]{0}, u32[10]{0}, u32[], /*index=5*/u32[], u32[], u32[4]{0}, u32[4]{0}) %parameter.111), index=8
  %constant.121 = pred[] constant(false)
  %get-tuple-element.112 = s32[] get-tuple-element((s32[], s32[], u32[10]{0}, u32[10]{0}, u32[], /*index=5*/u32[], u32[], u32[4]{0}, u32[4]{0}) %parameter.111), index=0
  %constant.122 = s32[] constant(5), metadata={op_type="lt" op_name="jit(init)/cond/lt" source_file="/mnt/home/linmin/projects/deepmind-research/gated_linear_networks/examples/bernoulli_mnist.py" source_line=123}
  ROOT %compare.123 = pred[] compare(s32[] %get-tuple-element.112, s32[] %constant.122), direction=LT, metadata={op_type="lt" op_name="jit(init)/cond/lt" source_file="/mnt/home/linmin/projects/deepmind-research/gated_linear_networks/examples/bernoulli_mnist.py" source_line=123}
}

%jit_vmap_append_.183 (parameter.184: f32[10,784], parameter.185: f32[]) -> f32[10,785] {
  %constant.186 = pred[] constant(false)
  %parameter.184 = f32[10,784]{1,0} parameter(0)
  %parameter.185 = f32[] parameter(1)
  %reshape.187 = f32[1]{0} reshape(f32[] %parameter.185), metadata={op_type="reshape" op_name="jit(init)/jit(vmap(append))/reshape[dimensions=None new_sizes=(1,)]" source_file="/mnt/home/linmin/projects/deepmind-research/gated_linear_networks/bernoulli.py" source_line=54}
  %convert.188 = f32[1]{0} convert(f32[1]{0} %reshape.187), metadata={op_type="convert_element_type" op_name="jit(init)/jit(vmap(append))/convert_element_type[\n  new_dtype=float32\n  weak_type=False\n]" source_file="/mnt/home/linmin/projects/deepmind-research/gated_linear_networks/bernoulli.py" source_line=54}
  %broadcast.189 = f32[10,1]{1,0} broadcast(f32[1]{0} %convert.188), dimensions={1}, metadata={op_type="broadcast_in_dim" op_name="jit(init)/jit(vmap(append))/broadcast_in_dim[\n  broadcast_dimensions=(1,)\n  shape=(10, 1)\n]" source_file="/mnt/home/linmin/projects/deepmind-research/gated_linear_networks/bernoulli.py" source_line=54}
  ROOT %concatenate.190 = f32[10,785]{1,0} concatenate(f32[10,784]{1,0} %parameter.184, f32[10,1]{1,0} %broadcast.189), dimensions={1}, metadata={op_type="concatenate" op_name="jit(init)/jit(vmap(append))/concatenate[dimension=1]" source_file="/mnt/home/linmin/projects/deepmind-research/gated_linear_networks/bernoulli.py" source_line=54}
}

%body_computation__1.222 (parameter.223: (s32[], s32[], u32[10,2], u32[10,2], u32[10,1], /*index=5*/u32[10,1], u32[10,1], u32[4], u32[4])) -> (s32[], s32[], u32[10,2], u32[10,2], u32[10,1], /*index=5*/u32[10,1], u32[10,1], u32[4], u32[4]) {
  %constant.233 = pred[] constant(false)
  %parameter.223 = (s32[], s32[], u32[10,2]{1,0}, u32[10,2]{1,0}, u32[10,1]{1,0}, /*index=5*/u32[10,1]{1,0}, u32[10,1]{1,0}, u32[4]{0}, u32[4]{0}) parameter(0)
  %get-tuple-element.224 = s32[] get-tuple-element((s32[], s32[], u32[10,2]{1,0}, u32[10,2]{1,0}, u32[10,1]{1,0}, /*index=5*/u32[10,1]{1,0}, u32[10,1]{1,0}, u32[4]{0}, u32[4]{0}) %parameter.223), index=0
  %constant.291 = s32[] constant(1), metadata={op_type="add" op_name="jit(init)/body/add" source_file="/mnt/home/linmin/g/lib/python3.8/site-packages/haiku/_src/base.py" source_line=560}
  %add.292 = s32[] add(s32[] %get-tuple-element.224, s32[] %constant.291), metadata={op_type="add" op_name="jit(init)/body/add" source_file="/mnt/home/linmin/g/lib/python3.8/site-packages/haiku/_src/base.py" source_line=560}
  %get-tuple-element.225 = s32[] get-tuple-element((s32[], s32[], u32[10,2]{1,0}, u32[10,2]{1,0}, u32[10,1]{1,0}, /*index=5*/u32[10,1]{1,0}, u32[10,1]{1,0}, u32[4]{0}, u32[4]{0}) %parameter.223), index=1
  %constant.234 = s32[] constant(1), metadata={op_type="add" op_name="jit(init)/body/add" source_file="/mnt/home/linmin/g/lib/python3.8/site-packages/haiku/_src/base.py" source_line=560}
  %add.235 = s32[] add(s32[] %get-tuple-element.225, s32[] %constant.234), metadata={op_type="add" op_name="jit(init)/body/add" source_file="/mnt/home/linmin/g/lib/python3.8/site-packages/haiku/_src/base.py" source_line=560}
  %get-tuple-element.226 = u32[10,2]{1,0} get-tuple-element((s32[], s32[], u32[10,2]{1,0}, u32[10,2]{1,0}, u32[10,1]{1,0}, /*index=5*/u32[10,1]{1,0}, u32[10,1]{1,0}, u32[4]{0}, u32[4]{0}) %parameter.223), index=2
  %get-tuple-element.227 = u32[10,2]{1,0} get-tuple-element((s32[], s32[], u32[10,2]{1,0}, u32[10,2]{1,0}, u32[10,1]{1,0}, /*index=5*/u32[10,1]{1,0}, u32[10,1]{1,0}, u32[4]{0}, u32[4]{0}) %parameter.223), index=3
  %add.244 = u32[10,2]{1,0} add(u32[10,2]{1,0} %get-tuple-element.226, u32[10,2]{1,0} %get-tuple-element.227), metadata={op_type="add" op_name="jit(init)/body/add" source_file="/mnt/home/linmin/g/lib/python3.8/site-packages/haiku/_src/base.py" source_line=560}
  %get-tuple-element.231 = u32[4]{0} get-tuple-element((s32[], s32[], u32[10,2]{1,0}, u32[10,2]{1,0}, u32[10,1]{1,0}, /*index=5*/u32[10,1]{1,0}, u32[10,1]{1,0}, u32[4]{0}, u32[4]{0}) %parameter.223), index=7
  %slice.236 = u32[1]{0} slice(u32[4]{0} %get-tuple-element.231), slice={[0:1]}, metadata={op_type="slice" op_name="jit(init)/body/slice[limit_indices=(1,) start_indices=(0,) strides=(1,)]" source_file="/mnt/home/linmin/g/lib/python3.8/site-packages/haiku/_src/base.py" source_line=560}
  %reshape.237 = u32[] reshape(u32[1]{0} %slice.236), metadata={op_type="squeeze" op_name="jit(init)/body/squeeze[dimensions=(0,)]" source_file="/mnt/home/linmin/g/lib/python3.8/site-packages/haiku/_src/base.py" source_line=560}
  %broadcast.245 = u32[10,2]{1,0} broadcast(u32[] %reshape.237), dimensions={}, metadata={op_type="shift_left" op_name="jit(init)/body/shift_left" source_file="/mnt/home/linmin/g/lib/python3.8/site-packages/haiku/_src/base.py" source_line=560}
  %shift-left.246 = u32[10,2]{1,0} shift-left(u32[10,2]{1,0} %get-tuple-element.227, u32[10,2]{1,0} %broadcast.245), metadata={op_type="shift_left" op_name="jit(init)/body/shift_left" source_file="/mnt/home/linmin/g/lib/python3.8/site-packages/haiku/_src/base.py" source_line=560}
  %constant.247 = u32[] constant(32), metadata={op_type="sub" op_name="jit(init)/body/sub" source_file="/mnt/home/linmin/g/lib/python3.8/site-packages/haiku/_src/base.py" source_line=560}
  %subtract.248 = u32[] subtract(u32[] %constant.247, u32[] %reshape.237), metadata={op_type="sub" op_name="jit(init)/body/sub" source_file="/mnt/home/linmin/g/lib/python3.8/site-packages/haiku/_src/base.py" source_line=560}
  %broadcast.249 = u32[10,2]{1,0} broadcast(u32[] %subtract.248), dimensions={}, metadata={op_type="shift_right_logical" op_name="jit(init)/body/shift_right_logical" source_file="/mnt/home/linmin/g/lib/python3.8/site-packages/haiku/_src/base.py" source_line=560}
  %shift-right-logical.250 = u32[10,2]{1,0} shift-right-logical(u32[10,2]{1,0} %get-tuple-element.227, u32[10,2]{1,0} %broadcast.249), metadata={op_type="shift_right_logical" op_name="jit(init)/body/shift_right_logical" source_file="/mnt/home/linmin/g/lib/python3.8/site-packages/haiku/_src/base.py" source_line=560}
  %or.251 = u32[10,2]{1,0} or(u32[10,2]{1,0} %shift-left.246, u32[10,2]{1,0} %shift-right-logical.250), metadata={op_type="or" op_name="jit(init)/body/or" source_file="/mnt/home/linmin/g/lib/python3.8/site-packages/haiku/_src/base.py" source_line=560}
  %xor.252 = u32[10,2]{1,0} xor(u32[10,2]{1,0} %add.244, u32[10,2]{1,0} %or.251), metadata={op_type="xor" op_name="jit(init)/body/xor" source_file="/mnt/home/linmin/g/lib/python3.8/site-packages/haiku/_src/base.py" source_line=560}
  %add.253 = u32[10,2]{1,0} add(u32[10,2]{1,0} %add.244, u32[10,2]{1,0} %xor.252), metadata={op_type="add" op_name="jit(init)/body/add" source_file="/mnt/home/linmin/g/lib/python3.8/site-packages/haiku/_src/base.py" source_line=560}
  %slice.238 = u32[1]{0} slice(u32[4]{0} %get-tuple-element.231), slice={[1:2]}, metadata={op_type="slice" op_name="jit(init)/body/slice[limit_indices=(2,) start_indices=(1,) strides=(1,)]" source_file="/mnt/home/linmin/g/lib/python3.8/site-packages/haiku/_src/base.py" source_line=560}
  %reshape.239 = u32[] reshape(u32[1]{0} %slice.238), metadata={op_type="squeeze" op_name="jit(init)/body/squeeze[dimensions=(0,)]" source_file="/mnt/home/linmin/g/lib/python3.8/site-packages/haiku/_src/base.py" source_line=560}
  %broadcast.254 = u32[10,2]{1,0} broadcast(u32[] %reshape.239), dimensions={}, metadata={op_type="shift_left" op_name="jit(init)/body/shift_left" source_file="/mnt/home/linmin/g/lib/python3.8/site-packages/haiku/_src/base.py" source_line=560}
  %shift-left.255 = u32[10,2]{1,0} shift-left(u32[10,2]{1,0} %xor.252, u32[10,2]{1,0} %broadcast.254), metadata={op_type="shift_left" op_name="jit(init)/body/shift_left" source_file="/mnt/home/linmin/g/lib/python3.8/site-packages/haiku/_src/base.py" source_line=560}
  %constant.256 = u32[] constant(32), metadata={op_type="sub" op_name="jit(init)/body/sub" source_file="/mnt/home/linmin/g/lib/python3.8/site-packages/haiku/_src/base.py" source_line=560}
  %subtract.257 = u32[] subtract(u32[] %constant.256, u32[] %reshape.239), metadata={op_type="sub" op_name="jit(init)/body/sub" source_file="/mnt/home/linmin/g/lib/python3.8/site-packages/haiku/_src/base.py" source_line=560}
  %broadcast.258 = u32[10,2]{1,0} broadcast(u32[] %subtract.257), dimensions={}, metadata={op_type="shift_right_logical" op_name="jit(init)/body/shift_right_logical" source_file="/mnt/home/linmin/g/lib/python3.8/site-packages/haiku/_src/base.py" source_line=560}
  %shift-right-logical.259 = u32[10,2]{1,0} shift-right-logical(u32[10,2]{1,0} %xor.252, u32[10,2]{1,0} %broadcast.258), metadata={op_type="shift_right_logical" op_name="jit(init)/body/shift_right_logical" source_file="/mnt/home/linmin/g/lib/python3.8/site-packages/haiku/_src/base.py" source_line=560}
  %or.260 = u32[10,2]{1,0} or(u32[10,2]{1,0} %shift-left.255, u32[10,2]{1,0} %shift-right-logical.259), metadata={op_type="or" op_name="jit(init)/body/or" source_file="/mnt/home/linmin/g/lib/python3.8/site-packages/haiku/_src/base.py" source_line=560}
  %xor.261 = u32[10,2]{1,0} xor(u32[10,2]{1,0} %add.253, u32[10,2]{1,0} %or.260), metadata={op_type="xor" op_name="jit(init)/body/xor" source_file="/mnt/home/linmin/g/lib/python3.8/site-packages/haiku/_src/base.py" source_line=560}
  %add.262 = u32[10,2]{1,0} add(u32[10,2]{1,0} %add.253, u32[10,2]{1,0} %xor.261), metadata={op_type="add" op_name="jit(init)/body/add" source_file="/mnt/home/linmin/g/lib/python3.8/site-packages/haiku/_src/base.py" source_line=560}
  %slice.240 = u32[1]{0} slice(u32[4]{0} %get-tuple-element.231), slice={[2:3]}, metadata={op_type="slice" op_name="jit(init)/body/slice[limit_indices=(3,) start_indices=(2,) strides=(1,)]" source_file="/mnt/home/linmin/g/lib/python3.8/site-packages/haiku/_src/base.py" source_line=560}
  %reshape.241 = u32[] reshape(u32[1]{0} %slice.240), metadata={op_type="squeeze" op_name="jit(init)/body/squeeze[dimensions=(0,)]" source_file="/mnt/home/linmin/g/lib/python3.8/site-packages/haiku/_src/base.py" source_line=560}
  %broadcast.263 = u32[10,2]{1,0} broadcast(u32[] %reshape.241), dimensions={}, metadata={op_type="shift_left" op_name="jit(init)/body/shift_left" source_file="/mnt/home/linmin/g/lib/python3.8/site-packages/haiku/_src/base.py" source_line=560}
  %shift-left.264 = u32[10,2]{1,0} shift-left(u32[10,2]{1,0} %xor.261, u32[10,2]{1,0} %broadcast.263), metadata={op_type="shift_left" op_name="jit(init)/body/shift_left" source_file="/mnt/home/linmin/g/lib/python3.8/site-packages/haiku/_src/base.py" source_line=560}
  %constant.265 = u32[] constant(32), metadata={op_type="sub" op_name="jit(init)/body/sub" source_file="/mnt/home/linmin/g/lib/python3.8/site-packages/haiku/_src/base.py" source_line=560}
  %subtract.266 = u32[] subtract(u32[] %constant.265, u32[] %reshape.241), metadata={op_type="sub" op_name="jit(init)/body/sub" source_file="/mnt/home/linmin/g/lib/python3.8/site-packages/haiku/_src/base.py" source_line=560}
  %broadcast.267 = u32[10,2]{1,0} broadcast(u32[] %subtract.266), dimensions={}, metadata={op_type="shift_right_logical" op_name="jit(init)/body/shift_right_logical" source_file="/mnt/home/linmin/g/lib/python3.8/site-packages/haiku/_src/base.py" source_line=560}
  %shift-right-logical.268 = u32[10,2]{1,0} shift-right-logical(u32[10,2]{1,0} %xor.261, u32[10,2]{1,0} %broadcast.267), metadata={op_type="shift_right_logical" op_name="jit(init)/body/shift_right_logical" source_file="/mnt/home/linmin/g/lib/python3.8/site-packages/haiku/_src/base.py" source_line=560}
  %or.269 = u32[10,2]{1,0} or(u32[10,2]{1,0} %shift-left.264, u32[10,2]{1,0} %shift-right-logical.268), metadata={op_type="or" op_name="jit(init)/body/or" source_file="/mnt/home/linmin/g/lib/python3.8/site-packages/haiku/_src/base.py" source_line=560}
  %xor.270 = u32[10,2]{1,0} xor(u32[10,2]{1,0} %add.262, u32[10,2]{1,0} %or.269), metadata={op_type="xor" op_name="jit(init)/body/xor" source_file="/mnt/home/linmin/g/lib/python3.8/site-packages/haiku/_src/base.py" source_line=560}
  %add.271 = u32[10,2]{1,0} add(u32[10,2]{1,0} %add.262, u32[10,2]{1,0} %xor.270), metadata={op_type="add" op_name="jit(init)/body/add" source_file="/mnt/home/linmin/g/lib/python3.8/site-packages/haiku/_src/base.py" source_line=560}
  %get-tuple-element.228 = u32[10,1]{1,0} get-tuple-element((s32[], s32[], u32[10,2]{1,0}, u32[10,2]{1,0}, u32[10,1]{1,0}, /*index=5*/u32[10,1]{1,0}, u32[10,1]{1,0}, u32[4]{0}, u32[4]{0}) %parameter.223), index=4
  %reshape.280 = u32[10]{0} reshape(u32[10,1]{1,0} %get-tuple-element.228), metadata={op_type="add" op_name="jit(init)/body/add" source_file="/mnt/home/linmin/g/lib/python3.8/site-packages/haiku/_src/base.py" source_line=560}
  %broadcast.281 = u32[10,2]{1,0} broadcast(u32[10]{0} %reshape.280), dimensions={0}, metadata={op_type="add" op_name="jit(init)/body/add" source_file="/mnt/home/linmin/g/lib/python3.8/site-packages/haiku/_src/base.py" source_line=560}
  %add.282 = u32[10,2]{1,0} add(u32[10,2]{1,0} %add.271, u32[10,2]{1,0} %broadcast.281), metadata={op_type="add" op_name="jit(init)/body/add" source_file="/mnt/home/linmin/g/lib/python3.8/site-packages/haiku/_src/base.py" source_line=560}
  %slice.242 = u32[1]{0} slice(u32[4]{0} %get-tuple-element.231), slice={[3:4]}, metadata={op_type="slice" op_name="jit(init)/body/slice[limit_indices=(4,) start_indices=(3,) strides=(1,)]" source_file="/mnt/home/linmin/g/lib/python3.8/site-packages/haiku/_src/base.py" source_line=560}
  %reshape.243 = u32[] reshape(u32[1]{0} %slice.242), metadata={op_type="squeeze" op_name="jit(init)/body/squeeze[dimensions=(0,)]" source_file="/mnt/home/linmin/g/lib/python3.8/site-packages/haiku/_src/base.py" source_line=560}
  %broadcast.272 = u32[10,2]{1,0} broadcast(u32[] %reshape.243), dimensions={}, metadata={op_type="shift_left" op_name="jit(init)/body/shift_left" source_file="/mnt/home/linmin/g/lib/python3.8/site-packages/haiku/_src/base.py" source_line=560}
  %shift-left.273 = u32[10,2]{1,0} shift-left(u32[10,2]{1,0} %xor.270, u32[10,2]{1,0} %broadcast.272), metadata={op_type="shift_left" op_name="jit(init)/body/shift_left" source_file="/mnt/home/linmin/g/lib/python3.8/site-packages/haiku/_src/base.py" source_line=560}
  %constant.274 = u32[] constant(32), metadata={op_type="sub" op_name="jit(init)/body/sub" source_file="/mnt/home/linmin/g/lib/python3.8/site-packages/haiku/_src/base.py" source_line=560}
  %subtract.275 = u32[] subtract(u32[] %constant.274, u32[] %reshape.243), metadata={op_type="sub" op_name="jit(init)/body/sub" source_file="/mnt/home/linmin/g/lib/python3.8/site-packages/haiku/_src/base.py" source_line=560}
  %broadcast.276 = u32[10,2]{1,0} broadcast(u32[] %subtract.275), dimensions={}, metadata={op_type="shift_right_logical" op_name="jit(init)/body/shift_right_logical" source_file="/mnt/home/linmin/g/lib/python3.8/site-packages/haiku/_src/base.py" source_line=560}
  %shift-right-logical.277 = u32[10,2]{1,0} shift-right-logical(u32[10,2]{1,0} %xor.270, u32[10,2]{1,0} %broadcast.276), metadata={op_type="shift_right_logical" op_name="jit(init)/body/shift_right_logical" source_file="/mnt/home/linmin/g/lib/python3.8/site-packages/haiku/_src/base.py" source_line=560}
  %or.278 = u32[10,2]{1,0} or(u32[10,2]{1,0} %shift-left.273, u32[10,2]{1,0} %shift-right-logical.277), metadata={op_type="or" op_name="jit(init)/body/or" source_file="/mnt/home/linmin/g/lib/python3.8/site-packages/haiku/_src/base.py" source_line=560}
  %xor.279 = u32[10,2]{1,0} xor(u32[10,2]{1,0} %add.271, u32[10,2]{1,0} %or.278), metadata={op_type="xor" op_name="jit(init)/body/xor" source_file="/mnt/home/linmin/g/lib/python3.8/site-packages/haiku/_src/base.py" source_line=560}
  %get-tuple-element.229 = u32[10,1]{1,0} get-tuple-element((s32[], s32[], u32[10,2]{1,0}, u32[10,2]{1,0}, u32[10,1]{1,0}, /*index=5*/u32[10,1]{1,0}, u32[10,1]{1,0}, u32[4]{0}, u32[4]{0}) %parameter.223), index=5
  %reshape.283 = u32[10]{0} reshape(u32[10,1]{1,0} %get-tuple-element.229), metadata={op_type="add" op_name="jit(init)/body/add" source_file="/mnt/home/linmin/g/lib/python3.8/site-packages/haiku/_src/base.py" source_line=560}
  %broadcast.284 = u32[10,2]{1,0} broadcast(u32[10]{0} %reshape.283), dimensions={0}, metadata={op_type="add" op_name="jit(init)/body/add" source_file="/mnt/home/linmin/g/lib/python3.8/site-packages/haiku/_src/base.py" source_line=560}
  %add.285 = u32[10,2]{1,0} add(u32[10,2]{1,0} %xor.279, u32[10,2]{1,0} %broadcast.284), metadata={op_type="add" op_name="jit(init)/body/add" source_file="/mnt/home/linmin/g/lib/python3.8/site-packages/haiku/_src/base.py" source_line=560}
  %constant.286 = s32[] constant(1), metadata={op_type="add" op_name="jit(init)/body/add" source_file="/mnt/home/linmin/g/lib/python3.8/site-packages/haiku/_src/base.py" source_line=560}
  %add.287 = s32[] add(s32[] %get-tuple-element.225, s32[] %constant.286), metadata={op_type="add" op_name="jit(init)/body/add" source_file="/mnt/home/linmin/g/lib/python3.8/site-packages/haiku/_src/base.py" source_line=560}
  %convert.288 = u32[] convert(s32[] %add.287), metadata={op_type="convert_element_type" op_name="jit(init)/body/convert_element_type[new_dtype=uint32 weak_type=False]" source_file="/mnt/home/linmin/g/lib/python3.8/site-packages/haiku/_src/base.py" source_line=560}
  %broadcast.289 = u32[10,2]{1,0} broadcast(u32[] %convert.288), dimensions={}, metadata={op_type="add" op_name="jit(init)/body/add" source_file="/mnt/home/linmin/g/lib/python3.8/site-packages/haiku/_src/base.py" source_line=560}
  %add.290 = u32[10,2]{1,0} add(u32[10,2]{1,0} %add.285, u32[10,2]{1,0} %broadcast.289), metadata={op_type="add" op_name="jit(init)/body/add" source_file="/mnt/home/linmin/g/lib/python3.8/site-packages/haiku/_src/base.py" source_line=560}
  %get-tuple-element.230 = u32[10,1]{1,0} get-tuple-element((s32[], s32[], u32[10,2]{1,0}, u32[10,2]{1,0}, u32[10,1]{1,0}, /*index=5*/u32[10,1]{1,0}, u32[10,1]{1,0}, u32[4]{0}, u32[4]{0}) %parameter.223), index=6
  %get-tuple-element.232 = u32[4]{0} get-tuple-element((s32[], s32[], u32[10,2]{1,0}, u32[10,2]{1,0}, u32[10,1]{1,0}, /*index=5*/u32[10,1]{1,0}, u32[10,1]{1,0}, u32[4]{0}, u32[4]{0}) %parameter.223), index=8
  ROOT %tuple.293 = (s32[], s32[], u32[10,2]{1,0}, u32[10,2]{1,0}, u32[10,1]{1,0}, /*index=5*/u32[10,1]{1,0}, u32[10,1]{1,0}, u32[4]{0}, u32[4]{0}) tuple(s32[] %add.292, s32[] %add.235, u32[10,2]{1,0} %add.282, u32[10,2]{1,0} %add.290, u32[10,1]{1,0} %get-tuple-element.229, /*index=5*/u32[10,1]{1,0} %get-tuple-element.230, u32[10,1]{1,0} %get-tuple-element.228, u32[4]{0} %get-tuple-element.232, u32[4]{0} %get-tuple-element.231)
}

%cond_computation__1.294 (parameter.295: (s32[], s32[], u32[10,2], u32[10,2], u32[10,1], /*index=5*/u32[10,1], u32[10,1], u32[4], u32[4])) -> pred[] {
  %parameter.295 = (s32[], s32[], u32[10,2]{1,0}, u32[10,2]{1,0}, u32[10,1]{1,0}, /*index=5*/u32[10,1]{1,0}, u32[10,1]{1,0}, u32[4]{0}, u32[4]{0}) parameter(0)
  %get-tuple-element.297 = s32[] get-tuple-element((s32[], s32[], u32[10,2]{1,0}, u32[10,2]{1,0}, u32[10,1]{1,0}, /*index=5*/u32[10,1]{1,0}, u32[10,1]{1,0}, u32[4]{0}, u32[4]{0}) %parameter.295), index=1
  %get-tuple-element.298 = u32[10,2]{1,0} get-tuple-element((s32[], s32[], u32[10,2]{1,0}, u32[10,2]{1,0}, u32[10,1]{1,0}, /*index=5*/u32[10,1]{1,0}, u32[10,1]{1,0}, u32[4]{0}, u32[4]{0}) %parameter.295), index=2
  %get-tuple-element.299 = u32[10,2]{1,0} get-tuple-element((s32[], s32[], u32[10,2]{1,0}, u32[10,2]{1,0}, u32[10,1]{1,0}, /*index=5*/u32[10,1]{1,0}, u32[10,1]{1,0}, u32[4]{0}, u32[4]{0}) %parameter.295), index=3
  %get-tuple-element.300 = u32[10,1]{1,0} get-tuple-element((s32[], s32[], u32[10,2]{1,0}, u32[10,2]{1,0}, u32[10,1]{1,0}, /*index=5*/u32[10,1]{1,0}, u32[10,1]{1,0}, u32[4]{0}, u32[4]{0}) %parameter.295), index=4
  %get-tuple-element.301 = u32[10,1]{1,0} get-tuple-element((s32[], s32[], u32[10,2]{1,0}, u32[10,2]{1,0}, u32[10,1]{1,0}, /*index=5*/u32[10,1]{1,0}, u32[10,1]{1,0}, u32[4]{0}, u32[4]{0}) %parameter.295), index=5
  %get-tuple-element.302 = u32[10,1]{1,0} get-tuple-element((s32[], s32[], u32[10,2]{1,0}, u32[10,2]{1,0}, u32[10,1]{1,0}, /*index=5*/u32[10,1]{1,0}, u32[10,1]{1,0}, u32[4]{0}, u32[4]{0}) %parameter.295), index=6
  %get-tuple-element.303 = u32[4]{0} get-tuple-element((s32[], s32[], u32[10,2]{1,0}, u32[10,2]{1,0}, u32[10,1]{1,0}, /*index=5*/u32[10,1]{1,0}, u32[10,1]{1,0}, u32[4]{0}, u32[4]{0}) %parameter.295), index=7
  %get-tuple-element.304 = u32[4]{0} get-tuple-element((s32[], s32[], u32[10,2]{1,0}, u32[10,2]{1,0}, u32[10,1]{1,0}, /*index=5*/u32[10,1]{1,0}, u32[10,1]{1,0}, u32[4]{0}, u32[4]{0}) %parameter.295), index=8
  %constant.305 = pred[] constant(false)
  %get-tuple-element.296 = s32[] get-tuple-element((s32[], s32[], u32[10,2]{1,0}, u32[10,2]{1,0}, u32[10,1]{1,0}, /*index=5*/u32[10,1]{1,0}, u32[10,1]{1,0}, u32[4]{0}, u32[4]{0}) %parameter.295), index=0
  %constant.306 = s32[] constant(5), metadata={op_type="lt" op_name="jit(init)/cond/lt" source_file="/mnt/home/linmin/g/lib/python3.8/site-packages/haiku/_src/base.py" source_line=560}
  ROOT %compare.307 = pred[] compare(s32[] %get-tuple-element.296, s32[] %constant.306), direction=LT, metadata={op_type="lt" op_name="jit(init)/cond/lt" source_file="/mnt/home/linmin/g/lib/python3.8/site-packages/haiku/_src/base.py" source_line=560}
}

%body_computation__2.356 (parameter.357: (s32[], s32[], u32[10,39200], u32[10,39200], u32[10,1], /*index=5*/u32[10,1], u32[10,1], u32[4], u32[4])) -> (s32[], s32[], u32[10,39200], u32[10,39200], u32[10,1], /*index=5*/u32[10,1], u32[10,1], u32[4], u32[4]) {
  %constant.367 = pred[] constant(false)
  %parameter.357 = (s32[], s32[], u32[10,39200]{1,0}, u32[10,39200]{1,0}, u32[10,1]{1,0}, /*index=5*/u32[10,1]{1,0}, u32[10,1]{1,0}, u32[4]{0}, u32[4]{0}) parameter(0)
  %get-tuple-element.358 = s32[] get-tuple-element((s32[], s32[], u32[10,39200]{1,0}, u32[10,39200]{1,0}, u32[10,1]{1,0}, /*index=5*/u32[10,1]{1,0}, u32[10,1]{1,0}, u32[4]{0}, u32[4]{0}) %parameter.357), index=0
  %constant.425 = s32[] constant(1), metadata={op_type="add" op_name="jit(init)/body/add" source_file="/mnt/home/linmin/g/lib/python3.8/site-packages/haiku/_src/initializers.py" source_line=82}
  %add.426 = s32[] add(s32[] %get-tuple-element.358, s32[] %constant.425), metadata={op_type="add" op_name="jit(init)/body/add" source_file="/mnt/home/linmin/g/lib/python3.8/site-packages/haiku/_src/initializers.py" source_line=82}
  %get-tuple-element.359 = s32[] get-tuple-element((s32[], s32[], u32[10,39200]{1,0}, u32[10,39200]{1,0}, u32[10,1]{1,0}, /*index=5*/u32[10,1]{1,0}, u32[10,1]{1,0}, u32[4]{0}, u32[4]{0}) %parameter.357), index=1
  %constant.368 = s32[] constant(1), metadata={op_type="add" op_name="jit(init)/body/add" source_file="/mnt/home/linmin/g/lib/python3.8/site-packages/haiku/_src/initializers.py" source_line=82}
  %add.369 = s32[] add(s32[] %get-tuple-element.359, s32[] %constant.368), metadata={op_type="add" op_name="jit(init)/body/add" source_file="/mnt/home/linmin/g/lib/python3.8/site-packages/haiku/_src/initializers.py" source_line=82}
  %get-tuple-element.360 = u32[10,39200]{1,0} get-tuple-element((s32[], s32[], u32[10,39200]{1,0}, u32[10,39200]{1,0}, u32[10,1]{1,0}, /*index=5*/u32[10,1]{1,0}, u32[10,1]{1,0}, u32[4]{0}, u32[4]{0}) %parameter.357), index=2
  %get-tuple-element.361 = u32[10,39200]{1,0} get-tuple-element((s32[], s32[], u32[10,39200]{1,0}, u32[10,39200]{1,0}, u32[10,1]{1,0}, /*index=5*/u32[10,1]{1,0}, u32[10,1]{1,0}, u32[4]{0}, u32[4]{0}) %parameter.357), index=3
  %add.378 = u32[10,39200]{1,0} add(u32[10,39200]{1,0} %get-tuple-element.360, u32[10,39200]{1,0} %get-tuple-element.361), metadata={op_type="add" op_name="jit(init)/body/add" source_file="/mnt/home/linmin/g/lib/python3.8/site-packages/haiku/_src/initializers.py" source_line=82}
  %get-tuple-element.365 = u32[4]{0} get-tuple-element((s32[], s32[], u32[10,39200]{1,0}, u32[10,39200]{1,0}, u32[10,1]{1,0}, /*index=5*/u32[10,1]{1,0}, u32[10,1]{1,0}, u32[4]{0}, u32[4]{0}) %parameter.357), index=7
  %slice.370 = u32[1]{0} slice(u32[4]{0} %get-tuple-element.365), slice={[0:1]}, metadata={op_type="slice" op_name="jit(init)/body/slice[limit_indices=(1,) start_indices=(0,) strides=(1,)]" source_file="/mnt/home/linmin/g/lib/python3.8/site-packages/haiku/_src/initializers.py" source_line=82}
  %reshape.371 = u32[] reshape(u32[1]{0} %slice.370), metadata={op_type="squeeze" op_name="jit(init)/body/squeeze[dimensions=(0,)]" source_file="/mnt/home/linmin/g/lib/python3.8/site-packages/haiku/_src/initializers.py" source_line=82}
  %broadcast.379 = u32[10,39200]{1,0} broadcast(u32[] %reshape.371), dimensions={}, metadata={op_type="shift_left" op_name="jit(init)/body/shift_left" source_file="/mnt/home/linmin/g/lib/python3.8/site-packages/haiku/_src/initializers.py" source_line=82}
  %shift-left.380 = u32[10,39200]{1,0} shift-left(u32[10,39200]{1,0} %get-tuple-element.361, u32[10,39200]{1,0} %broadcast.379), metadata={op_type="shift_left" op_name="jit(init)/body/shift_left" source_file="/mnt/home/linmin/g/lib/python3.8/site-packages/haiku/_src/initializers.py" source_line=82}
  %constant.381 = u32[] constant(32), metadata={op_type="sub" op_name="jit(init)/body/sub" source_file="/mnt/home/linmin/g/lib/python3.8/site-packages/haiku/_src/initializers.py" source_line=82}
  %subtract.382 = u32[] subtract(u32[] %constant.381, u32[] %reshape.371), metadata={op_type="sub" op_name="jit(init)/body/sub" source_file="/mnt/home/linmin/g/lib/python3.8/site-packages/haiku/_src/initializers.py" source_line=82}
  %broadcast.383 = u32[10,39200]{1,0} broadcast(u32[] %subtract.382), dimensions={}, metadata={op_type="shift_right_logical" op_name="jit(init)/body/shift_right_logical" source_file="/mnt/home/linmin/g/lib/python3.8/site-packages/haiku/_src/initializers.py" source_line=82}
  %shift-right-logical.384 = u32[10,39200]{1,0} shift-right-logical(u32[10,39200]{1,0} %get-tuple-element.361, u32[10,39200]{1,0} %broadcast.383), metadata={op_type="shift_right_logical" op_name="jit(init)/body/shift_right_logical" source_file="/mnt/home/linmin/g/lib/python3.8/site-packages/haiku/_src/initializers.py" source_line=82}
  %or.385 = u32[10,39200]{1,0} or(u32[10,39200]{1,0} %shift-left.380, u32[10,39200]{1,0} %shift-right-logical.384), metadata={op_type="or" op_name="jit(init)/body/or" source_file="/mnt/home/linmin/g/lib/python3.8/site-packages/haiku/_src/initializers.py" source_line=82}
  %xor.386 = u32[10,39200]{1,0} xor(u32[10,39200]{1,0} %add.378, u32[10,39200]{1,0} %or.385), metadata={op_type="xor" op_name="jit(init)/body/xor" source_file="/mnt/home/linmin/g/lib/python3.8/site-packages/haiku/_src/initializers.py" source_line=82}
  %add.387 = u32[10,39200]{1,0} add(u32[10,39200]{1,0} %add.378, u32[10,39200]{1,0} %xor.386), metadata={op_type="add" op_name="jit(init)/body/add" source_file="/mnt/home/linmin/g/lib/python3.8/site-packages/haiku/_src/initializers.py" source_line=82}
  %slice.372 = u32[1]{0} slice(u32[4]{0} %get-tuple-element.365), slice={[1:2]}, metadata={op_type="slice" op_name="jit(init)/body/slice[limit_indices=(2,) start_indices=(1,) strides=(1,)]" source_file="/mnt/home/linmin/g/lib/python3.8/site-packages/haiku/_src/initializers.py" source_line=82}
  %reshape.373 = u32[] reshape(u32[1]{0} %slice.372), metadata={op_type="squeeze" op_name="jit(init)/body/squeeze[dimensions=(0,)]" source_file="/mnt/home/linmin/g/lib/python3.8/site-packages/haiku/_src/initializers.py" source_line=82}
  %broadcast.388 = u32[10,39200]{1,0} broadcast(u32[] %reshape.373), dimensions={}, metadata={op_type="shift_left" op_name="jit(init)/body/shift_left" source_file="/mnt/home/linmin/g/lib/python3.8/site-packages/haiku/_src/initializers.py" source_line=82}
  %shift-left.389 = u32[10,39200]{1,0} shift-left(u32[10,39200]{1,0} %xor.386, u32[10,39200]{1,0} %broadcast.388), metadata={op_type="shift_left" op_name="jit(init)/body/shift_left" source_file="/mnt/home/linmin/g/lib/python3.8/site-packages/haiku/_src/initializers.py" source_line=82}
  %constant.390 = u32[] constant(32), metadata={op_type="sub" op_name="jit(init)/body/sub" source_file="/mnt/home/linmin/g/lib/python3.8/site-packages/haiku/_src/initializers.py" source_line=82}
  %subtract.391 = u32[] subtract(u32[] %constant.390, u32[] %reshape.373), metadata={op_type="sub" op_name="jit(init)/body/sub" source_file="/mnt/home/linmin/g/lib/python3.8/site-packages/haiku/_src/initializers.py" source_line=82}
  %broadcast.392 = u32[10,39200]{1,0} broadcast(u32[] %subtract.391), dimensions={}, metadata={op_type="shift_right_logical" op_name="jit(init)/body/shift_right_logical" source_file="/mnt/home/linmin/g/lib/python3.8/site-packages/haiku/_src/initializers.py" source_line=82}
  %shift-right-logical.393 = u32[10,39200]{1,0} shift-right-logical(u32[10,39200]{1,0} %xor.386, u32[10,39200]{1,0} %broadcast.392), metadata={op_type="shift_right_logical" op_name="jit(init)/body/shift_right_logical" source_file="/mnt/home/linmin/g/lib/python3.8/site-packages/haiku/_src/initializers.py" source_line=82}
  %or.394 = u32[10,39200]{1,0} or(u32[10,39200]{1,0} %shift-left.389, u32[10,39200]{1,0} %shift-right-logical.393), metadata={op_type="or" op_name="jit(init)/body/or" source_file="/mnt/home/linmin/g/lib/python3.8/site-packages/haiku/_src/initializers.py" source_line=82}
  %xor.395 = u32[10,39200]{1,0} xor(u32[10,39200]{1,0} %add.387, u32[10,39200]{1,0} %or.394), metadata={op_type="xor" op_name="jit(init)/body/xor" source_file="/mnt/home/linmin/g/lib/python3.8/site-packages/haiku/_src/initializers.py" source_line=82}
  %add.396 = u32[10,39200]{1,0} add(u32[10,39200]{1,0} %add.387, u32[10,39200]{1,0} %xor.395), metadata={op_type="add" op_name="jit(init)/body/add" source_file="/mnt/home/linmin/g/lib/python3.8/site-packages/haiku/_src/initializers.py" source_line=82}
  %slice.374 = u32[1]{0} slice(u32[4]{0} %get-tuple-element.365), slice={[2:3]}, metadata={op_type="slice" op_name="jit(init)/body/slice[limit_indices=(3,) start_indices=(2,) strides=(1,)]" source_file="/mnt/home/linmin/g/lib/python3.8/site-packages/haiku/_src/initializers.py" source_line=82}
  %reshape.375 = u32[] reshape(u32[1]{0} %slice.374), metadata={op_type="squeeze" op_name="jit(init)/body/squeeze[dimensions=(0,)]" source_file="/mnt/home/linmin/g/lib/python3.8/site-packages/haiku/_src/initializers.py" source_line=82}
  %broadcast.397 = u32[10,39200]{1,0} broadcast(u32[] %reshape.375), dimensions={}, metadata={op_type="shift_left" op_name="jit(init)/body/shift_left" source_file="/mnt/home/linmin/g/lib/python3.8/site-packages/haiku/_src/initializers.py" source_line=82}
  %shift-left.398 = u32[10,39200]{1,0} shift-left(u32[10,39200]{1,0} %xor.395, u32[10,39200]{1,0} %broadcast.397), metadata={op_type="shift_left" op_name="jit(init)/body/shift_left" source_file="/mnt/home/linmin/g/lib/python3.8/site-packages/haiku/_src/initializers.py" source_line=82}
  %constant.399 = u32[] constant(32), metadata={op_type="sub" op_name="jit(init)/body/sub" source_file="/mnt/home/linmin/g/lib/python3.8/site-packages/haiku/_src/initializers.py" source_line=82}
  %subtract.400 = u32[] subtract(u32[] %constant.399, u32[] %reshape.375), metadata={op_type="sub" op_name="jit(init)/body/sub" source_file="/mnt/home/linmin/g/lib/python3.8/site-packages/haiku/_src/initializers.py" source_line=82}
  %broadcast.401 = u32[10,39200]{1,0} broadcast(u32[] %subtract.400), dimensions={}, metadata={op_type="shift_right_logical" op_name="jit(init)/body/shift_right_logical" source_file="/mnt/home/linmin/g/lib/python3.8/site-packages/haiku/_src/initializers.py" source_line=82}
  %shift-right-logical.402 = u32[10,39200]{1,0} shift-right-logical(u32[10,39200]{1,0} %xor.395, u32[10,39200]{1,0} %broadcast.401), metadata={op_type="shift_right_logical" op_name="jit(init)/body/shift_right_logical" source_file="/mnt/home/linmin/g/lib/python3.8/site-packages/haiku/_src/initializers.py" source_line=82}
  %or.403 = u32[10,39200]{1,0} or(u32[10,39200]{1,0} %shift-left.398, u32[10,39200]{1,0} %shift-right-logical.402), metadata={op_type="or" op_name="jit(init)/body/or" source_file="/mnt/home/linmin/g/lib/python3.8/site-packages/haiku/_src/initializers.py" source_line=82}
  %xor.404 = u32[10,39200]{1,0} xor(u32[10,39200]{1,0} %add.396, u32[10,39200]{1,0} %or.403), metadata={op_type="xor" op_name="jit(init)/body/xor" source_file="/mnt/home/linmin/g/lib/python3.8/site-packages/haiku/_src/initializers.py" source_line=82}
  %add.405 = u32[10,39200]{1,0} add(u32[10,39200]{1,0} %add.396, u32[10,39200]{1,0} %xor.404), metadata={op_type="add" op_name="jit(init)/body/add" source_file="/mnt/home/linmin/g/lib/python3.8/site-packages/haiku/_src/initializers.py" source_line=82}
  %get-tuple-element.362 = u32[10,1]{1,0} get-tuple-element((s32[], s32[], u32[10,39200]{1,0}, u32[10,39200]{1,0}, u32[10,1]{1,0}, /*index=5*/u32[10,1]{1,0}, u32[10,1]{1,0}, u32[4]{0}, u32[4]{0}) %parameter.357), index=4
  %reshape.414 = u32[10]{0} reshape(u32[10,1]{1,0} %get-tuple-element.362), metadata={op_type="add" op_name="jit(init)/body/add" source_file="/mnt/home/linmin/g/lib/python3.8/site-packages/haiku/_src/initializers.py" source_line=82}
  %broadcast.415 = u32[10,39200]{1,0} broadcast(u32[10]{0} %reshape.414), dimensions={0}, metadata={op_type="add" op_name="jit(init)/body/add" source_file="/mnt/home/linmin/g/lib/python3.8/site-packages/haiku/_src/initializers.py" source_line=82}
  %add.416 = u32[10,39200]{1,0} add(u32[10,39200]{1,0} %add.405, u32[10,39200]{1,0} %broadcast.415), metadata={op_type="add" op_name="jit(init)/body/add" source_file="/mnt/home/linmin/g/lib/python3.8/site-packages/haiku/_src/initializers.py" source_line=82}
  %slice.376 = u32[1]{0} slice(u32[4]{0} %get-tuple-element.365), slice={[3:4]}, metadata={op_type="slice" op_name="jit(init)/body/slice[limit_indices=(4,) start_indices=(3,) strides=(1,)]" source_file="/mnt/home/linmin/g/lib/python3.8/site-packages/haiku/_src/initializers.py" source_line=82}
  %reshape.377 = u32[] reshape(u32[1]{0} %slice.376), metadata={op_type="squeeze" op_name="jit(init)/body/squeeze[dimensions=(0,)]" source_file="/mnt/home/linmin/g/lib/python3.8/site-packages/haiku/_src/initializers.py" source_line=82}
  %broadcast.406 = u32[10,39200]{1,0} broadcast(u32[] %reshape.377), dimensions={}, metadata={op_type="shift_left" op_name="jit(init)/body/shift_left" source_file="/mnt/home/linmin/g/lib/python3.8/site-packages/haiku/_src/initializers.py" source_line=82}
  %shift-left.407 = u32[10,39200]{1,0} shift-left(u32[10,39200]{1,0} %xor.404, u32[10,39200]{1,0} %broadcast.406), metadata={op_type="shift_left" op_name="jit(init)/body/shift_left" source_file="/mnt/home/linmin/g/lib/python3.8/site-packages/haiku/_src/initializers.py" source_line=82}
  %constant.408 = u32[] constant(32), metadata={op_type="sub" op_name="jit(init)/body/sub" source_file="/mnt/home/linmin/g/lib/python3.8/site-packages/haiku/_src/initializers.py" source_line=82}
  %subtract.409 = u32[] subtract(u32[] %constant.408, u32[] %reshape.377), metadata={op_type="sub" op_name="jit(init)/body/sub" source_file="/mnt/home/linmin/g/lib/python3.8/site-packages/haiku/_src/initializers.py" source_line=82}
  %broadcast.410 = u32[10,39200]{1,0} broadcast(u32[] %subtract.409), dimensions={}, metadata={op_type="shift_right_logical" op_name="jit(init)/body/shift_right_logical" source_file="/mnt/home/linmin/g/lib/python3.8/site-packages/haiku/_src/initializers.py" source_line=82}
  %shift-right-logical.411 = u32[10,39200]{1,0} shift-right-logical(u32[10,39200]{1,0} %xor.404, u32[10,39200]{1,0} %broadcast.410), metadata={op_type="shift_right_logical" op_name="jit(init)/body/shift_right_logical" source_file="/mnt/home/linmin/g/lib/python3.8/site-packages/haiku/_src/initializers.py" source_line=82}
  %or.412 = u32[10,39200]{1,0} or(u32[10,39200]{1,0} %shift-left.407, u32[10,39200]{1,0} %shift-right-logical.411), metadata={op_type="or" op_name="jit(init)/body/or" source_file="/mnt/home/linmin/g/lib/python3.8/site-packages/haiku/_src/initializers.py" source_line=82}
  %xor.413 = u32[10,39200]{1,0} xor(u32[10,39200]{1,0} %add.405, u32[10,39200]{1,0} %or.412), metadata={op_type="xor" op_name="jit(init)/body/xor" source_file="/mnt/home/linmin/g/lib/python3.8/site-packages/haiku/_src/initializers.py" source_line=82}
  %get-tuple-element.363 = u32[10,1]{1,0} get-tuple-element((s32[], s32[], u32[10,39200]{1,0}, u32[10,39200]{1,0}, u32[10,1]{1,0}, /*index=5*/u32[10,1]{1,0}, u32[10,1]{1,0}, u32[4]{0}, u32[4]{0}) %parameter.357), index=5
  %reshape.417 = u32[10]{0} reshape(u32[10,1]{1,0} %get-tuple-element.363), metadata={op_type="add" op_name="jit(init)/body/add" source_file="/mnt/home/linmin/g/lib/python3.8/site-packages/haiku/_src/initializers.py" source_line=82}
  %broadcast.418 = u32[10,39200]{1,0} broadcast(u32[10]{0} %reshape.417), dimensions={0}, metadata={op_type="add" op_name="jit(init)/body/add" source_file="/mnt/home/linmin/g/lib/python3.8/site-packages/haiku/_src/initializers.py" source_line=82}
  %add.419 = u32[10,39200]{1,0} add(u32[10,39200]{1,0} %xor.413, u32[10,39200]{1,0} %broadcast.418), metadata={op_type="add" op_name="jit(init)/body/add" source_file="/mnt/home/linmin/g/lib/python3.8/site-packages/haiku/_src/initializers.py" source_line=82}
  %constant.420 = s32[] constant(1), metadata={op_type="add" op_name="jit(init)/body/add" source_file="/mnt/home/linmin/g/lib/python3.8/site-packages/haiku/_src/initializers.py" source_line=82}
  %add.421 = s32[] add(s32[] %get-tuple-element.359, s32[] %constant.420), metadata={op_type="add" op_name="jit(init)/body/add" source_file="/mnt/home/linmin/g/lib/python3.8/site-packages/haiku/_src/initializers.py" source_line=82}
  %convert.422 = u32[] convert(s32[] %add.421), metadata={op_type="convert_element_type" op_name="jit(init)/body/convert_element_type[new_dtype=uint32 weak_type=False]" source_file="/mnt/home/linmin/g/lib/python3.8/site-packages/haiku/_src/initializers.py" source_line=82}
  %broadcast.423 = u32[10,39200]{1,0} broadcast(u32[] %convert.422), dimensions={}, metadata={op_type="add" op_name="jit(init)/body/add" source_file="/mnt/home/linmin/g/lib/python3.8/site-packages/haiku/_src/initializers.py" source_line=82}
  %add.424 = u32[10,39200]{1,0} add(u32[10,39200]{1,0} %add.419, u32[10,39200]{1,0} %broadcast.423), metadata={op_type="add" op_name="jit(init)/body/add" source_file="/mnt/home/linmin/g/lib/python3.8/site-packages/haiku/_src/initializers.py" source_line=82}
  %get-tuple-element.364 = u32[10,1]{1,0} get-tuple-element((s32[], s32[], u32[10,39200]{1,0}, u32[10,39200]{1,0}, u32[10,1]{1,0}, /*index=5*/u32[10,1]{1,0}, u32[10,1]{1,0}, u32[4]{0}, u32[4]{0}) %parameter.357), index=6
  %get-tuple-element.366 = u32[4]{0} get-tuple-element((s32[], s32[], u32[10,39200]{1,0}, u32[10,39200]{1,0}, u32[10,1]{1,0}, /*index=5*/u32[10,1]{1,0}, u32[10,1]{1,0}, u32[4]{0}, u32[4]{0}) %parameter.357), index=8
  ROOT %tuple.427 = (s32[], s32[], u32[10,39200]{1,0}, u32[10,39200]{1,0}, u32[10,1]{1,0}, /*index=5*/u32[10,1]{1,0}, u32[10,1]{1,0}, u32[4]{0}, u32[4]{0}) tuple(s32[] %add.426, s32[] %add.369, u32[10,39200]{1,0} %add.416, u32[10,39200]{1,0} %add.424, u32[10,1]{1,0} %get-tuple-element.363, /*index=5*/u32[10,1]{1,0} %get-tuple-element.364, u32[10,1]{1,0} %get-tuple-element.362, u32[4]{0} %get-tuple-element.366, u32[4]{0} %get-tuple-element.365)
}

%cond_computation__2.428 (parameter.429: (s32[], s32[], u32[10,39200], u32[10,39200], u32[10,1], /*index=5*/u32[10,1], u32[10,1], u32[4], u32[4])) -> pred[] {
  %parameter.429 = (s32[], s32[], u32[10,39200]{1,0}, u32[10,39200]{1,0}, u32[10,1]{1,0}, /*index=5*/u32[10,1]{1,0}, u32[10,1]{1,0}, u32[4]{0}, u32[4]{0}) parameter(0)
  %get-tuple-element.431 = s32[] get-tuple-element((s32[], s32[], u32[10,39200]{1,0}, u32[10,39200]{1,0}, u32[10,1]{1,0}, /*index=5*/u32[10,1]{1,0}, u32[10,1]{1,0}, u32[4]{0}, u32[4]{0}) %parameter.429), index=1
  %get-tuple-element.432 = u32[10,39200]{1,0} get-tuple-element((s32[], s32[], u32[10,39200]{1,0}, u32[10,39200]{1,0}, u32[10,1]{1,0}, /*index=5*/u32[10,1]{1,0}, u32[10,1]{1,0}, u32[4]{0}, u32[4]{0}) %parameter.429), index=2
  %get-tuple-element.433 = u32[10,39200]{1,0} get-tuple-element((s32[], s32[], u32[10,39200]{1,0}, u32[10,39200]{1,0}, u32[10,1]{1,0}, /*index=5*/u32[10,1]{1,0}, u32[10,1]{1,0}, u32[4]{0}, u32[4]{0}) %parameter.429), index=3
  %get-tuple-element.434 = u32[10,1]{1,0} get-tuple-element((s32[], s32[], u32[10,39200]{1,0}, u32[10,39200]{1,0}, u32[10,1]{1,0}, /*index=5*/u32[10,1]{1,0}, u32[10,1]{1,0}, u32[4]{0}, u32[4]{0}) %parameter.429), index=4
  %get-tuple-element.435 = u32[10,1]{1,0} get-tuple-element((s32[], s32[], u32[10,39200]{1,0}, u32[10,39200]{1,0}, u32[10,1]{1,0}, /*index=5*/u32[10,1]{1,0}, u32[10,1]{1,0}, u32[4]{0}, u32[4]{0}) %parameter.429), index=5
  %get-tuple-element.436 = u32[10,1]{1,0} get-tuple-element((s32[], s32[], u32[10,39200]{1,0}, u32[10,39200]{1,0}, u32[10,1]{1,0}, /*index=5*/u32[10,1]{1,0}, u32[10,1]{1,0}, u32[4]{0}, u32[4]{0}) %parameter.429), index=6
  %get-tuple-element.437 = u32[4]{0} get-tuple-element((s32[], s32[], u32[10,39200]{1,0}, u32[10,39200]{1,0}, u32[10,1]{1,0}, /*index=5*/u32[10,1]{1,0}, u32[10,1]{1,0}, u32[4]{0}, u32[4]{0}) %parameter.429), index=7
  %get-tuple-element.438 = u32[4]{0} get-tuple-element((s32[], s32[], u32[10,39200]{1,0}, u32[10,39200]{1,0}, u32[10,1]{1,0}, /*index=5*/u32[10,1]{1,0}, u32[10,1]{1,0}, u32[4]{0}, u32[4]{0}) %parameter.429), index=8
  %constant.439 = pred[] constant(false)
  %get-tuple-element.430 = s32[] get-tuple-element((s32[], s32[], u32[10,39200]{1,0}, u32[10,39200]{1,0}, u32[10,1]{1,0}, /*index=5*/u32[10,1]{1,0}, u32[10,1]{1,0}, u32[4]{0}, u32[4]{0}) %parameter.429), index=0
  %constant.440 = s32[] constant(5), metadata={op_type="lt" op_name="jit(init)/cond/lt" source_file="/mnt/home/linmin/g/lib/python3.8/site-packages/haiku/_src/initializers.py" source_line=82}
  ROOT %compare.441 = pred[] compare(s32[] %get-tuple-element.430, s32[] %constant.440), direction=LT, metadata={op_type="lt" op_name="jit(init)/cond/lt" source_file="/mnt/home/linmin/g/lib/python3.8/site-packages/haiku/_src/initializers.py" source_line=82}
}

%primitive_computation_add.573 (parameter.574: f32[], parameter.575: f32[]) -> f32[] {
  %constant.576 = pred[] constant(false)
  %parameter.574 = f32[] parameter(0)
  %parameter.575 = f32[] parameter(1)
  ROOT %add.577 = f32[] add(f32[] %parameter.574, f32[] %parameter.575), metadata={op_type="add" op_name="add" source_file="/mnt/home/linmin/projects/deepmind-research/gated_linear_networks/base.py" source_line=39}
}

%body_computation__3.613 (parameter.614: (s32[], s32[], u32[10,2], u32[10,2], u32[10,1], /*index=5*/u32[10,1], u32[10,1], u32[4], u32[4])) -> (s32[], s32[], u32[10,2], u32[10,2], u32[10,1], /*index=5*/u32[10,1], u32[10,1], u32[4], u32[4]) {
  %constant.624 = pred[] constant(false)
  %parameter.614 = (s32[], s32[], u32[10,2]{1,0}, u32[10,2]{1,0}, u32[10,1]{1,0}, /*index=5*/u32[10,1]{1,0}, u32[10,1]{1,0}, u32[4]{0}, u32[4]{0}) parameter(0)
  %get-tuple-element.615 = s32[] get-tuple-element((s32[], s32[], u32[10,2]{1,0}, u32[10,2]{1,0}, u32[10,1]{1,0}, /*index=5*/u32[10,1]{1,0}, u32[10,1]{1,0}, u32[4]{0}, u32[4]{0}) %parameter.614), index=0
  %constant.682 = s32[] constant(1), metadata={op_type="add" op_name="jit(init)/body/add" source_file="/mnt/home/linmin/g/lib/python3.8/site-packages/haiku/_src/base.py" source_line=560}
  %add.683 = s32[] add(s32[] %get-tuple-element.615, s32[] %constant.682), metadata={op_type="add" op_name="jit(init)/body/add" source_file="/mnt/home/linmin/g/lib/python3.8/site-packages/haiku/_src/base.py" source_line=560}
  %get-tuple-element.616 = s32[] get-tuple-element((s32[], s32[], u32[10,2]{1,0}, u32[10,2]{1,0}, u32[10,1]{1,0}, /*index=5*/u32[10,1]{1,0}, u32[10,1]{1,0}, u32[4]{0}, u32[4]{0}) %parameter.614), index=1
  %constant.625 = s32[] constant(1), metadata={op_type="add" op_name="jit(init)/body/add" source_file="/mnt/home/linmin/g/lib/python3.8/site-packages/haiku/_src/base.py" source_line=560}
  %add.626 = s32[] add(s32[] %get-tuple-element.616, s32[] %constant.625), metadata={op_type="add" op_name="jit(init)/body/add" source_file="/mnt/home/linmin/g/lib/python3.8/site-packages/haiku/_src/base.py" source_line=560}
  %get-tuple-element.617 = u32[10,2]{1,0} get-tuple-element((s32[], s32[], u32[10,2]{1,0}, u32[10,2]{1,0}, u32[10,1]{1,0}, /*index=5*/u32[10,1]{1,0}, u32[10,1]{1,0}, u32[4]{0}, u32[4]{0}) %parameter.614), index=2
  %get-tuple-element.618 = u32[10,2]{1,0} get-tuple-element((s32[], s32[], u32[10,2]{1,0}, u32[10,2]{1,0}, u32[10,1]{1,0}, /*index=5*/u32[10,1]{1,0}, u32[10,1]{1,0}, u32[4]{0}, u32[4]{0}) %parameter.614), index=3
  %add.635 = u32[10,2]{1,0} add(u32[10,2]{1,0} %get-tuple-element.617, u32[10,2]{1,0} %get-tuple-element.618), metadata={op_type="add" op_name="jit(init)/body/add" source_file="/mnt/home/linmin/g/lib/python3.8/site-packages/haiku/_src/base.py" source_line=560}
  %get-tuple-element.622 = u32[4]{0} get-tuple-element((s32[], s32[], u32[10,2]{1,0}, u32[10,2]{1,0}, u32[10,1]{1,0}, /*index=5*/u32[10,1]{1,0}, u32[10,1]{1,0}, u32[4]{0}, u32[4]{0}) %parameter.614), index=7
  %slice.627 = u32[1]{0} slice(u32[4]{0} %get-tuple-element.622), slice={[0:1]}, metadata={op_type="slice" op_name="jit(init)/body/slice[limit_indices=(1,) start_indices=(0,) strides=(1,)]" source_file="/mnt/home/linmin/g/lib/python3.8/site-packages/haiku/_src/base.py" source_line=560}
  %reshape.628 = u32[] reshape(u32[1]{0} %slice.627), metadata={op_type="squeeze" op_name="jit(init)/body/squeeze[dimensions=(0,)]" source_file="/mnt/home/linmin/g/lib/python3.8/site-packages/haiku/_src/base.py" source_line=560}
  %broadcast.636 = u32[10,2]{1,0} broadcast(u32[] %reshape.628), dimensions={}, metadata={op_type="shift_left" op_name="jit(init)/body/shift_left" source_file="/mnt/home/linmin/g/lib/python3.8/site-packages/haiku/_src/base.py" source_line=560}
  %shift-left.637 = u32[10,2]{1,0} shift-left(u32[10,2]{1,0} %get-tuple-element.618, u32[10,2]{1,0} %broadcast.636), metadata={op_type="shift_left" op_name="jit(init)/body/shift_left" source_file="/mnt/home/linmin/g/lib/python3.8/site-packages/haiku/_src/base.py" source_line=560}
  %constant.638 = u32[] constant(32), metadata={op_type="sub" op_name="jit(init)/body/sub" source_file="/mnt/home/linmin/g/lib/python3.8/site-packages/haiku/_src/base.py" source_line=560}
  %subtract.639 = u32[] subtract(u32[] %constant.638, u32[] %reshape.628), metadata={op_type="sub" op_name="jit(init)/body/sub" source_file="/mnt/home/linmin/g/lib/python3.8/site-packages/haiku/_src/base.py" source_line=560}
  %broadcast.640 = u32[10,2]{1,0} broadcast(u32[] %subtract.639), dimensions={}, metadata={op_type="shift_right_logical" op_name="jit(init)/body/shift_right_logical" source_file="/mnt/home/linmin/g/lib/python3.8/site-packages/haiku/_src/base.py" source_line=560}
  %shift-right-logical.641 = u32[10,2]{1,0} shift-right-logical(u32[10,2]{1,0} %get-tuple-element.618, u32[10,2]{1,0} %broadcast.640), metadata={op_type="shift_right_logical" op_name="jit(init)/body/shift_right_logical" source_file="/mnt/home/linmin/g/lib/python3.8/site-packages/haiku/_src/base.py" source_line=560}
  %or.642 = u32[10,2]{1,0} or(u32[10,2]{1,0} %shift-left.637, u32[10,2]{1,0} %shift-right-logical.641), metadata={op_type="or" op_name="jit(init)/body/or" source_file="/mnt/home/linmin/g/lib/python3.8/site-packages/haiku/_src/base.py" source_line=560}
  %xor.643 = u32[10,2]{1,0} xor(u32[10,2]{1,0} %add.635, u32[10,2]{1,0} %or.642), metadata={op_type="xor" op_name="jit(init)/body/xor" source_file="/mnt/home/linmin/g/lib/python3.8/site-packages/haiku/_src/base.py" source_line=560}
  %add.644 = u32[10,2]{1,0} add(u32[10,2]{1,0} %add.635, u32[10,2]{1,0} %xor.643), metadata={op_type="add" op_name="jit(init)/body/add" source_file="/mnt/home/linmin/g/lib/python3.8/site-packages/haiku/_src/base.py" source_line=560}
  %slice.629 = u32[1]{0} slice(u32[4]{0} %get-tuple-element.622), slice={[1:2]}, metadata={op_type="slice" op_name="jit(init)/body/slice[limit_indices=(2,) start_indices=(1,) strides=(1,)]" source_file="/mnt/home/linmin/g/lib/python3.8/site-packages/haiku/_src/base.py" source_line=560}
  %reshape.630 = u32[] reshape(u32[1]{0} %slice.629), metadata={op_type="squeeze" op_name="jit(init)/body/squeeze[dimensions=(0,)]" source_file="/mnt/home/linmin/g/lib/python3.8/site-packages/haiku/_src/base.py" source_line=560}
  %broadcast.645 = u32[10,2]{1,0} broadcast(u32[] %reshape.630), dimensions={}, metadata={op_type="shift_left" op_name="jit(init)/body/shift_left" source_file="/mnt/home/linmin/g/lib/python3.8/site-packages/haiku/_src/base.py" source_line=560}
  %shift-left.646 = u32[10,2]{1,0} shift-left(u32[10,2]{1,0} %xor.643, u32[10,2]{1,0} %broadcast.645), metadata={op_type="shift_left" op_name="jit(init)/body/shift_left" source_file="/mnt/home/linmin/g/lib/python3.8/site-packages/haiku/_src/base.py" source_line=560}
  %constant.647 = u32[] constant(32), metadata={op_type="sub" op_name="jit(init)/body/sub" source_file="/mnt/home/linmin/g/lib/python3.8/site-packages/haiku/_src/base.py" source_line=560}
  %subtract.648 = u32[] subtract(u32[] %constant.647, u32[] %reshape.630), metadata={op_type="sub" op_name="jit(init)/body/sub" source_file="/mnt/home/linmin/g/lib/python3.8/site-packages/haiku/_src/base.py" source_line=560}
  %broadcast.649 = u32[10,2]{1,0} broadcast(u32[] %subtract.648), dimensions={}, metadata={op_type="shift_right_logical" op_name="jit(init)/body/shift_right_logical" source_file="/mnt/home/linmin/g/lib/python3.8/site-packages/haiku/_src/base.py" source_line=560}
  %shift-right-logical.650 = u32[10,2]{1,0} shift-right-logical(u32[10,2]{1,0} %xor.643, u32[10,2]{1,0} %broadcast.649), metadata={op_type="shift_right_logical" op_name="jit(init)/body/shift_right_logical" source_file="/mnt/home/linmin/g/lib/python3.8/site-packages/haiku/_src/base.py" source_line=560}
  %or.651 = u32[10,2]{1,0} or(u32[10,2]{1,0} %shift-left.646, u32[10,2]{1,0} %shift-right-logical.650), metadata={op_type="or" op_name="jit(init)/body/or" source_file="/mnt/home/linmin/g/lib/python3.8/site-packages/haiku/_src/base.py" source_line=560}
  %xor.652 = u32[10,2]{1,0} xor(u32[10,2]{1,0} %add.644, u32[10,2]{1,0} %or.651), metadata={op_type="xor" op_name="jit(init)/body/xor" source_file="/mnt/home/linmin/g/lib/python3.8/site-packages/haiku/_src/base.py" source_line=560}
  %add.653 = u32[10,2]{1,0} add(u32[10,2]{1,0} %add.644, u32[10,2]{1,0} %xor.652), metadata={op_type="add" op_name="jit(init)/body/add" source_file="/mnt/home/linmin/g/lib/python3.8/site-packages/haiku/_src/base.py" source_line=560}
  %slice.631 = u32[1]{0} slice(u32[4]{0} %get-tuple-element.622), slice={[2:3]}, metadata={op_type="slice" op_name="jit(init)/body/slice[limit_indices=(3,) start_indices=(2,) strides=(1,)]" source_file="/mnt/home/linmin/g/lib/python3.8/site-packages/haiku/_src/base.py" source_line=560}
  %reshape.632 = u32[] reshape(u32[1]{0} %slice.631), metadata={op_type="squeeze" op_name="jit(init)/body/squeeze[dimensions=(0,)]" source_file="/mnt/home/linmin/g/lib/python3.8/site-packages/haiku/_src/base.py" source_line=560}
  %broadcast.654 = u32[10,2]{1,0} broadcast(u32[] %reshape.632), dimensions={}, metadata={op_type="shift_left" op_name="jit(init)/body/shift_left" source_file="/mnt/home/linmin/g/lib/python3.8/site-packages/haiku/_src/base.py" source_line=560}
  %shift-left.655 = u32[10,2]{1,0} shift-left(u32[10,2]{1,0} %xor.652, u32[10,2]{1,0} %broadcast.654), metadata={op_type="shift_left" op_name="jit(init)/body/shift_left" source_file="/mnt/home/linmin/g/lib/python3.8/site-packages/haiku/_src/base.py" source_line=560}
  %constant.656 = u32[] constant(32), metadata={op_type="sub" op_name="jit(init)/body/sub" source_file="/mnt/home/linmin/g/lib/python3.8/site-packages/haiku/_src/base.py" source_line=560}
  %subtract.657 = u32[] subtract(u32[] %constant.656, u32[] %reshape.632), metadata={op_type="sub" op_name="jit(init)/body/sub" source_file="/mnt/home/linmin/g/lib/python3.8/site-packages/haiku/_src/base.py" source_line=560}
  %broadcast.658 = u32[10,2]{1,0} broadcast(u32[] %subtract.657), dimensions={}, metadata={op_type="shift_right_logical" op_name="jit(init)/body/shift_right_logical" source_file="/mnt/home/linmin/g/lib/python3.8/site-packages/haiku/_src/base.py" source_line=560}
  %shift-right-logical.659 = u32[10,2]{1,0} shift-right-logical(u32[10,2]{1,0} %xor.652, u32[10,2]{1,0} %broadcast.658), metadata={op_type="shift_right_logical" op_name="jit(init)/body/shift_right_logical" source_file="/mnt/home/linmin/g/lib/python3.8/site-packages/haiku/_src/base.py" source_line=560}
  %or.660 = u32[10,2]{1,0} or(u32[10,2]{1,0} %shift-left.655, u32[10,2]{1,0} %shift-right-logical.659), metadata={op_type="or" op_name="jit(init)/body/or" source_file="/mnt/home/linmin/g/lib/python3.8/site-packages/haiku/_src/base.py" source_line=560}
  %xor.661 = u32[10,2]{1,0} xor(u32[10,2]{1,0} %add.653, u32[10,2]{1,0} %or.660), metadata={op_type="xor" op_name="jit(init)/body/xor" source_file="/mnt/home/linmin/g/lib/python3.8/site-packages/haiku/_src/base.py" source_line=560}
  %add.662 = u32[10,2]{1,0} add(u32[10,2]{1,0} %add.653, u32[10,2]{1,0} %xor.661), metadata={op_type="add" op_name="jit(init)/body/add" source_file="/mnt/home/linmin/g/lib/python3.8/site-packages/haiku/_src/base.py" source_line=560}
  %get-tuple-element.619 = u32[10,1]{1,0} get-tuple-element((s32[], s32[], u32[10,2]{1,0}, u32[10,2]{1,0}, u32[10,1]{1,0}, /*index=5*/u32[10,1]{1,0}, u32[10,1]{1,0}, u32[4]{0}, u32[4]{0}) %parameter.614), index=4
  %reshape.671 = u32[10]{0} reshape(u32[10,1]{1,0} %get-tuple-element.619), metadata={op_type="add" op_name="jit(init)/body/add" source_file="/mnt/home/linmin/g/lib/python3.8/site-packages/haiku/_src/base.py" source_line=560}
  %broadcast.672 = u32[10,2]{1,0} broadcast(u32[10]{0} %reshape.671), dimensions={0}, metadata={op_type="add" op_name="jit(init)/body/add" source_file="/mnt/home/linmin/g/lib/python3.8/site-packages/haiku/_src/base.py" source_line=560}
  %add.673 = u32[10,2]{1,0} add(u32[10,2]{1,0} %add.662, u32[10,2]{1,0} %broadcast.672), metadata={op_type="add" op_name="jit(init)/body/add" source_file="/mnt/home/linmin/g/lib/python3.8/site-packages/haiku/_src/base.py" source_line=560}
  %slice.633 = u32[1]{0} slice(u32[4]{0} %get-tuple-element.622), slice={[3:4]}, metadata={op_type="slice" op_name="jit(init)/body/slice[limit_indices=(4,) start_indices=(3,) strides=(1,)]" source_file="/mnt/home/linmin/g/lib/python3.8/site-packages/haiku/_src/base.py" source_line=560}
  %reshape.634 = u32[] reshape(u32[1]{0} %slice.633), metadata={op_type="squeeze" op_name="jit(init)/body/squeeze[dimensions=(0,)]" source_file="/mnt/home/linmin/g/lib/python3.8/site-packages/haiku/_src/base.py" source_line=560}
  %broadcast.663 = u32[10,2]{1,0} broadcast(u32[] %reshape.634), dimensions={}, metadata={op_type="shift_left" op_name="jit(init)/body/shift_left" source_file="/mnt/home/linmin/g/lib/python3.8/site-packages/haiku/_src/base.py" source_line=560}
  %shift-left.664 = u32[10,2]{1,0} shift-left(u32[10,2]{1,0} %xor.661, u32[10,2]{1,0} %broadcast.663), metadata={op_type="shift_left" op_name="jit(init)/body/shift_left" source_file="/mnt/home/linmin/g/lib/python3.8/site-packages/haiku/_src/base.py" source_line=560}
  %constant.665 = u32[] constant(32), metadata={op_type="sub" op_name="jit(init)/body/sub" source_file="/mnt/home/linmin/g/lib/python3.8/site-packages/haiku/_src/base.py" source_line=560}
  %subtract.666 = u32[] subtract(u32[] %constant.665, u32[] %reshape.634), metadata={op_type="sub" op_name="jit(init)/body/sub" source_file="/mnt/home/linmin/g/lib/python3.8/site-packages/haiku/_src/base.py" source_line=560}
  %broadcast.667 = u32[10,2]{1,0} broadcast(u32[] %subtract.666), dimensions={}, metadata={op_type="shift_right_logical" op_name="jit(init)/body/shift_right_logical" source_file="/mnt/home/linmin/g/lib/python3.8/site-packages/haiku/_src/base.py" source_line=560}
  %shift-right-logical.668 = u32[10,2]{1,0} shift-right-logical(u32[10,2]{1,0} %xor.661, u32[10,2]{1,0} %broadcast.667), metadata={op_type="shift_right_logical" op_name="jit(init)/body/shift_right_logical" source_file="/mnt/home/linmin/g/lib/python3.8/site-packages/haiku/_src/base.py" source_line=560}
  %or.669 = u32[10,2]{1,0} or(u32[10,2]{1,0} %shift-left.664, u32[10,2]{1,0} %shift-right-logical.668), metadata={op_type="or" op_name="jit(init)/body/or" source_file="/mnt/home/linmin/g/lib/python3.8/site-packages/haiku/_src/base.py" source_line=560}
  %xor.670 = u32[10,2]{1,0} xor(u32[10,2]{1,0} %add.662, u32[10,2]{1,0} %or.669), metadata={op_type="xor" op_name="jit(init)/body/xor" source_file="/mnt/home/linmin/g/lib/python3.8/site-packages/haiku/_src/base.py" source_line=560}
  %get-tuple-element.620 = u32[10,1]{1,0} get-tuple-element((s32[], s32[], u32[10,2]{1,0}, u32[10,2]{1,0}, u32[10,1]{1,0}, /*index=5*/u32[10,1]{1,0}, u32[10,1]{1,0}, u32[4]{0}, u32[4]{0}) %parameter.614), index=5
  %reshape.674 = u32[10]{0} reshape(u32[10,1]{1,0} %get-tuple-element.620), metadata={op_type="add" op_name="jit(init)/body/add" source_file="/mnt/home/linmin/g/lib/python3.8/site-packages/haiku/_src/base.py" source_line=560}
  %broadcast.675 = u32[10,2]{1,0} broadcast(u32[10]{0} %reshape.674), dimensions={0}, metadata={op_type="add" op_name="jit(init)/body/add" source_file="/mnt/home/linmin/g/lib/python3.8/site-packages/haiku/_src/base.py" source_line=560}
  %add.676 = u32[10,2]{1,0} add(u32[10,2]{1,0} %xor.670, u32[10,2]{1,0} %broadcast.675), metadata={op_type="add" op_name="jit(init)/body/add" source_file="/mnt/home/linmin/g/lib/python3.8/site-packages/haiku/_src/base.py" source_line=560}
  %constant.677 = s32[] constant(1), metadata={op_type="add" op_name="jit(init)/body/add" source_file="/mnt/home/linmin/g/lib/python3.8/site-packages/haiku/_src/base.py" source_line=560}
  %add.678 = s32[] add(s32[] %get-tuple-element.616, s32[] %constant.677), metadata={op_type="add" op_name="jit(init)/body/add" source_file="/mnt/home/linmin/g/lib/python3.8/site-packages/haiku/_src/base.py" source_line=560}
  %convert.679 = u32[] convert(s32[] %add.678), metadata={op_type="convert_element_type" op_name="jit(init)/body/convert_element_type[new_dtype=uint32 weak_type=False]" source_file="/mnt/home/linmin/g/lib/python3.8/site-packages/haiku/_src/base.py" source_line=560}
  %broadcast.680 = u32[10,2]{1,0} broadcast(u32[] %convert.679), dimensions={}, metadata={op_type="add" op_name="jit(init)/body/add" source_file="/mnt/home/linmin/g/lib/python3.8/site-packages/haiku/_src/base.py" source_line=560}
  %add.681 = u32[10,2]{1,0} add(u32[10,2]{1,0} %add.676, u32[10,2]{1,0} %broadcast.680), metadata={op_type="add" op_name="jit(init)/body/add" source_file="/mnt/home/linmin/g/lib/python3.8/site-packages/haiku/_src/base.py" source_line=560}
  %get-tuple-element.621 = u32[10,1]{1,0} get-tuple-element((s32[], s32[], u32[10,2]{1,0}, u32[10,2]{1,0}, u32[10,1]{1,0}, /*index=5*/u32[10,1]{1,0}, u32[10,1]{1,0}, u32[4]{0}, u32[4]{0}) %parameter.614), index=6
  %get-tuple-element.623 = u32[4]{0} get-tuple-element((s32[], s32[], u32[10,2]{1,0}, u32[10,2]{1,0}, u32[10,1]{1,0}, /*index=5*/u32[10,1]{1,0}, u32[10,1]{1,0}, u32[4]{0}, u32[4]{0}) %parameter.614), index=8
  ROOT %tuple.684 = (s32[], s32[], u32[10,2]{1,0}, u32[10,2]{1,0}, u32[10,1]{1,0}, /*index=5*/u32[10,1]{1,0}, u32[10,1]{1,0}, u32[4]{0}, u32[4]{0}) tuple(s32[] %add.683, s32[] %add.626, u32[10,2]{1,0} %add.673, u32[10,2]{1,0} %add.681, u32[10,1]{1,0} %get-tuple-element.620, /*index=5*/u32[10,1]{1,0} %get-tuple-element.621, u32[10,1]{1,0} %get-tuple-element.619, u32[4]{0} %get-tuple-element.623, u32[4]{0} %get-tuple-element.622)
}

%cond_computation__3.685 (parameter.686: (s32[], s32[], u32[10,2], u32[10,2], u32[10,1], /*index=5*/u32[10,1], u32[10,1], u32[4], u32[4])) -> pred[] {
  %parameter.686 = (s32[], s32[], u32[10,2]{1,0}, u32[10,2]{1,0}, u32[10,1]{1,0}, /*index=5*/u32[10,1]{1,0}, u32[10,1]{1,0}, u32[4]{0}, u32[4]{0}) parameter(0)
  %get-tuple-element.688 = s32[] get-tuple-element((s32[], s32[], u32[10,2]{1,0}, u32[10,2]{1,0}, u32[10,1]{1,0}, /*index=5*/u32[10,1]{1,0}, u32[10,1]{1,0}, u32[4]{0}, u32[4]{0}) %parameter.686), index=1
  %get-tuple-element.689 = u32[10,2]{1,0} get-tuple-element((s32[], s32[], u32[10,2]{1,0}, u32[10,2]{1,0}, u32[10,1]{1,0}, /*index=5*/u32[10,1]{1,0}, u32[10,1]{1,0}, u32[4]{0}, u32[4]{0}) %parameter.686), index=2
  %get-tuple-element.690 = u32[10,2]{1,0} get-tuple-element((s32[], s32[], u32[10,2]{1,0}, u32[10,2]{1,0}, u32[10,1]{1,0}, /*index=5*/u32[10,1]{1,0}, u32[10,1]{1,0}, u32[4]{0}, u32[4]{0}) %parameter.686), index=3
  %get-tuple-element.691 = u32[10,1]{1,0} get-tuple-element((s32[], s32[], u32[10,2]{1,0}, u32[10,2]{1,0}, u32[10,1]{1,0}, /*index=5*/u32[10,1]{1,0}, u32[10,1]{1,0}, u32[4]{0}, u32[4]{0}) %parameter.686), index=4
  %get-tuple-element.692 = u32[10,1]{1,0} get-tuple-element((s32[], s32[], u32[10,2]{1,0}, u32[10,2]{1,0}, u32[10,1]{1,0}, /*index=5*/u32[10,1]{1,0}, u32[10,1]{1,0}, u32[4]{0}, u32[4]{0}) %parameter.686), index=5
  %get-tuple-element.693 = u32[10,1]{1,0} get-tuple-element((s32[], s32[], u32[10,2]{1,0}, u32[10,2]{1,0}, u32[10,1]{1,0}, /*index=5*/u32[10,1]{1,0}, u32[10,1]{1,0}, u32[4]{0}, u32[4]{0}) %parameter.686), index=6
  %get-tuple-element.694 = u32[4]{0} get-tuple-element((s32[], s32[], u32[10,2]{1,0}, u32[10,2]{1,0}, u32[10,1]{1,0}, /*index=5*/u32[10,1]{1,0}, u32[10,1]{1,0}, u32[4]{0}, u32[4]{0}) %parameter.686), index=7
  %get-tuple-element.695 = u32[4]{0} get-tuple-element((s32[], s32[], u32[10,2]{1,0}, u32[10,2]{1,0}, u32[10,1]{1,0}, /*index=5*/u32[10,1]{1,0}, u32[10,1]{1,0}, u32[4]{0}, u32[4]{0}) %parameter.686), index=8
  %constant.696 = pred[] constant(false)
  %get-tuple-element.687 = s32[] get-tuple-element((s32[], s32[], u32[10,2]{1,0}, u32[10,2]{1,0}, u32[10,1]{1,0}, /*index=5*/u32[10,1]{1,0}, u32[10,1]{1,0}, u32[4]{0}, u32[4]{0}) %parameter.686), index=0
  %constant.697 = s32[] constant(5), metadata={op_type="lt" op_name="jit(init)/cond/lt" source_file="/mnt/home/linmin/g/lib/python3.8/site-packages/haiku/_src/base.py" source_line=560}
  ROOT %compare.698 = pred[] compare(s32[] %get-tuple-element.687, s32[] %constant.697), direction=LT, metadata={op_type="lt" op_name="jit(init)/cond/lt" source_file="/mnt/home/linmin/g/lib/python3.8/site-packages/haiku/_src/base.py" source_line=560}
}

%body_computation__4.747 (parameter.748: (s32[], s32[], u32[10,50], u32[10,50], u32[10,1], /*index=5*/u32[10,1], u32[10,1], u32[4], u32[4])) -> (s32[], s32[], u32[10,50], u32[10,50], u32[10,1], /*index=5*/u32[10,1], u32[10,1], u32[4], u32[4]) {
  %constant.758 = pred[] constant(false)
  %parameter.748 = (s32[], s32[], u32[10,50]{1,0}, u32[10,50]{1,0}, u32[10,1]{1,0}, /*index=5*/u32[10,1]{1,0}, u32[10,1]{1,0}, u32[4]{0}, u32[4]{0}) parameter(0)
  %get-tuple-element.749 = s32[] get-tuple-element((s32[], s32[], u32[10,50]{1,0}, u32[10,50]{1,0}, u32[10,1]{1,0}, /*index=5*/u32[10,1]{1,0}, u32[10,1]{1,0}, u32[4]{0}, u32[4]{0}) %parameter.748), index=0
  %constant.816 = s32[] constant(1), metadata={op_type="add" op_name="jit(init)/body/add" source_file="/mnt/home/linmin/g/lib/python3.8/site-packages/haiku/_src/initializers.py" source_line=82}
  %add.817 = s32[] add(s32[] %get-tuple-element.749, s32[] %constant.816), metadata={op_type="add" op_name="jit(init)/body/add" source_file="/mnt/home/linmin/g/lib/python3.8/site-packages/haiku/_src/initializers.py" source_line=82}
  %get-tuple-element.750 = s32[] get-tuple-element((s32[], s32[], u32[10,50]{1,0}, u32[10,50]{1,0}, u32[10,1]{1,0}, /*index=5*/u32[10,1]{1,0}, u32[10,1]{1,0}, u32[4]{0}, u32[4]{0}) %parameter.748), index=1
  %constant.759 = s32[] constant(1), metadata={op_type="add" op_name="jit(init)/body/add" source_file="/mnt/home/linmin/g/lib/python3.8/site-packages/haiku/_src/initializers.py" source_line=82}
  %add.760 = s32[] add(s32[] %get-tuple-element.750, s32[] %constant.759), metadata={op_type="add" op_name="jit(init)/body/add" source_file="/mnt/home/linmin/g/lib/python3.8/site-packages/haiku/_src/initializers.py" source_line=82}
  %get-tuple-element.751 = u32[10,50]{1,0} get-tuple-element((s32[], s32[], u32[10,50]{1,0}, u32[10,50]{1,0}, u32[10,1]{1,0}, /*index=5*/u32[10,1]{1,0}, u32[10,1]{1,0}, u32[4]{0}, u32[4]{0}) %parameter.748), index=2
  %get-tuple-element.752 = u32[10,50]{1,0} get-tuple-element((s32[], s32[], u32[10,50]{1,0}, u32[10,50]{1,0}, u32[10,1]{1,0}, /*index=5*/u32[10,1]{1,0}, u32[10,1]{1,0}, u32[4]{0}, u32[4]{0}) %parameter.748), index=3
  %add.769 = u32[10,50]{1,0} add(u32[10,50]{1,0} %get-tuple-element.751, u32[10,50]{1,0} %get-tuple-element.752), metadata={op_type="add" op_name="jit(init)/body/add" source_file="/mnt/home/linmin/g/lib/python3.8/site-packages/haiku/_src/initializers.py" source_line=82}
  %get-tuple-element.756 = u32[4]{0} get-tuple-element((s32[], s32[], u32[10,50]{1,0}, u32[10,50]{1,0}, u32[10,1]{1,0}, /*index=5*/u32[10,1]{1,0}, u32[10,1]{1,0}, u32[4]{0}, u32[4]{0}) %parameter.748), index=7
  %slice.761 = u32[1]{0} slice(u32[4]{0} %get-tuple-element.756), slice={[0:1]}, metadata={op_type="slice" op_name="jit(init)/body/slice[limit_indices=(1,) start_indices=(0,) strides=(1,)]" source_file="/mnt/home/linmin/g/lib/python3.8/site-packages/haiku/_src/initializers.py" source_line=82}
  %reshape.762 = u32[] reshape(u32[1]{0} %slice.761), metadata={op_type="squeeze" op_name="jit(init)/body/squeeze[dimensions=(0,)]" source_file="/mnt/home/linmin/g/lib/python3.8/site-packages/haiku/_src/initializers.py" source_line=82}
  %broadcast.770 = u32[10,50]{1,0} broadcast(u32[] %reshape.762), dimensions={}, metadata={op_type="shift_left" op_name="jit(init)/body/shift_left" source_file="/mnt/home/linmin/g/lib/python3.8/site-packages/haiku/_src/initializers.py" source_line=82}
  %shift-left.771 = u32[10,50]{1,0} shift-left(u32[10,50]{1,0} %get-tuple-element.752, u32[10,50]{1,0} %broadcast.770), metadata={op_type="shift_left" op_name="jit(init)/body/shift_left" source_file="/mnt/home/linmin/g/lib/python3.8/site-packages/haiku/_src/initializers.py" source_line=82}
  %constant.772 = u32[] constant(32), metadata={op_type="sub" op_name="jit(init)/body/sub" source_file="/mnt/home/linmin/g/lib/python3.8/site-packages/haiku/_src/initializers.py" source_line=82}
  %subtract.773 = u32[] subtract(u32[] %constant.772, u32[] %reshape.762), metadata={op_type="sub" op_name="jit(init)/body/sub" source_file="/mnt/home/linmin/g/lib/python3.8/site-packages/haiku/_src/initializers.py" source_line=82}
  %broadcast.774 = u32[10,50]{1,0} broadcast(u32[] %subtract.773), dimensions={}, metadata={op_type="shift_right_logical" op_name="jit(init)/body/shift_right_logical" source_file="/mnt/home/linmin/g/lib/python3.8/site-packages/haiku/_src/initializers.py" source_line=82}
  %shift-right-logical.775 = u32[10,50]{1,0} shift-right-logical(u32[10,50]{1,0} %get-tuple-element.752, u32[10,50]{1,0} %broadcast.774), metadata={op_type="shift_right_logical" op_name="jit(init)/body/shift_right_logical" source_file="/mnt/home/linmin/g/lib/python3.8/site-packages/haiku/_src/initializers.py" source_line=82}
  %or.776 = u32[10,50]{1,0} or(u32[10,50]{1,0} %shift-left.771, u32[10,50]{1,0} %shift-right-logical.775), metadata={op_type="or" op_name="jit(init)/body/or" source_file="/mnt/home/linmin/g/lib/python3.8/site-packages/haiku/_src/initializers.py" source_line=82}
  %xor.777 = u32[10,50]{1,0} xor(u32[10,50]{1,0} %add.769, u32[10,50]{1,0} %or.776), metadata={op_type="xor" op_name="jit(init)/body/xor" source_file="/mnt/home/linmin/g/lib/python3.8/site-packages/haiku/_src/initializers.py" source_line=82}
  %add.778 = u32[10,50]{1,0} add(u32[10,50]{1,0} %add.769, u32[10,50]{1,0} %xor.777), metadata={op_type="add" op_name="jit(init)/body/add" source_file="/mnt/home/linmin/g/lib/python3.8/site-packages/haiku/_src/initializers.py" source_line=82}
  %slice.763 = u32[1]{0} slice(u32[4]{0} %get-tuple-element.756), slice={[1:2]}, metadata={op_type="slice" op_name="jit(init)/body/slice[limit_indices=(2,) start_indices=(1,) strides=(1,)]" source_file="/mnt/home/linmin/g/lib/python3.8/site-packages/haiku/_src/initializers.py" source_line=82}
  %reshape.764 = u32[] reshape(u32[1]{0} %slice.763), metadata={op_type="squeeze" op_name="jit(init)/body/squeeze[dimensions=(0,)]" source_file="/mnt/home/linmin/g/lib/python3.8/site-packages/haiku/_src/initializers.py" source_line=82}
  %broadcast.779 = u32[10,50]{1,0} broadcast(u32[] %reshape.764), dimensions={}, metadata={op_type="shift_left" op_name="jit(init)/body/shift_left" source_file="/mnt/home/linmin/g/lib/python3.8/site-packages/haiku/_src/initializers.py" source_line=82}
  %shift-left.780 = u32[10,50]{1,0} shift-left(u32[10,50]{1,0} %xor.777, u32[10,50]{1,0} %broadcast.779), metadata={op_type="shift_left" op_name="jit(init)/body/shift_left" source_file="/mnt/home/linmin/g/lib/python3.8/site-packages/haiku/_src/initializers.py" source_line=82}
  %constant.781 = u32[] constant(32), metadata={op_type="sub" op_name="jit(init)/body/sub" source_file="/mnt/home/linmin/g/lib/python3.8/site-packages/haiku/_src/initializers.py" source_line=82}
  %subtract.782 = u32[] subtract(u32[] %constant.781, u32[] %reshape.764), metadata={op_type="sub" op_name="jit(init)/body/sub" source_file="/mnt/home/linmin/g/lib/python3.8/site-packages/haiku/_src/initializers.py" source_line=82}
  %broadcast.783 = u32[10,50]{1,0} broadcast(u32[] %subtract.782), dimensions={}, metadata={op_type="shift_right_logical" op_name="jit(init)/body/shift_right_logical" source_file="/mnt/home/linmin/g/lib/python3.8/site-packages/haiku/_src/initializers.py" source_line=82}
  %shift-right-logical.784 = u32[10,50]{1,0} shift-right-logical(u32[10,50]{1,0} %xor.777, u32[10,50]{1,0} %broadcast.783), metadata={op_type="shift_right_logical" op_name="jit(init)/body/shift_right_logical" source_file="/mnt/home/linmin/g/lib/python3.8/site-packages/haiku/_src/initializers.py" source_line=82}
  %or.785 = u32[10,50]{1,0} or(u32[10,50]{1,0} %shift-left.780, u32[10,50]{1,0} %shift-right-logical.784), metadata={op_type="or" op_name="jit(init)/body/or" source_file="/mnt/home/linmin/g/lib/python3.8/site-packages/haiku/_src/initializers.py" source_line=82}
  %xor.786 = u32[10,50]{1,0} xor(u32[10,50]{1,0} %add.778, u32[10,50]{1,0} %or.785), metadata={op_type="xor" op_name="jit(init)/body/xor" source_file="/mnt/home/linmin/g/lib/python3.8/site-packages/haiku/_src/initializers.py" source_line=82}
  %add.787 = u32[10,50]{1,0} add(u32[10,50]{1,0} %add.778, u32[10,50]{1,0} %xor.786), metadata={op_type="add" op_name="jit(init)/body/add" source_file="/mnt/home/linmin/g/lib/python3.8/site-packages/haiku/_src/initializers.py" source_line=82}
  %slice.765 = u32[1]{0} slice(u32[4]{0} %get-tuple-element.756), slice={[2:3]}, metadata={op_type="slice" op_name="jit(init)/body/slice[limit_indices=(3,) start_indices=(2,) strides=(1,)]" source_file="/mnt/home/linmin/g/lib/python3.8/site-packages/haiku/_src/initializers.py" source_line=82}
  %reshape.766 = u32[] reshape(u32[1]{0} %slice.765), metadata={op_type="squeeze" op_name="jit(init)/body/squeeze[dimensions=(0,)]" source_file="/mnt/home/linmin/g/lib/python3.8/site-packages/haiku/_src/initializers.py" source_line=82}
  %broadcast.788 = u32[10,50]{1,0} broadcast(u32[] %reshape.766), dimensions={}, metadata={op_type="shift_left" op_name="jit(init)/body/shift_left" source_file="/mnt/home/linmin/g/lib/python3.8/site-packages/haiku/_src/initializers.py" source_line=82}
  %shift-left.789 = u32[10,50]{1,0} shift-left(u32[10,50]{1,0} %xor.786, u32[10,50]{1,0} %broadcast.788), metadata={op_type="shift_left" op_name="jit(init)/body/shift_left" source_file="/mnt/home/linmin/g/lib/python3.8/site-packages/haiku/_src/initializers.py" source_line=82}
  %constant.790 = u32[] constant(32), metadata={op_type="sub" op_name="jit(init)/body/sub" source_file="/mnt/home/linmin/g/lib/python3.8/site-packages/haiku/_src/initializers.py" source_line=82}
  %subtract.791 = u32[] subtract(u32[] %constant.790, u32[] %reshape.766), metadata={op_type="sub" op_name="jit(init)/body/sub" source_file="/mnt/home/linmin/g/lib/python3.8/site-packages/haiku/_src/initializers.py" source_line=82}
  %broadcast.792 = u32[10,50]{1,0} broadcast(u32[] %subtract.791), dimensions={}, metadata={op_type="shift_right_logical" op_name="jit(init)/body/shift_right_logical" source_file="/mnt/home/linmin/g/lib/python3.8/site-packages/haiku/_src/initializers.py" source_line=82}
  %shift-right-logical.793 = u32[10,50]{1,0} shift-right-logical(u32[10,50]{1,0} %xor.786, u32[10,50]{1,0} %broadcast.792), metadata={op_type="shift_right_logical" op_name="jit(init)/body/shift_right_logical" source_file="/mnt/home/linmin/g/lib/python3.8/site-packages/haiku/_src/initializers.py" source_line=82}
  %or.794 = u32[10,50]{1,0} or(u32[10,50]{1,0} %shift-left.789, u32[10,50]{1,0} %shift-right-logical.793), metadata={op_type="or" op_name="jit(init)/body/or" source_file="/mnt/home/linmin/g/lib/python3.8/site-packages/haiku/_src/initializers.py" source_line=82}
  %xor.795 = u32[10,50]{1,0} xor(u32[10,50]{1,0} %add.787, u32[10,50]{1,0} %or.794), metadata={op_type="xor" op_name="jit(init)/body/xor" source_file="/mnt/home/linmin/g/lib/python3.8/site-packages/haiku/_src/initializers.py" source_line=82}
  %add.796 = u32[10,50]{1,0} add(u32[10,50]{1,0} %add.787, u32[10,50]{1,0} %xor.795), metadata={op_type="add" op_name="jit(init)/body/add" source_file="/mnt/home/linmin/g/lib/python3.8/site-packages/haiku/_src/initializers.py" source_line=82}
  %get-tuple-element.753 = u32[10,1]{1,0} get-tuple-element((s32[], s32[], u32[10,50]{1,0}, u32[10,50]{1,0}, u32[10,1]{1,0}, /*index=5*/u32[10,1]{1,0}, u32[10,1]{1,0}, u32[4]{0}, u32[4]{0}) %parameter.748), index=4
  %reshape.805 = u32[10]{0} reshape(u32[10,1]{1,0} %get-tuple-element.753), metadata={op_type="add" op_name="jit(init)/body/add" source_file="/mnt/home/linmin/g/lib/python3.8/site-packages/haiku/_src/initializers.py" source_line=82}
  %broadcast.806 = u32[10,50]{1,0} broadcast(u32[10]{0} %reshape.805), dimensions={0}, metadata={op_type="add" op_name="jit(init)/body/add" source_file="/mnt/home/linmin/g/lib/python3.8/site-packages/haiku/_src/initializers.py" source_line=82}
  %add.807 = u32[10,50]{1,0} add(u32[10,50]{1,0} %add.796, u32[10,50]{1,0} %broadcast.806), metadata={op_type="add" op_name="jit(init)/body/add" source_file="/mnt/home/linmin/g/lib/python3.8/site-packages/haiku/_src/initializers.py" source_line=82}
  %slice.767 = u32[1]{0} slice(u32[4]{0} %get-tuple-element.756), slice={[3:4]}, metadata={op_type="slice" op_name="jit(init)/body/slice[limit_indices=(4,) start_indices=(3,) strides=(1,)]" source_file="/mnt/home/linmin/g/lib/python3.8/site-packages/haiku/_src/initializers.py" source_line=82}
  %reshape.768 = u32[] reshape(u32[1]{0} %slice.767), metadata={op_type="squeeze" op_name="jit(init)/body/squeeze[dimensions=(0,)]" source_file="/mnt/home/linmin/g/lib/python3.8/site-packages/haiku/_src/initializers.py" source_line=82}
  %broadcast.797 = u32[10,50]{1,0} broadcast(u32[] %reshape.768), dimensions={}, metadata={op_type="shift_left" op_name="jit(init)/body/shift_left" source_file="/mnt/home/linmin/g/lib/python3.8/site-packages/haiku/_src/initializers.py" source_line=82}
  %shift-left.798 = u32[10,50]{1,0} shift-left(u32[10,50]{1,0} %xor.795, u32[10,50]{1,0} %broadcast.797), metadata={op_type="shift_left" op_name="jit(init)/body/shift_left" source_file="/mnt/home/linmin/g/lib/python3.8/site-packages/haiku/_src/initializers.py" source_line=82}
  %constant.799 = u32[] constant(32), metadata={op_type="sub" op_name="jit(init)/body/sub" source_file="/mnt/home/linmin/g/lib/python3.8/site-packages/haiku/_src/initializers.py" source_line=82}
  %subtract.800 = u32[] subtract(u32[] %constant.799, u32[] %reshape.768), metadata={op_type="sub" op_name="jit(init)/body/sub" source_file="/mnt/home/linmin/g/lib/python3.8/site-packages/haiku/_src/initializers.py" source_line=82}
  %broadcast.801 = u32[10,50]{1,0} broadcast(u32[] %subtract.800), dimensions={}, metadata={op_type="shift_right_logical" op_name="jit(init)/body/shift_right_logical" source_file="/mnt/home/linmin/g/lib/python3.8/site-packages/haiku/_src/initializers.py" source_line=82}
  %shift-right-logical.802 = u32[10,50]{1,0} shift-right-logical(u32[10,50]{1,0} %xor.795, u32[10,50]{1,0} %broadcast.801), metadata={op_type="shift_right_logical" op_name="jit(init)/body/shift_right_logical" source_file="/mnt/home/linmin/g/lib/python3.8/site-packages/haiku/_src/initializers.py" source_line=82}
  %or.803 = u32[10,50]{1,0} or(u32[10,50]{1,0} %shift-left.798, u32[10,50]{1,0} %shift-right-logical.802), metadata={op_type="or" op_name="jit(init)/body/or" source_file="/mnt/home/linmin/g/lib/python3.8/site-packages/haiku/_src/initializers.py" source_line=82}
  %xor.804 = u32[10,50]{1,0} xor(u32[10,50]{1,0} %add.796, u32[10,50]{1,0} %or.803), metadata={op_type="xor" op_name="jit(init)/body/xor" source_file="/mnt/home/linmin/g/lib/python3.8/site-packages/haiku/_src/initializers.py" source_line=82}
  %get-tuple-element.754 = u32[10,1]{1,0} get-tuple-element((s32[], s32[], u32[10,50]{1,0}, u32[10,50]{1,0}, u32[10,1]{1,0}, /*index=5*/u32[10,1]{1,0}, u32[10,1]{1,0}, u32[4]{0}, u32[4]{0}) %parameter.748), index=5
  %reshape.808 = u32[10]{0} reshape(u32[10,1]{1,0} %get-tuple-element.754), metadata={op_type="add" op_name="jit(init)/body/add" source_file="/mnt/home/linmin/g/lib/python3.8/site-packages/haiku/_src/initializers.py" source_line=82}
  %broadcast.809 = u32[10,50]{1,0} broadcast(u32[10]{0} %reshape.808), dimensions={0}, metadata={op_type="add" op_name="jit(init)/body/add" source_file="/mnt/home/linmin/g/lib/python3.8/site-packages/haiku/_src/initializers.py" source_line=82}
  %add.810 = u32[10,50]{1,0} add(u32[10,50]{1,0} %xor.804, u32[10,50]{1,0} %broadcast.809), metadata={op_type="add" op_name="jit(init)/body/add" source_file="/mnt/home/linmin/g/lib/python3.8/site-packages/haiku/_src/initializers.py" source_line=82}
  %constant.811 = s32[] constant(1), metadata={op_type="add" op_name="jit(init)/body/add" source_file="/mnt/home/linmin/g/lib/python3.8/site-packages/haiku/_src/initializers.py" source_line=82}
  %add.812 = s32[] add(s32[] %get-tuple-element.750, s32[] %constant.811), metadata={op_type="add" op_name="jit(init)/body/add" source_file="/mnt/home/linmin/g/lib/python3.8/site-packages/haiku/_src/initializers.py" source_line=82}
  %convert.813 = u32[] convert(s32[] %add.812), metadata={op_type="convert_element_type" op_name="jit(init)/body/convert_element_type[new_dtype=uint32 weak_type=False]" source_file="/mnt/home/linmin/g/lib/python3.8/site-packages/haiku/_src/initializers.py" source_line=82}
  %broadcast.814 = u32[10,50]{1,0} broadcast(u32[] %convert.813), dimensions={}, metadata={op_type="add" op_name="jit(init)/body/add" source_file="/mnt/home/linmin/g/lib/python3.8/site-packages/haiku/_src/initializers.py" source_line=82}
  %add.815 = u32[10,50]{1,0} add(u32[10,50]{1,0} %add.810, u32[10,50]{1,0} %broadcast.814), metadata={op_type="add" op_name="jit(init)/body/add" source_file="/mnt/home/linmin/g/lib/python3.8/site-packages/haiku/_src/initializers.py" source_line=82}
  %get-tuple-element.755 = u32[10,1]{1,0} get-tuple-element((s32[], s32[], u32[10,50]{1,0}, u32[10,50]{1,0}, u32[10,1]{1,0}, /*index=5*/u32[10,1]{1,0}, u32[10,1]{1,0}, u32[4]{0}, u32[4]{0}) %parameter.748), index=6
  %get-tuple-element.757 = u32[4]{0} get-tuple-element((s32[], s32[], u32[10,50]{1,0}, u32[10,50]{1,0}, u32[10,1]{1,0}, /*index=5*/u32[10,1]{1,0}, u32[10,1]{1,0}, u32[4]{0}, u32[4]{0}) %parameter.748), index=8
  ROOT %tuple.818 = (s32[], s32[], u32[10,50]{1,0}, u32[10,50]{1,0}, u32[10,1]{1,0}, /*index=5*/u32[10,1]{1,0}, u32[10,1]{1,0}, u32[4]{0}, u32[4]{0}) tuple(s32[] %add.817, s32[] %add.760, u32[10,50]{1,0} %add.807, u32[10,50]{1,0} %add.815, u32[10,1]{1,0} %get-tuple-element.754, /*index=5*/u32[10,1]{1,0} %get-tuple-element.755, u32[10,1]{1,0} %get-tuple-element.753, u32[4]{0} %get-tuple-element.757, u32[4]{0} %get-tuple-element.756)
}

%cond_computation__4.819 (parameter.820: (s32[], s32[], u32[10,50], u32[10,50], u32[10,1], /*index=5*/u32[10,1], u32[10,1], u32[4], u32[4])) -> pred[] {
  %parameter.820 = (s32[], s32[], u32[10,50]{1,0}, u32[10,50]{1,0}, u32[10,1]{1,0}, /*index=5*/u32[10,1]{1,0}, u32[10,1]{1,0}, u32[4]{0}, u32[4]{0}) parameter(0)
  %get-tuple-element.822 = s32[] get-tuple-element((s32[], s32[], u32[10,50]{1,0}, u32[10,50]{1,0}, u32[10,1]{1,0}, /*index=5*/u32[10,1]{1,0}, u32[10,1]{1,0}, u32[4]{0}, u32[4]{0}) %parameter.820), index=1
  %get-tuple-element.823 = u32[10,50]{1,0} get-tuple-element((s32[], s32[], u32[10,50]{1,0}, u32[10,50]{1,0}, u32[10,1]{1,0}, /*index=5*/u32[10,1]{1,0}, u32[10,1]{1,0}, u32[4]{0}, u32[4]{0}) %parameter.820), index=2
  %get-tuple-element.824 = u32[10,50]{1,0} get-tuple-element((s32[], s32[], u32[10,50]{1,0}, u32[10,50]{1,0}, u32[10,1]{1,0}, /*index=5*/u32[10,1]{1,0}, u32[10,1]{1,0}, u32[4]{0}, u32[4]{0}) %parameter.820), index=3
  %get-tuple-element.825 = u32[10,1]{1,0} get-tuple-element((s32[], s32[], u32[10,50]{1,0}, u32[10,50]{1,0}, u32[10,1]{1,0}, /*index=5*/u32[10,1]{1,0}, u32[10,1]{1,0}, u32[4]{0}, u32[4]{0}) %parameter.820), index=4
  %get-tuple-element.826 = u32[10,1]{1,0} get-tuple-element((s32[], s32[], u32[10,50]{1,0}, u32[10,50]{1,0}, u32[10,1]{1,0}, /*index=5*/u32[10,1]{1,0}, u32[10,1]{1,0}, u32[4]{0}, u32[4]{0}) %parameter.820), index=5
  %get-tuple-element.827 = u32[10,1]{1,0} get-tuple-element((s32[], s32[], u32[10,50]{1,0}, u32[10,50]{1,0}, u32[10,1]{1,0}, /*index=5*/u32[10,1]{1,0}, u32[10,1]{1,0}, u32[4]{0}, u32[4]{0}) %parameter.820), index=6
  %get-tuple-element.828 = u32[4]{0} get-tuple-element((s32[], s32[], u32[10,50]{1,0}, u32[10,50]{1,0}, u32[10,1]{1,0}, /*index=5*/u32[10,1]{1,0}, u32[10,1]{1,0}, u32[4]{0}, u32[4]{0}) %parameter.820), index=7
  %get-tuple-element.829 = u32[4]{0} get-tuple-element((s32[], s32[], u32[10,50]{1,0}, u32[10,50]{1,0}, u32[10,1]{1,0}, /*index=5*/u32[10,1]{1,0}, u32[10,1]{1,0}, u32[4]{0}, u32[4]{0}) %parameter.820), index=8
  %constant.830 = pred[] constant(false)
  %get-tuple-element.821 = s32[] get-tuple-element((s32[], s32[], u32[10,50]{1,0}, u32[10,50]{1,0}, u32[10,1]{1,0}, /*index=5*/u32[10,1]{1,0}, u32[10,1]{1,0}, u32[4]{0}, u32[4]{0}) %parameter.820), index=0
  %constant.831 = s32[] constant(5), metadata={op_type="lt" op_name="jit(init)/cond/lt" source_file="/mnt/home/linmin/g/lib/python3.8/site-packages/haiku/_src/initializers.py" source_line=82}
  ROOT %compare.832 = pred[] compare(s32[] %get-tuple-element.821, s32[] %constant.831), direction=LT, metadata={op_type="lt" op_name="jit(init)/cond/lt" source_file="/mnt/home/linmin/g/lib/python3.8/site-packages/haiku/_src/initializers.py" source_line=82}
}

%primitive_computation_add__1.969 (parameter.970: s32[], parameter.971: s32[]) -> s32[] {
  %constant.972 = pred[] constant(false)
  %parameter.970 = s32[] parameter(0)
  %parameter.971 = s32[] parameter(1)
  ROOT %add.973 = s32[] add(s32[] %parameter.970, s32[] %parameter.971), metadata={op_type="add" op_name="add" source_file="/mnt/home/linmin/projects/deepmind-research/gated_linear_networks/base.py" source_line=205}
}

%jit_vmap_clip_.989 (parameter.990: f32[10,785], parameter.991: f32[], parameter.992: f32[]) -> f32[10,785] {
  %constant.993 = pred[] constant(false)
  %parameter.992 = f32[] parameter(2)
  %convert.997 = f32[] convert(f32[] %parameter.992), metadata={op_type="convert_element_type" op_name="jit(init)/jit(vmap(clip))/convert_element_type[\n  new_dtype=float32\n  weak_type=False\n]" source_file="/mnt/home/linmin/projects/deepmind-research/gated_linear_networks/bernoulli.py" source_line=69}
  %broadcast.998 = f32[10,785]{1,0} broadcast(f32[] %convert.997), dimensions={}, metadata={op_type="min" op_name="jit(init)/jit(vmap(clip))/min" source_file="/mnt/home/linmin/projects/deepmind-research/gated_linear_networks/bernoulli.py" source_line=69}
  %parameter.991 = f32[] parameter(1)
  %convert.994 = f32[] convert(f32[] %parameter.991), metadata={op_type="convert_element_type" op_name="jit(init)/jit(vmap(clip))/convert_element_type[\n  new_dtype=float32\n  weak_type=False\n]" source_file="/mnt/home/linmin/projects/deepmind-research/gated_linear_networks/bernoulli.py" source_line=69}
  %broadcast.995 = f32[10,785]{1,0} broadcast(f32[] %convert.994), dimensions={}, metadata={op_type="max" op_name="jit(init)/jit(vmap(clip))/max" source_file="/mnt/home/linmin/projects/deepmind-research/gated_linear_networks/bernoulli.py" source_line=69}
  %parameter.990 = f32[10,785]{1,0} parameter(0)
  %maximum.996 = f32[10,785]{1,0} maximum(f32[10,785]{1,0} %broadcast.995, f32[10,785]{1,0} %parameter.990), metadata={op_type="max" op_name="jit(init)/jit(vmap(clip))/max" source_file="/mnt/home/linmin/projects/deepmind-research/gated_linear_networks/bernoulli.py" source_line=69}
  ROOT %minimum.999 = f32[10,785]{1,0} minimum(f32[10,785]{1,0} %broadcast.998, f32[10,785]{1,0} %maximum.996), metadata={op_type="min" op_name="jit(init)/jit(vmap(clip))/min" source_file="/mnt/home/linmin/projects/deepmind-research/gated_linear_networks/bernoulli.py" source_line=69}
}

%jit_vmap_append___1.1027 (parameter.1028: f32[10,100], parameter.1029: f32[]) -> f32[10,101] {
  %constant.1030 = pred[] constant(false)
  %parameter.1028 = f32[10,100]{1,0} parameter(0)
  %parameter.1029 = f32[] parameter(1)
  %reshape.1031 = f32[1]{0} reshape(f32[] %parameter.1029), metadata={op_type="reshape" op_name="jit(init)/jit(vmap(append))/reshape[dimensions=None new_sizes=(1,)]" source_file="/mnt/home/linmin/projects/deepmind-research/gated_linear_networks/bernoulli.py" source_line=54}
  %convert.1032 = f32[1]{0} convert(f32[1]{0} %reshape.1031), metadata={op_type="convert_element_type" op_name="jit(init)/jit(vmap(append))/convert_element_type[\n  new_dtype=float32\n  weak_type=False\n]" source_file="/mnt/home/linmin/projects/deepmind-research/gated_linear_networks/bernoulli.py" source_line=54}
  %broadcast.1033 = f32[10,1]{1,0} broadcast(f32[1]{0} %convert.1032), dimensions={1}, metadata={op_type="broadcast_in_dim" op_name="jit(init)/jit(vmap(append))/broadcast_in_dim[\n  broadcast_dimensions=(1,)\n  shape=(10, 1)\n]" source_file="/mnt/home/linmin/projects/deepmind-research/gated_linear_networks/bernoulli.py" source_line=54}
  ROOT %concatenate.1034 = f32[10,101]{1,0} concatenate(f32[10,100]{1,0} %parameter.1028, f32[10,1]{1,0} %broadcast.1033), dimensions={1}, metadata={op_type="concatenate" op_name="jit(init)/jit(vmap(append))/concatenate[dimension=1]" source_file="/mnt/home/linmin/projects/deepmind-research/gated_linear_networks/bernoulli.py" source_line=54}
}

%body_computation__5.1066 (parameter.1067: (s32[], s32[], u32[10,2], u32[10,2], u32[10,1], /*index=5*/u32[10,1], u32[10,1], u32[4], u32[4])) -> (s32[], s32[], u32[10,2], u32[10,2], u32[10,1], /*index=5*/u32[10,1], u32[10,1], u32[4], u32[4]) {
  %constant.1077 = pred[] constant(false)
  %parameter.1067 = (s32[], s32[], u32[10,2]{1,0}, u32[10,2]{1,0}, u32[10,1]{1,0}, /*index=5*/u32[10,1]{1,0}, u32[10,1]{1,0}, u32[4]{0}, u32[4]{0}) parameter(0)
  %get-tuple-element.1068 = s32[] get-tuple-element((s32[], s32[], u32[10,2]{1,0}, u32[10,2]{1,0}, u32[10,1]{1,0}, /*index=5*/u32[10,1]{1,0}, u32[10,1]{1,0}, u32[4]{0}, u32[4]{0}) %parameter.1067), index=0
  %constant.1135 = s32[] constant(1), metadata={op_type="add" op_name="jit(init)/body/add" source_file="/mnt/home/linmin/g/lib/python3.8/site-packages/haiku/_src/base.py" source_line=560}
  %add.1136 = s32[] add(s32[] %get-tuple-element.1068, s32[] %constant.1135), metadata={op_type="add" op_name="jit(init)/body/add" source_file="/mnt/home/linmin/g/lib/python3.8/site-packages/haiku/_src/base.py" source_line=560}
  %get-tuple-element.1069 = s32[] get-tuple-element((s32[], s32[], u32[10,2]{1,0}, u32[10,2]{1,0}, u32[10,1]{1,0}, /*index=5*/u32[10,1]{1,0}, u32[10,1]{1,0}, u32[4]{0}, u32[4]{0}) %parameter.1067), index=1
  %constant.1078 = s32[] constant(1), metadata={op_type="add" op_name="jit(init)/body/add" source_file="/mnt/home/linmin/g/lib/python3.8/site-packages/haiku/_src/base.py" source_line=560}
  %add.1079 = s32[] add(s32[] %get-tuple-element.1069, s32[] %constant.1078), metadata={op_type="add" op_name="jit(init)/body/add" source_file="/mnt/home/linmin/g/lib/python3.8/site-packages/haiku/_src/base.py" source_line=560}
  %get-tuple-element.1070 = u32[10,2]{1,0} get-tuple-element((s32[], s32[], u32[10,2]{1,0}, u32[10,2]{1,0}, u32[10,1]{1,0}, /*index=5*/u32[10,1]{1,0}, u32[10,1]{1,0}, u32[4]{0}, u32[4]{0}) %parameter.1067), index=2
  %get-tuple-element.1071 = u32[10,2]{1,0} get-tuple-element((s32[], s32[], u32[10,2]{1,0}, u32[10,2]{1,0}, u32[10,1]{1,0}, /*index=5*/u32[10,1]{1,0}, u32[10,1]{1,0}, u32[4]{0}, u32[4]{0}) %parameter.1067), index=3
  %add.1088 = u32[10,2]{1,0} add(u32[10,2]{1,0} %get-tuple-element.1070, u32[10,2]{1,0} %get-tuple-element.1071), metadata={op_type="add" op_name="jit(init)/body/add" source_file="/mnt/home/linmin/g/lib/python3.8/site-packages/haiku/_src/base.py" source_line=560}
  %get-tuple-element.1075 = u32[4]{0} get-tuple-element((s32[], s32[], u32[10,2]{1,0}, u32[10,2]{1,0}, u32[10,1]{1,0}, /*index=5*/u32[10,1]{1,0}, u32[10,1]{1,0}, u32[4]{0}, u32[4]{0}) %parameter.1067), index=7
  %slice.1080 = u32[1]{0} slice(u32[4]{0} %get-tuple-element.1075), slice={[0:1]}, metadata={op_type="slice" op_name="jit(init)/body/slice[limit_indices=(1,) start_indices=(0,) strides=(1,)]" source_file="/mnt/home/linmin/g/lib/python3.8/site-packages/haiku/_src/base.py" source_line=560}
  %reshape.1081 = u32[] reshape(u32[1]{0} %slice.1080), metadata={op_type="squeeze" op_name="jit(init)/body/squeeze[dimensions=(0,)]" source_file="/mnt/home/linmin/g/lib/python3.8/site-packages/haiku/_src/base.py" source_line=560}
  %broadcast.1089 = u32[10,2]{1,0} broadcast(u32[] %reshape.1081), dimensions={}, metadata={op_type="shift_left" op_name="jit(init)/body/shift_left" source_file="/mnt/home/linmin/g/lib/python3.8/site-packages/haiku/_src/base.py" source_line=560}
  %shift-left.1090 = u32[10,2]{1,0} shift-left(u32[10,2]{1,0} %get-tuple-element.1071, u32[10,2]{1,0} %broadcast.1089), metadata={op_type="shift_left" op_name="jit(init)/body/shift_left" source_file="/mnt/home/linmin/g/lib/python3.8/site-packages/haiku/_src/base.py" source_line=560}
  %constant.1091 = u32[] constant(32), metadata={op_type="sub" op_name="jit(init)/body/sub" source_file="/mnt/home/linmin/g/lib/python3.8/site-packages/haiku/_src/base.py" source_line=560}
  %subtract.1092 = u32[] subtract(u32[] %constant.1091, u32[] %reshape.1081), metadata={op_type="sub" op_name="jit(init)/body/sub" source_file="/mnt/home/linmin/g/lib/python3.8/site-packages/haiku/_src/base.py" source_line=560}
  %broadcast.1093 = u32[10,2]{1,0} broadcast(u32[] %subtract.1092), dimensions={}, metadata={op_type="shift_right_logical" op_name="jit(init)/body/shift_right_logical" source_file="/mnt/home/linmin/g/lib/python3.8/site-packages/haiku/_src/base.py" source_line=560}
  %shift-right-logical.1094 = u32[10,2]{1,0} shift-right-logical(u32[10,2]{1,0} %get-tuple-element.1071, u32[10,2]{1,0} %broadcast.1093), metadata={op_type="shift_right_logical" op_name="jit(init)/body/shift_right_logical" source_file="/mnt/home/linmin/g/lib/python3.8/site-packages/haiku/_src/base.py" source_line=560}
  %or.1095 = u32[10,2]{1,0} or(u32[10,2]{1,0} %shift-left.1090, u32[10,2]{1,0} %shift-right-logical.1094), metadata={op_type="or" op_name="jit(init)/body/or" source_file="/mnt/home/linmin/g/lib/python3.8/site-packages/haiku/_src/base.py" source_line=560}
  %xor.1096 = u32[10,2]{1,0} xor(u32[10,2]{1,0} %add.1088, u32[10,2]{1,0} %or.1095), metadata={op_type="xor" op_name="jit(init)/body/xor" source_file="/mnt/home/linmin/g/lib/python3.8/site-packages/haiku/_src/base.py" source_line=560}
  %add.1097 = u32[10,2]{1,0} add(u32[10,2]{1,0} %add.1088, u32[10,2]{1,0} %xor.1096), metadata={op_type="add" op_name="jit(init)/body/add" source_file="/mnt/home/linmin/g/lib/python3.8/site-packages/haiku/_src/base.py" source_line=560}
  %slice.1082 = u32[1]{0} slice(u32[4]{0} %get-tuple-element.1075), slice={[1:2]}, metadata={op_type="slice" op_name="jit(init)/body/slice[limit_indices=(2,) start_indices=(1,) strides=(1,)]" source_file="/mnt/home/linmin/g/lib/python3.8/site-packages/haiku/_src/base.py" source_line=560}
  %reshape.1083 = u32[] reshape(u32[1]{0} %slice.1082), metadata={op_type="squeeze" op_name="jit(init)/body/squeeze[dimensions=(0,)]" source_file="/mnt/home/linmin/g/lib/python3.8/site-packages/haiku/_src/base.py" source_line=560}
  %broadcast.1098 = u32[10,2]{1,0} broadcast(u32[] %reshape.1083), dimensions={}, metadata={op_type="shift_left" op_name="jit(init)/body/shift_left" source_file="/mnt/home/linmin/g/lib/python3.8/site-packages/haiku/_src/base.py" source_line=560}
  %shift-left.1099 = u32[10,2]{1,0} shift-left(u32[10,2]{1,0} %xor.1096, u32[10,2]{1,0} %broadcast.1098), metadata={op_type="shift_left" op_name="jit(init)/body/shift_left" source_file="/mnt/home/linmin/g/lib/python3.8/site-packages/haiku/_src/base.py" source_line=560}
  %constant.1100 = u32[] constant(32), metadata={op_type="sub" op_name="jit(init)/body/sub" source_file="/mnt/home/linmin/g/lib/python3.8/site-packages/haiku/_src/base.py" source_line=560}
  %subtract.1101 = u32[] subtract(u32[] %constant.1100, u32[] %reshape.1083), metadata={op_type="sub" op_name="jit(init)/body/sub" source_file="/mnt/home/linmin/g/lib/python3.8/site-packages/haiku/_src/base.py" source_line=560}
  %broadcast.1102 = u32[10,2]{1,0} broadcast(u32[] %subtract.1101), dimensions={}, metadata={op_type="shift_right_logical" op_name="jit(init)/body/shift_right_logical" source_file="/mnt/home/linmin/g/lib/python3.8/site-packages/haiku/_src/base.py" source_line=560}
  %shift-right-logical.1103 = u32[10,2]{1,0} shift-right-logical(u32[10,2]{1,0} %xor.1096, u32[10,2]{1,0} %broadcast.1102), metadata={op_type="shift_right_logical" op_name="jit(init)/body/shift_right_logical" source_file="/mnt/home/linmin/g/lib/python3.8/site-packages/haiku/_src/base.py" source_line=560}
  %or.1104 = u32[10,2]{1,0} or(u32[10,2]{1,0} %shift-left.1099, u32[10,2]{1,0} %shift-right-logical.1103), metadata={op_type="or" op_name="jit(init)/body/or" source_file="/mnt/home/linmin/g/lib/python3.8/site-packages/haiku/_src/base.py" source_line=560}
  %xor.1105 = u32[10,2]{1,0} xor(u32[10,2]{1,0} %add.1097, u32[10,2]{1,0} %or.1104), metadata={op_type="xor" op_name="jit(init)/body/xor" source_file="/mnt/home/linmin/g/lib/python3.8/site-packages/haiku/_src/base.py" source_line=560}
  %add.1106 = u32[10,2]{1,0} add(u32[10,2]{1,0} %add.1097, u32[10,2]{1,0} %xor.1105), metadata={op_type="add" op_name="jit(init)/body/add" source_file="/mnt/home/linmin/g/lib/python3.8/site-packages/haiku/_src/base.py" source_line=560}
  %slice.1084 = u32[1]{0} slice(u32[4]{0} %get-tuple-element.1075), slice={[2:3]}, metadata={op_type="slice" op_name="jit(init)/body/slice[limit_indices=(3,) start_indices=(2,) strides=(1,)]" source_file="/mnt/home/linmin/g/lib/python3.8/site-packages/haiku/_src/base.py" source_line=560}
  %reshape.1085 = u32[] reshape(u32[1]{0} %slice.1084), metadata={op_type="squeeze" op_name="jit(init)/body/squeeze[dimensions=(0,)]" source_file="/mnt/home/linmin/g/lib/python3.8/site-packages/haiku/_src/base.py" source_line=560}
  %broadcast.1107 = u32[10,2]{1,0} broadcast(u32[] %reshape.1085), dimensions={}, metadata={op_type="shift_left" op_name="jit(init)/body/shift_left" source_file="/mnt/home/linmin/g/lib/python3.8/site-packages/haiku/_src/base.py" source_line=560}
  %shift-left.1108 = u32[10,2]{1,0} shift-left(u32[10,2]{1,0} %xor.1105, u32[10,2]{1,0} %broadcast.1107), metadata={op_type="shift_left" op_name="jit(init)/body/shift_left" source_file="/mnt/home/linmin/g/lib/python3.8/site-packages/haiku/_src/base.py" source_line=560}
  %constant.1109 = u32[] constant(32), metadata={op_type="sub" op_name="jit(init)/body/sub" source_file="/mnt/home/linmin/g/lib/python3.8/site-packages/haiku/_src/base.py" source_line=560}
  %subtract.1110 = u32[] subtract(u32[] %constant.1109, u32[] %reshape.1085), metadata={op_type="sub" op_name="jit(init)/body/sub" source_file="/mnt/home/linmin/g/lib/python3.8/site-packages/haiku/_src/base.py" source_line=560}
  %broadcast.1111 = u32[10,2]{1,0} broadcast(u32[] %subtract.1110), dimensions={}, metadata={op_type="shift_right_logical" op_name="jit(init)/body/shift_right_logical" source_file="/mnt/home/linmin/g/lib/python3.8/site-packages/haiku/_src/base.py" source_line=560}
  %shift-right-logical.1112 = u32[10,2]{1,0} shift-right-logical(u32[10,2]{1,0} %xor.1105, u32[10,2]{1,0} %broadcast.1111), metadata={op_type="shift_right_logical" op_name="jit(init)/body/shift_right_logical" source_file="/mnt/home/linmin/g/lib/python3.8/site-packages/haiku/_src/base.py" source_line=560}
  %or.1113 = u32[10,2]{1,0} or(u32[10,2]{1,0} %shift-left.1108, u32[10,2]{1,0} %shift-right-logical.1112), metadata={op_type="or" op_name="jit(init)/body/or" source_file="/mnt/home/linmin/g/lib/python3.8/site-packages/haiku/_src/base.py" source_line=560}
  %xor.1114 = u32[10,2]{1,0} xor(u32[10,2]{1,0} %add.1106, u32[10,2]{1,0} %or.1113), metadata={op_type="xor" op_name="jit(init)/body/xor" source_file="/mnt/home/linmin/g/lib/python3.8/site-packages/haiku/_src/base.py" source_line=560}
  %add.1115 = u32[10,2]{1,0} add(u32[10,2]{1,0} %add.1106, u32[10,2]{1,0} %xor.1114), metadata={op_type="add" op_name="jit(init)/body/add" source_file="/mnt/home/linmin/g/lib/python3.8/site-packages/haiku/_src/base.py" source_line=560}
  %get-tuple-element.1072 = u32[10,1]{1,0} get-tuple-element((s32[], s32[], u32[10,2]{1,0}, u32[10,2]{1,0}, u32[10,1]{1,0}, /*index=5*/u32[10,1]{1,0}, u32[10,1]{1,0}, u32[4]{0}, u32[4]{0}) %parameter.1067), index=4
  %reshape.1124 = u32[10]{0} reshape(u32[10,1]{1,0} %get-tuple-element.1072), metadata={op_type="add" op_name="jit(init)/body/add" source_file="/mnt/home/linmin/g/lib/python3.8/site-packages/haiku/_src/base.py" source_line=560}
  %broadcast.1125 = u32[10,2]{1,0} broadcast(u32[10]{0} %reshape.1124), dimensions={0}, metadata={op_type="add" op_name="jit(init)/body/add" source_file="/mnt/home/linmin/g/lib/python3.8/site-packages/haiku/_src/base.py" source_line=560}
  %add.1126 = u32[10,2]{1,0} add(u32[10,2]{1,0} %add.1115, u32[10,2]{1,0} %broadcast.1125), metadata={op_type="add" op_name="jit(init)/body/add" source_file="/mnt/home/linmin/g/lib/python3.8/site-packages/haiku/_src/base.py" source_line=560}
  %slice.1086 = u32[1]{0} slice(u32[4]{0} %get-tuple-element.1075), slice={[3:4]}, metadata={op_type="slice" op_name="jit(init)/body/slice[limit_indices=(4,) start_indices=(3,) strides=(1,)]" source_file="/mnt/home/linmin/g/lib/python3.8/site-packages/haiku/_src/base.py" source_line=560}
  %reshape.1087 = u32[] reshape(u32[1]{0} %slice.1086), metadata={op_type="squeeze" op_name="jit(init)/body/squeeze[dimensions=(0,)]" source_file="/mnt/home/linmin/g/lib/python3.8/site-packages/haiku/_src/base.py" source_line=560}
  %broadcast.1116 = u32[10,2]{1,0} broadcast(u32[] %reshape.1087), dimensions={}, metadata={op_type="shift_left" op_name="jit(init)/body/shift_left" source_file="/mnt/home/linmin/g/lib/python3.8/site-packages/haiku/_src/base.py" source_line=560}
  %shift-left.1117 = u32[10,2]{1,0} shift-left(u32[10,2]{1,0} %xor.1114, u32[10,2]{1,0} %broadcast.1116), metadata={op_type="shift_left" op_name="jit(init)/body/shift_left" source_file="/mnt/home/linmin/g/lib/python3.8/site-packages/haiku/_src/base.py" source_line=560}
  %constant.1118 = u32[] constant(32), metadata={op_type="sub" op_name="jit(init)/body/sub" source_file="/mnt/home/linmin/g/lib/python3.8/site-packages/haiku/_src/base.py" source_line=560}
  %subtract.1119 = u32[] subtract(u32[] %constant.1118, u32[] %reshape.1087), metadata={op_type="sub" op_name="jit(init)/body/sub" source_file="/mnt/home/linmin/g/lib/python3.8/site-packages/haiku/_src/base.py" source_line=560}
  %broadcast.1120 = u32[10,2]{1,0} broadcast(u32[] %subtract.1119), dimensions={}, metadata={op_type="shift_right_logical" op_name="jit(init)/body/shift_right_logical" source_file="/mnt/home/linmin/g/lib/python3.8/site-packages/haiku/_src/base.py" source_line=560}
  %shift-right-logical.1121 = u32[10,2]{1,0} shift-right-logical(u32[10,2]{1,0} %xor.1114, u32[10,2]{1,0} %broadcast.1120), metadata={op_type="shift_right_logical" op_name="jit(init)/body/shift_right_logical" source_file="/mnt/home/linmin/g/lib/python3.8/site-packages/haiku/_src/base.py" source_line=560}
  %or.1122 = u32[10,2]{1,0} or(u32[10,2]{1,0} %shift-left.1117, u32[10,2]{1,0} %shift-right-logical.1121), metadata={op_type="or" op_name="jit(init)/body/or" source_file="/mnt/home/linmin/g/lib/python3.8/site-packages/haiku/_src/base.py" source_line=560}
  %xor.1123 = u32[10,2]{1,0} xor(u32[10,2]{1,0} %add.1115, u32[10,2]{1,0} %or.1122), metadata={op_type="xor" op_name="jit(init)/body/xor" source_file="/mnt/home/linmin/g/lib/python3.8/site-packages/haiku/_src/base.py" source_line=560}
  %get-tuple-element.1073 = u32[10,1]{1,0} get-tuple-element((s32[], s32[], u32[10,2]{1,0}, u32[10,2]{1,0}, u32[10,1]{1,0}, /*index=5*/u32[10,1]{1,0}, u32[10,1]{1,0}, u32[4]{0}, u32[4]{0}) %parameter.1067), index=5
  %reshape.1127 = u32[10]{0} reshape(u32[10,1]{1,0} %get-tuple-element.1073), metadata={op_type="add" op_name="jit(init)/body/add" source_file="/mnt/home/linmin/g/lib/python3.8/site-packages/haiku/_src/base.py" source_line=560}
  %broadcast.1128 = u32[10,2]{1,0} broadcast(u32[10]{0} %reshape.1127), dimensions={0}, metadata={op_type="add" op_name="jit(init)/body/add" source_file="/mnt/home/linmin/g/lib/python3.8/site-packages/haiku/_src/base.py" source_line=560}
  %add.1129 = u32[10,2]{1,0} add(u32[10,2]{1,0} %xor.1123, u32[10,2]{1,0} %broadcast.1128), metadata={op_type="add" op_name="jit(init)/body/add" source_file="/mnt/home/linmin/g/lib/python3.8/site-packages/haiku/_src/base.py" source_line=560}
  %constant.1130 = s32[] constant(1), metadata={op_type="add" op_name="jit(init)/body/add" source_file="/mnt/home/linmin/g/lib/python3.8/site-packages/haiku/_src/base.py" source_line=560}
  %add.1131 = s32[] add(s32[] %get-tuple-element.1069, s32[] %constant.1130), metadata={op_type="add" op_name="jit(init)/body/add" source_file="/mnt/home/linmin/g/lib/python3.8/site-packages/haiku/_src/base.py" source_line=560}
  %convert.1132 = u32[] convert(s32[] %add.1131), metadata={op_type="convert_element_type" op_name="jit(init)/body/convert_element_type[new_dtype=uint32 weak_type=False]" source_file="/mnt/home/linmin/g/lib/python3.8/site-packages/haiku/_src/base.py" source_line=560}
  %broadcast.1133 = u32[10,2]{1,0} broadcast(u32[] %convert.1132), dimensions={}, metadata={op_type="add" op_name="jit(init)/body/add" source_file="/mnt/home/linmin/g/lib/python3.8/site-packages/haiku/_src/base.py" source_line=560}
  %add.1134 = u32[10,2]{1,0} add(u32[10,2]{1,0} %add.1129, u32[10,2]{1,0} %broadcast.1133), metadata={op_type="add" op_name="jit(init)/body/add" source_file="/mnt/home/linmin/g/lib/python3.8/site-packages/haiku/_src/base.py" source_line=560}
  %get-tuple-element.1074 = u32[10,1]{1,0} get-tuple-element((s32[], s32[], u32[10,2]{1,0}, u32[10,2]{1,0}, u32[10,1]{1,0}, /*index=5*/u32[10,1]{1,0}, u32[10,1]{1,0}, u32[4]{0}, u32[4]{0}) %parameter.1067), index=6
  %get-tuple-element.1076 = u32[4]{0} get-tuple-element((s32[], s32[], u32[10,2]{1,0}, u32[10,2]{1,0}, u32[10,1]{1,0}, /*index=5*/u32[10,1]{1,0}, u32[10,1]{1,0}, u32[4]{0}, u32[4]{0}) %parameter.1067), index=8
  ROOT %tuple.1137 = (s32[], s32[], u32[10,2]{1,0}, u32[10,2]{1,0}, u32[10,1]{1,0}, /*index=5*/u32[10,1]{1,0}, u32[10,1]{1,0}, u32[4]{0}, u32[4]{0}) tuple(s32[] %add.1136, s32[] %add.1079, u32[10,2]{1,0} %add.1126, u32[10,2]{1,0} %add.1134, u32[10,1]{1,0} %get-tuple-element.1073, /*index=5*/u32[10,1]{1,0} %get-tuple-element.1074, u32[10,1]{1,0} %get-tuple-element.1072, u32[4]{0} %get-tuple-element.1076, u32[4]{0} %get-tuple-element.1075)
}

%cond_computation__5.1138 (parameter.1139: (s32[], s32[], u32[10,2], u32[10,2], u32[10,1], /*index=5*/u32[10,1], u32[10,1], u32[4], u32[4])) -> pred[] {
  %parameter.1139 = (s32[], s32[], u32[10,2]{1,0}, u32[10,2]{1,0}, u32[10,1]{1,0}, /*index=5*/u32[10,1]{1,0}, u32[10,1]{1,0}, u32[4]{0}, u32[4]{0}) parameter(0)
  %get-tuple-element.1141 = s32[] get-tuple-element((s32[], s32[], u32[10,2]{1,0}, u32[10,2]{1,0}, u32[10,1]{1,0}, /*index=5*/u32[10,1]{1,0}, u32[10,1]{1,0}, u32[4]{0}, u32[4]{0}) %parameter.1139), index=1
  %get-tuple-element.1142 = u32[10,2]{1,0} get-tuple-element((s32[], s32[], u32[10,2]{1,0}, u32[10,2]{1,0}, u32[10,1]{1,0}, /*index=5*/u32[10,1]{1,0}, u32[10,1]{1,0}, u32[4]{0}, u32[4]{0}) %parameter.1139), index=2
  %get-tuple-element.1143 = u32[10,2]{1,0} get-tuple-element((s32[], s32[], u32[10,2]{1,0}, u32[10,2]{1,0}, u32[10,1]{1,0}, /*index=5*/u32[10,1]{1,0}, u32[10,1]{1,0}, u32[4]{0}, u32[4]{0}) %parameter.1139), index=3
  %get-tuple-element.1144 = u32[10,1]{1,0} get-tuple-element((s32[], s32[], u32[10,2]{1,0}, u32[10,2]{1,0}, u32[10,1]{1,0}, /*index=5*/u32[10,1]{1,0}, u32[10,1]{1,0}, u32[4]{0}, u32[4]{0}) %parameter.1139), index=4
  %get-tuple-element.1145 = u32[10,1]{1,0} get-tuple-element((s32[], s32[], u32[10,2]{1,0}, u32[10,2]{1,0}, u32[10,1]{1,0}, /*index=5*/u32[10,1]{1,0}, u32[10,1]{1,0}, u32[4]{0}, u32[4]{0}) %parameter.1139), index=5
  %get-tuple-element.1146 = u32[10,1]{1,0} get-tuple-element((s32[], s32[], u32[10,2]{1,0}, u32[10,2]{1,0}, u32[10,1]{1,0}, /*index=5*/u32[10,1]{1,0}, u32[10,1]{1,0}, u32[4]{0}, u32[4]{0}) %parameter.1139), index=6
  %get-tuple-element.1147 = u32[4]{0} get-tuple-element((s32[], s32[], u32[10,2]{1,0}, u32[10,2]{1,0}, u32[10,1]{1,0}, /*index=5*/u32[10,1]{1,0}, u32[10,1]{1,0}, u32[4]{0}, u32[4]{0}) %parameter.1139), index=7
  %get-tuple-element.1148 = u32[4]{0} get-tuple-element((s32[], s32[], u32[10,2]{1,0}, u32[10,2]{1,0}, u32[10,1]{1,0}, /*index=5*/u32[10,1]{1,0}, u32[10,1]{1,0}, u32[4]{0}, u32[4]{0}) %parameter.1139), index=8
  %constant.1149 = pred[] constant(false)
  %get-tuple-element.1140 = s32[] get-tuple-element((s32[], s32[], u32[10,2]{1,0}, u32[10,2]{1,0}, u32[10,1]{1,0}, /*index=5*/u32[10,1]{1,0}, u32[10,1]{1,0}, u32[4]{0}, u32[4]{0}) %parameter.1139), index=0
  %constant.1150 = s32[] constant(5), metadata={op_type="lt" op_name="jit(init)/cond/lt" source_file="/mnt/home/linmin/g/lib/python3.8/site-packages/haiku/_src/base.py" source_line=560}
  ROOT %compare.1151 = pred[] compare(s32[] %get-tuple-element.1140, s32[] %constant.1150), direction=LT, metadata={op_type="lt" op_name="jit(init)/cond/lt" source_file="/mnt/home/linmin/g/lib/python3.8/site-packages/haiku/_src/base.py" source_line=560}
}

%body_computation__6.1200 (parameter.1201: (s32[], s32[], u32[10,39200], u32[10,39200], u32[10,1], /*index=5*/u32[10,1], u32[10,1], u32[4], u32[4])) -> (s32[], s32[], u32[10,39200], u32[10,39200], u32[10,1], /*index=5*/u32[10,1], u32[10,1], u32[4], u32[4]) {
  %constant.1211 = pred[] constant(false)
  %parameter.1201 = (s32[], s32[], u32[10,39200]{1,0}, u32[10,39200]{1,0}, u32[10,1]{1,0}, /*index=5*/u32[10,1]{1,0}, u32[10,1]{1,0}, u32[4]{0}, u32[4]{0}) parameter(0)
  %get-tuple-element.1202 = s32[] get-tuple-element((s32[], s32[], u32[10,39200]{1,0}, u32[10,39200]{1,0}, u32[10,1]{1,0}, /*index=5*/u32[10,1]{1,0}, u32[10,1]{1,0}, u32[4]{0}, u32[4]{0}) %parameter.1201), index=0
  %constant.1269 = s32[] constant(1), metadata={op_type="add" op_name="jit(init)/body/add" source_file="/mnt/home/linmin/g/lib/python3.8/site-packages/haiku/_src/initializers.py" source_line=82}
  %add.1270 = s32[] add(s32[] %get-tuple-element.1202, s32[] %constant.1269), metadata={op_type="add" op_name="jit(init)/body/add" source_file="/mnt/home/linmin/g/lib/python3.8/site-packages/haiku/_src/initializers.py" source_line=82}
  %get-tuple-element.1203 = s32[] get-tuple-element((s32[], s32[], u32[10,39200]{1,0}, u32[10,39200]{1,0}, u32[10,1]{1,0}, /*index=5*/u32[10,1]{1,0}, u32[10,1]{1,0}, u32[4]{0}, u32[4]{0}) %parameter.1201), index=1
  %constant.1212 = s32[] constant(1), metadata={op_type="add" op_name="jit(init)/body/add" source_file="/mnt/home/linmin/g/lib/python3.8/site-packages/haiku/_src/initializers.py" source_line=82}
  %add.1213 = s32[] add(s32[] %get-tuple-element.1203, s32[] %constant.1212), metadata={op_type="add" op_name="jit(init)/body/add" source_file="/mnt/home/linmin/g/lib/python3.8/site-packages/haiku/_src/initializers.py" source_line=82}
  %get-tuple-element.1204 = u32[10,39200]{1,0} get-tuple-element((s32[], s32[], u32[10,39200]{1,0}, u32[10,39200]{1,0}, u32[10,1]{1,0}, /*index=5*/u32[10,1]{1,0}, u32[10,1]{1,0}, u32[4]{0}, u32[4]{0}) %parameter.1201), index=2
  %get-tuple-element.1205 = u32[10,39200]{1,0} get-tuple-element((s32[], s32[], u32[10,39200]{1,0}, u32[10,39200]{1,0}, u32[10,1]{1,0}, /*index=5*/u32[10,1]{1,0}, u32[10,1]{1,0}, u32[4]{0}, u32[4]{0}) %parameter.1201), index=3
  %add.1222 = u32[10,39200]{1,0} add(u32[10,39200]{1,0} %get-tuple-element.1204, u32[10,39200]{1,0} %get-tuple-element.1205), metadata={op_type="add" op_name="jit(init)/body/add" source_file="/mnt/home/linmin/g/lib/python3.8/site-packages/haiku/_src/initializers.py" source_line=82}
  %get-tuple-element.1209 = u32[4]{0} get-tuple-element((s32[], s32[], u32[10,39200]{1,0}, u32[10,39200]{1,0}, u32[10,1]{1,0}, /*index=5*/u32[10,1]{1,0}, u32[10,1]{1,0}, u32[4]{0}, u32[4]{0}) %parameter.1201), index=7
  %slice.1214 = u32[1]{0} slice(u32[4]{0} %get-tuple-element.1209), slice={[0:1]}, metadata={op_type="slice" op_name="jit(init)/body/slice[limit_indices=(1,) start_indices=(0,) strides=(1,)]" source_file="/mnt/home/linmin/g/lib/python3.8/site-packages/haiku/_src/initializers.py" source_line=82}
  %reshape.1215 = u32[] reshape(u32[1]{0} %slice.1214), metadata={op_type="squeeze" op_name="jit(init)/body/squeeze[dimensions=(0,)]" source_file="/mnt/home/linmin/g/lib/python3.8/site-packages/haiku/_src/initializers.py" source_line=82}
  %broadcast.1223 = u32[10,39200]{1,0} broadcast(u32[] %reshape.1215), dimensions={}, metadata={op_type="shift_left" op_name="jit(init)/body/shift_left" source_file="/mnt/home/linmin/g/lib/python3.8/site-packages/haiku/_src/initializers.py" source_line=82}
  %shift-left.1224 = u32[10,39200]{1,0} shift-left(u32[10,39200]{1,0} %get-tuple-element.1205, u32[10,39200]{1,0} %broadcast.1223), metadata={op_type="shift_left" op_name="jit(init)/body/shift_left" source_file="/mnt/home/linmin/g/lib/python3.8/site-packages/haiku/_src/initializers.py" source_line=82}
  %constant.1225 = u32[] constant(32), metadata={op_type="sub" op_name="jit(init)/body/sub" source_file="/mnt/home/linmin/g/lib/python3.8/site-packages/haiku/_src/initializers.py" source_line=82}
  %subtract.1226 = u32[] subtract(u32[] %constant.1225, u32[] %reshape.1215), metadata={op_type="sub" op_name="jit(init)/body/sub" source_file="/mnt/home/linmin/g/lib/python3.8/site-packages/haiku/_src/initializers.py" source_line=82}
  %broadcast.1227 = u32[10,39200]{1,0} broadcast(u32[] %subtract.1226), dimensions={}, metadata={op_type="shift_right_logical" op_name="jit(init)/body/shift_right_logical" source_file="/mnt/home/linmin/g/lib/python3.8/site-packages/haiku/_src/initializers.py" source_line=82}
  %shift-right-logical.1228 = u32[10,39200]{1,0} shift-right-logical(u32[10,39200]{1,0} %get-tuple-element.1205, u32[10,39200]{1,0} %broadcast.1227), metadata={op_type="shift_right_logical" op_name="jit(init)/body/shift_right_logical" source_file="/mnt/home/linmin/g/lib/python3.8/site-packages/haiku/_src/initializers.py" source_line=82}
  %or.1229 = u32[10,39200]{1,0} or(u32[10,39200]{1,0} %shift-left.1224, u32[10,39200]{1,0} %shift-right-logical.1228), metadata={op_type="or" op_name="jit(init)/body/or" source_file="/mnt/home/linmin/g/lib/python3.8/site-packages/haiku/_src/initializers.py" source_line=82}
  %xor.1230 = u32[10,39200]{1,0} xor(u32[10,39200]{1,0} %add.1222, u32[10,39200]{1,0} %or.1229), metadata={op_type="xor" op_name="jit(init)/body/xor" source_file="/mnt/home/linmin/g/lib/python3.8/site-packages/haiku/_src/initializers.py" source_line=82}
  %add.1231 = u32[10,39200]{1,0} add(u32[10,39200]{1,0} %add.1222, u32[10,39200]{1,0} %xor.1230), metadata={op_type="add" op_name="jit(init)/body/add" source_file="/mnt/home/linmin/g/lib/python3.8/site-packages/haiku/_src/initializers.py" source_line=82}
  %slice.1216 = u32[1]{0} slice(u32[4]{0} %get-tuple-element.1209), slice={[1:2]}, metadata={op_type="slice" op_name="jit(init)/body/slice[limit_indices=(2,) start_indices=(1,) strides=(1,)]" source_file="/mnt/home/linmin/g/lib/python3.8/site-packages/haiku/_src/initializers.py" source_line=82}
  %reshape.1217 = u32[] reshape(u32[1]{0} %slice.1216), metadata={op_type="squeeze" op_name="jit(init)/body/squeeze[dimensions=(0,)]" source_file="/mnt/home/linmin/g/lib/python3.8/site-packages/haiku/_src/initializers.py" source_line=82}
  %broadcast.1232 = u32[10,39200]{1,0} broadcast(u32[] %reshape.1217), dimensions={}, metadata={op_type="shift_left" op_name="jit(init)/body/shift_left" source_file="/mnt/home/linmin/g/lib/python3.8/site-packages/haiku/_src/initializers.py" source_line=82}
  %shift-left.1233 = u32[10,39200]{1,0} shift-left(u32[10,39200]{1,0} %xor.1230, u32[10,39200]{1,0} %broadcast.1232), metadata={op_type="shift_left" op_name="jit(init)/body/shift_left" source_file="/mnt/home/linmin/g/lib/python3.8/site-packages/haiku/_src/initializers.py" source_line=82}
  %constant.1234 = u32[] constant(32), metadata={op_type="sub" op_name="jit(init)/body/sub" source_file="/mnt/home/linmin/g/lib/python3.8/site-packages/haiku/_src/initializers.py" source_line=82}
  %subtract.1235 = u32[] subtract(u32[] %constant.1234, u32[] %reshape.1217), metadata={op_type="sub" op_name="jit(init)/body/sub" source_file="/mnt/home/linmin/g/lib/python3.8/site-packages/haiku/_src/initializers.py" source_line=82}
  %broadcast.1236 = u32[10,39200]{1,0} broadcast(u32[] %subtract.1235), dimensions={}, metadata={op_type="shift_right_logical" op_name="jit(init)/body/shift_right_logical" source_file="/mnt/home/linmin/g/lib/python3.8/site-packages/haiku/_src/initializers.py" source_line=82}
  %shift-right-logical.1237 = u32[10,39200]{1,0} shift-right-logical(u32[10,39200]{1,0} %xor.1230, u32[10,39200]{1,0} %broadcast.1236), metadata={op_type="shift_right_logical" op_name="jit(init)/body/shift_right_logical" source_file="/mnt/home/linmin/g/lib/python3.8/site-packages/haiku/_src/initializers.py" source_line=82}
  %or.1238 = u32[10,39200]{1,0} or(u32[10,39200]{1,0} %shift-left.1233, u32[10,39200]{1,0} %shift-right-logical.1237), metadata={op_type="or" op_name="jit(init)/body/or" source_file="/mnt/home/linmin/g/lib/python3.8/site-packages/haiku/_src/initializers.py" source_line=82}
  %xor.1239 = u32[10,39200]{1,0} xor(u32[10,39200]{1,0} %add.1231, u32[10,39200]{1,0} %or.1238), metadata={op_type="xor" op_name="jit(init)/body/xor" source_file="/mnt/home/linmin/g/lib/python3.8/site-packages/haiku/_src/initializers.py" source_line=82}
  %add.1240 = u32[10,39200]{1,0} add(u32[10,39200]{1,0} %add.1231, u32[10,39200]{1,0} %xor.1239), metadata={op_type="add" op_name="jit(init)/body/add" source_file="/mnt/home/linmin/g/lib/python3.8/site-packages/haiku/_src/initializers.py" source_line=82}
  %slice.1218 = u32[1]{0} slice(u32[4]{0} %get-tuple-element.1209), slice={[2:3]}, metadata={op_type="slice" op_name="jit(init)/body/slice[limit_indices=(3,) start_indices=(2,) strides=(1,)]" source_file="/mnt/home/linmin/g/lib/python3.8/site-packages/haiku/_src/initializers.py" source_line=82}
  %reshape.1219 = u32[] reshape(u32[1]{0} %slice.1218), metadata={op_type="squeeze" op_name="jit(init)/body/squeeze[dimensions=(0,)]" source_file="/mnt/home/linmin/g/lib/python3.8/site-packages/haiku/_src/initializers.py" source_line=82}
  %broadcast.1241 = u32[10,39200]{1,0} broadcast(u32[] %reshape.1219), dimensions={}, metadata={op_type="shift_left" op_name="jit(init)/body/shift_left" source_file="/mnt/home/linmin/g/lib/python3.8/site-packages/haiku/_src/initializers.py" source_line=82}
  %shift-left.1242 = u32[10,39200]{1,0} shift-left(u32[10,39200]{1,0} %xor.1239, u32[10,39200]{1,0} %broadcast.1241), metadata={op_type="shift_left" op_name="jit(init)/body/shift_left" source_file="/mnt/home/linmin/g/lib/python3.8/site-packages/haiku/_src/initializers.py" source_line=82}
  %constant.1243 = u32[] constant(32), metadata={op_type="sub" op_name="jit(init)/body/sub" source_file="/mnt/home/linmin/g/lib/python3.8/site-packages/haiku/_src/initializers.py" source_line=82}
  %subtract.1244 = u32[] subtract(u32[] %constant.1243, u32[] %reshape.1219), metadata={op_type="sub" op_name="jit(init)/body/sub" source_file="/mnt/home/linmin/g/lib/python3.8/site-packages/haiku/_src/initializers.py" source_line=82}
  %broadcast.1245 = u32[10,39200]{1,0} broadcast(u32[] %subtract.1244), dimensions={}, metadata={op_type="shift_right_logical" op_name="jit(init)/body/shift_right_logical" source_file="/mnt/home/linmin/g/lib/python3.8/site-packages/haiku/_src/initializers.py" source_line=82}
  %shift-right-logical.1246 = u32[10,39200]{1,0} shift-right-logical(u32[10,39200]{1,0} %xor.1239, u32[10,39200]{1,0} %broadcast.1245), metadata={op_type="shift_right_logical" op_name="jit(init)/body/shift_right_logical" source_file="/mnt/home/linmin/g/lib/python3.8/site-packages/haiku/_src/initializers.py" source_line=82}
  %or.1247 = u32[10,39200]{1,0} or(u32[10,39200]{1,0} %shift-left.1242, u32[10,39200]{1,0} %shift-right-logical.1246), metadata={op_type="or" op_name="jit(init)/body/or" source_file="/mnt/home/linmin/g/lib/python3.8/site-packages/haiku/_src/initializers.py" source_line=82}
  %xor.1248 = u32[10,39200]{1,0} xor(u32[10,39200]{1,0} %add.1240, u32[10,39200]{1,0} %or.1247), metadata={op_type="xor" op_name="jit(init)/body/xor" source_file="/mnt/home/linmin/g/lib/python3.8/site-packages/haiku/_src/initializers.py" source_line=82}
  %add.1249 = u32[10,39200]{1,0} add(u32[10,39200]{1,0} %add.1240, u32[10,39200]{1,0} %xor.1248), metadata={op_type="add" op_name="jit(init)/body/add" source_file="/mnt/home/linmin/g/lib/python3.8/site-packages/haiku/_src/initializers.py" source_line=82}
  %get-tuple-element.1206 = u32[10,1]{1,0} get-tuple-element((s32[], s32[], u32[10,39200]{1,0}, u32[10,39200]{1,0}, u32[10,1]{1,0}, /*index=5*/u32[10,1]{1,0}, u32[10,1]{1,0}, u32[4]{0}, u32[4]{0}) %parameter.1201), index=4
  %reshape.1258 = u32[10]{0} reshape(u32[10,1]{1,0} %get-tuple-element.1206), metadata={op_type="add" op_name="jit(init)/body/add" source_file="/mnt/home/linmin/g/lib/python3.8/site-packages/haiku/_src/initializers.py" source_line=82}
  %broadcast.1259 = u32[10,39200]{1,0} broadcast(u32[10]{0} %reshape.1258), dimensions={0}, metadata={op_type="add" op_name="jit(init)/body/add" source_file="/mnt/home/linmin/g/lib/python3.8/site-packages/haiku/_src/initializers.py" source_line=82}
  %add.1260 = u32[10,39200]{1,0} add(u32[10,39200]{1,0} %add.1249, u32[10,39200]{1,0} %broadcast.1259), metadata={op_type="add" op_name="jit(init)/body/add" source_file="/mnt/home/linmin/g/lib/python3.8/site-packages/haiku/_src/initializers.py" source_line=82}
  %slice.1220 = u32[1]{0} slice(u32[4]{0} %get-tuple-element.1209), slice={[3:4]}, metadata={op_type="slice" op_name="jit(init)/body/slice[limit_indices=(4,) start_indices=(3,) strides=(1,)]" source_file="/mnt/home/linmin/g/lib/python3.8/site-packages/haiku/_src/initializers.py" source_line=82}
  %reshape.1221 = u32[] reshape(u32[1]{0} %slice.1220), metadata={op_type="squeeze" op_name="jit(init)/body/squeeze[dimensions=(0,)]" source_file="/mnt/home/linmin/g/lib/python3.8/site-packages/haiku/_src/initializers.py" source_line=82}
  %broadcast.1250 = u32[10,39200]{1,0} broadcast(u32[] %reshape.1221), dimensions={}, metadata={op_type="shift_left" op_name="jit(init)/body/shift_left" source_file="/mnt/home/linmin/g/lib/python3.8/site-packages/haiku/_src/initializers.py" source_line=82}
  %shift-left.1251 = u32[10,39200]{1,0} shift-left(u32[10,39200]{1,0} %xor.1248, u32[10,39200]{1,0} %broadcast.1250), metadata={op_type="shift_left" op_name="jit(init)/body/shift_left" source_file="/mnt/home/linmin/g/lib/python3.8/site-packages/haiku/_src/initializers.py" source_line=82}
  %constant.1252 = u32[] constant(32), metadata={op_type="sub" op_name="jit(init)/body/sub" source_file="/mnt/home/linmin/g/lib/python3.8/site-packages/haiku/_src/initializers.py" source_line=82}
  %subtract.1253 = u32[] subtract(u32[] %constant.1252, u32[] %reshape.1221), metadata={op_type="sub" op_name="jit(init)/body/sub" source_file="/mnt/home/linmin/g/lib/python3.8/site-packages/haiku/_src/initializers.py" source_line=82}
  %broadcast.1254 = u32[10,39200]{1,0} broadcast(u32[] %subtract.1253), dimensions={}, metadata={op_type="shift_right_logical" op_name="jit(init)/body/shift_right_logical" source_file="/mnt/home/linmin/g/lib/python3.8/site-packages/haiku/_src/initializers.py" source_line=82}
  %shift-right-logical.1255 = u32[10,39200]{1,0} shift-right-logical(u32[10,39200]{1,0} %xor.1248, u32[10,39200]{1,0} %broadcast.1254), metadata={op_type="shift_right_logical" op_name="jit(init)/body/shift_right_logical" source_file="/mnt/home/linmin/g/lib/python3.8/site-packages/haiku/_src/initializers.py" source_line=82}
  %or.1256 = u32[10,39200]{1,0} or(u32[10,39200]{1,0} %shift-left.1251, u32[10,39200]{1,0} %shift-right-logical.1255), metadata={op_type="or" op_name="jit(init)/body/or" source_file="/mnt/home/linmin/g/lib/python3.8/site-packages/haiku/_src/initializers.py" source_line=82}
  %xor.1257 = u32[10,39200]{1,0} xor(u32[10,39200]{1,0} %add.1249, u32[10,39200]{1,0} %or.1256), metadata={op_type="xor" op_name="jit(init)/body/xor" source_file="/mnt/home/linmin/g/lib/python3.8/site-packages/haiku/_src/initializers.py" source_line=82}
  %get-tuple-element.1207 = u32[10,1]{1,0} get-tuple-element((s32[], s32[], u32[10,39200]{1,0}, u32[10,39200]{1,0}, u32[10,1]{1,0}, /*index=5*/u32[10,1]{1,0}, u32[10,1]{1,0}, u32[4]{0}, u32[4]{0}) %parameter.1201), index=5
  %reshape.1261 = u32[10]{0} reshape(u32[10,1]{1,0} %get-tuple-element.1207), metadata={op_type="add" op_name="jit(init)/body/add" source_file="/mnt/home/linmin/g/lib/python3.8/site-packages/haiku/_src/initializers.py" source_line=82}
  %broadcast.1262 = u32[10,39200]{1,0} broadcast(u32[10]{0} %reshape.1261), dimensions={0}, metadata={op_type="add" op_name="jit(init)/body/add" source_file="/mnt/home/linmin/g/lib/python3.8/site-packages/haiku/_src/initializers.py" source_line=82}
  %add.1263 = u32[10,39200]{1,0} add(u32[10,39200]{1,0} %xor.1257, u32[10,39200]{1,0} %broadcast.1262), metadata={op_type="add" op_name="jit(init)/body/add" source_file="/mnt/home/linmin/g/lib/python3.8/site-packages/haiku/_src/initializers.py" source_line=82}
  %constant.1264 = s32[] constant(1), metadata={op_type="add" op_name="jit(init)/body/add" source_file="/mnt/home/linmin/g/lib/python3.8/site-packages/haiku/_src/initializers.py" source_line=82}
  %add.1265 = s32[] add(s32[] %get-tuple-element.1203, s32[] %constant.1264), metadata={op_type="add" op_name="jit(init)/body/add" source_file="/mnt/home/linmin/g/lib/python3.8/site-packages/haiku/_src/initializers.py" source_line=82}
  %convert.1266 = u32[] convert(s32[] %add.1265), metadata={op_type="convert_element_type" op_name="jit(init)/body/convert_element_type[new_dtype=uint32 weak_type=False]" source_file="/mnt/home/linmin/g/lib/python3.8/site-packages/haiku/_src/initializers.py" source_line=82}
  %broadcast.1267 = u32[10,39200]{1,0} broadcast(u32[] %convert.1266), dimensions={}, metadata={op_type="add" op_name="jit(init)/body/add" source_file="/mnt/home/linmin/g/lib/python3.8/site-packages/haiku/_src/initializers.py" source_line=82}
  %add.1268 = u32[10,39200]{1,0} add(u32[10,39200]{1,0} %add.1263, u32[10,39200]{1,0} %broadcast.1267), metadata={op_type="add" op_name="jit(init)/body/add" source_file="/mnt/home/linmin/g/lib/python3.8/site-packages/haiku/_src/initializers.py" source_line=82}
  %get-tuple-element.1208 = u32[10,1]{1,0} get-tuple-element((s32[], s32[], u32[10,39200]{1,0}, u32[10,39200]{1,0}, u32[10,1]{1,0}, /*index=5*/u32[10,1]{1,0}, u32[10,1]{1,0}, u32[4]{0}, u32[4]{0}) %parameter.1201), index=6
  %get-tuple-element.1210 = u32[4]{0} get-tuple-element((s32[], s32[], u32[10,39200]{1,0}, u32[10,39200]{1,0}, u32[10,1]{1,0}, /*index=5*/u32[10,1]{1,0}, u32[10,1]{1,0}, u32[4]{0}, u32[4]{0}) %parameter.1201), index=8
  ROOT %tuple.1271 = (s32[], s32[], u32[10,39200]{1,0}, u32[10,39200]{1,0}, u32[10,1]{1,0}, /*index=5*/u32[10,1]{1,0}, u32[10,1]{1,0}, u32[4]{0}, u32[4]{0}) tuple(s32[] %add.1270, s32[] %add.1213, u32[10,39200]{1,0} %add.1260, u32[10,39200]{1,0} %add.1268, u32[10,1]{1,0} %get-tuple-element.1207, /*index=5*/u32[10,1]{1,0} %get-tuple-element.1208, u32[10,1]{1,0} %get-tuple-element.1206, u32[4]{0} %get-tuple-element.1210, u32[4]{0} %get-tuple-element.1209)
}

%cond_computation__6.1272 (parameter.1273: (s32[], s32[], u32[10,39200], u32[10,39200], u32[10,1], /*index=5*/u32[10,1], u32[10,1], u32[4], u32[4])) -> pred[] {
  %parameter.1273 = (s32[], s32[], u32[10,39200]{1,0}, u32[10,39200]{1,0}, u32[10,1]{1,0}, /*index=5*/u32[10,1]{1,0}, u32[10,1]{1,0}, u32[4]{0}, u32[4]{0}) parameter(0)
  %get-tuple-element.1275 = s32[] get-tuple-element((s32[], s32[], u32[10,39200]{1,0}, u32[10,39200]{1,0}, u32[10,1]{1,0}, /*index=5*/u32[10,1]{1,0}, u32[10,1]{1,0}, u32[4]{0}, u32[4]{0}) %parameter.1273), index=1
  %get-tuple-element.1276 = u32[10,39200]{1,0} get-tuple-element((s32[], s32[], u32[10,39200]{1,0}, u32[10,39200]{1,0}, u32[10,1]{1,0}, /*index=5*/u32[10,1]{1,0}, u32[10,1]{1,0}, u32[4]{0}, u32[4]{0}) %parameter.1273), index=2
  %get-tuple-element.1277 = u32[10,39200]{1,0} get-tuple-element((s32[], s32[], u32[10,39200]{1,0}, u32[10,39200]{1,0}, u32[10,1]{1,0}, /*index=5*/u32[10,1]{1,0}, u32[10,1]{1,0}, u32[4]{0}, u32[4]{0}) %parameter.1273), index=3
  %get-tuple-element.1278 = u32[10,1]{1,0} get-tuple-element((s32[], s32[], u32[10,39200]{1,0}, u32[10,39200]{1,0}, u32[10,1]{1,0}, /*index=5*/u32[10,1]{1,0}, u32[10,1]{1,0}, u32[4]{0}, u32[4]{0}) %parameter.1273), index=4
  %get-tuple-element.1279 = u32[10,1]{1,0} get-tuple-element((s32[], s32[], u32[10,39200]{1,0}, u32[10,39200]{1,0}, u32[10,1]{1,0}, /*index=5*/u32[10,1]{1,0}, u32[10,1]{1,0}, u32[4]{0}, u32[4]{0}) %parameter.1273), index=5
  %get-tuple-element.1280 = u32[10,1]{1,0} get-tuple-element((s32[], s32[], u32[10,39200]{1,0}, u32[10,39200]{1,0}, u32[10,1]{1,0}, /*index=5*/u32[10,1]{1,0}, u32[10,1]{1,0}, u32[4]{0}, u32[4]{0}) %parameter.1273), index=6
  %get-tuple-element.1281 = u32[4]{0} get-tuple-element((s32[], s32[], u32[10,39200]{1,0}, u32[10,39200]{1,0}, u32[10,1]{1,0}, /*index=5*/u32[10,1]{1,0}, u32[10,1]{1,0}, u32[4]{0}, u32[4]{0}) %parameter.1273), index=7
  %get-tuple-element.1282 = u32[4]{0} get-tuple-element((s32[], s32[], u32[10,39200]{1,0}, u32[10,39200]{1,0}, u32[10,1]{1,0}, /*index=5*/u32[10,1]{1,0}, u32[10,1]{1,0}, u32[4]{0}, u32[4]{0}) %parameter.1273), index=8
  %constant.1283 = pred[] constant(false)
  %get-tuple-element.1274 = s32[] get-tuple-element((s32[], s32[], u32[10,39200]{1,0}, u32[10,39200]{1,0}, u32[10,1]{1,0}, /*index=5*/u32[10,1]{1,0}, u32[10,1]{1,0}, u32[4]{0}, u32[4]{0}) %parameter.1273), index=0
  %constant.1284 = s32[] constant(5), metadata={op_type="lt" op_name="jit(init)/cond/lt" source_file="/mnt/home/linmin/g/lib/python3.8/site-packages/haiku/_src/initializers.py" source_line=82}
  ROOT %compare.1285 = pred[] compare(s32[] %get-tuple-element.1274, s32[] %constant.1284), direction=LT, metadata={op_type="lt" op_name="jit(init)/cond/lt" source_file="/mnt/home/linmin/g/lib/python3.8/site-packages/haiku/_src/initializers.py" source_line=82}
}

%primitive_computation_add__2.1417 (parameter.1418: f32[], parameter.1419: f32[]) -> f32[] {
  %constant.1420 = pred[] constant(false)
  %parameter.1418 = f32[] parameter(0)
  %parameter.1419 = f32[] parameter(1)
  ROOT %add.1421 = f32[] add(f32[] %parameter.1418, f32[] %parameter.1419), metadata={op_type="add" op_name="add" source_file="/mnt/home/linmin/projects/deepmind-research/gated_linear_networks/base.py" source_line=39}
}

%body_computation__7.1457 (parameter.1458: (s32[], s32[], u32[10,2], u32[10,2], u32[10,1], /*index=5*/u32[10,1], u32[10,1], u32[4], u32[4])) -> (s32[], s32[], u32[10,2], u32[10,2], u32[10,1], /*index=5*/u32[10,1], u32[10,1], u32[4], u32[4]) {
  %constant.1468 = pred[] constant(false)
  %parameter.1458 = (s32[], s32[], u32[10,2]{1,0}, u32[10,2]{1,0}, u32[10,1]{1,0}, /*index=5*/u32[10,1]{1,0}, u32[10,1]{1,0}, u32[4]{0}, u32[4]{0}) parameter(0)
  %get-tuple-element.1459 = s32[] get-tuple-element((s32[], s32[], u32[10,2]{1,0}, u32[10,2]{1,0}, u32[10,1]{1,0}, /*index=5*/u32[10,1]{1,0}, u32[10,1]{1,0}, u32[4]{0}, u32[4]{0}) %parameter.1458), index=0
  %constant.1526 = s32[] constant(1), metadata={op_type="add" op_name="jit(init)/body/add" source_file="/mnt/home/linmin/g/lib/python3.8/site-packages/haiku/_src/base.py" source_line=560}
  %add.1527 = s32[] add(s32[] %get-tuple-element.1459, s32[] %constant.1526), metadata={op_type="add" op_name="jit(init)/body/add" source_file="/mnt/home/linmin/g/lib/python3.8/site-packages/haiku/_src/base.py" source_line=560}
  %get-tuple-element.1460 = s32[] get-tuple-element((s32[], s32[], u32[10,2]{1,0}, u32[10,2]{1,0}, u32[10,1]{1,0}, /*index=5*/u32[10,1]{1,0}, u32[10,1]{1,0}, u32[4]{0}, u32[4]{0}) %parameter.1458), index=1
  %constant.1469 = s32[] constant(1), metadata={op_type="add" op_name="jit(init)/body/add" source_file="/mnt/home/linmin/g/lib/python3.8/site-packages/haiku/_src/base.py" source_line=560}
  %add.1470 = s32[] add(s32[] %get-tuple-element.1460, s32[] %constant.1469), metadata={op_type="add" op_name="jit(init)/body/add" source_file="/mnt/home/linmin/g/lib/python3.8/site-packages/haiku/_src/base.py" source_line=560}
  %get-tuple-element.1461 = u32[10,2]{1,0} get-tuple-element((s32[], s32[], u32[10,2]{1,0}, u32[10,2]{1,0}, u32[10,1]{1,0}, /*index=5*/u32[10,1]{1,0}, u32[10,1]{1,0}, u32[4]{0}, u32[4]{0}) %parameter.1458), index=2
  %get-tuple-element.1462 = u32[10,2]{1,0} get-tuple-element((s32[], s32[], u32[10,2]{1,0}, u32[10,2]{1,0}, u32[10,1]{1,0}, /*index=5*/u32[10,1]{1,0}, u32[10,1]{1,0}, u32[4]{0}, u32[4]{0}) %parameter.1458), index=3
  %add.1479 = u32[10,2]{1,0} add(u32[10,2]{1,0} %get-tuple-element.1461, u32[10,2]{1,0} %get-tuple-element.1462), metadata={op_type="add" op_name="jit(init)/body/add" source_file="/mnt/home/linmin/g/lib/python3.8/site-packages/haiku/_src/base.py" source_line=560}
  %get-tuple-element.1466 = u32[4]{0} get-tuple-element((s32[], s32[], u32[10,2]{1,0}, u32[10,2]{1,0}, u32[10,1]{1,0}, /*index=5*/u32[10,1]{1,0}, u32[10,1]{1,0}, u32[4]{0}, u32[4]{0}) %parameter.1458), index=7
…
  %sqrt.2271 = f32[10,1,1,784]{3,2,1,0} sqrt(f32[10,1,1,784]{3,2,1,0} %maximum.2270), metadata={op_type="sqrt" op_name="jit(init)/sqrt" source_file="/mnt/home/linmin/projects/deepmind-research/gated_linear_networks/base.py" source_line=39}
  %divide.2272 = f32[10,1,1,784]{3,2,1,0} divide(f32[10,1,1,784]{3,2,1,0} %add.2258, f32[10,1,1,784]{3,2,1,0} %sqrt.2271), metadata={op_type="div" op_name="jit(init)/div" source_file="/mnt/home/linmin/projects/deepmind-research/gated_linear_networks/base.py" source_line=39}
  %dot.2640 = f32[10,1,1]{2,1,0} dot(f32[10,1,1,784]{3,2,1,0} %divide.2272, f32[10,784]{1,0} %divide.165), lhs_batch_dims={0}, lhs_contracting_dims={3}, rhs_batch_dims={0}, rhs_contracting_dims={1}, metadata={op_type="dot_general" op_name="jit(init)/dot_general[\n  dimension_numbers=(((3,), (1,)), ((0,), (0,)))\n  precision=None\n  preferred_element_type=None\n]" source_file="/mnt/home/linmin/projects/deepmind-research/gated_linear_networks/base.py" source_line=203}
  %constant.2637 = f32[] constant(0), metadata={op_type="add" op_name="jit(init)/add" source_file="/mnt/home/linmin/g/lib/python3.8/site-packages/haiku/_src/initializers.py" source_line=82}
  %broadcast.2638 = f32[10,1,1]{2,1,0} broadcast(f32[] %constant.2637), dimensions={}, metadata={op_type="add" op_name="jit(init)/add" source_file="/mnt/home/linmin/g/lib/python3.8/site-packages/haiku/_src/initializers.py" source_line=82}
  %constant.2634 = f32[] constant(0.05), metadata={op_type="mul" op_name="jit(init)/mul" source_file="/mnt/home/linmin/g/lib/python3.8/site-packages/haiku/_src/initializers.py" source_line=82}
  %broadcast.2635 = f32[10,1,1]{2,1,0} broadcast(f32[] %constant.2634), dimensions={}, metadata={op_type="mul" op_name="jit(init)/mul" source_file="/mnt/home/linmin/g/lib/python3.8/site-packages/haiku/_src/initializers.py" source_line=82}
  %constant.2403 = f32[] constant(-0.99999994), metadata={op_type="broadcast_in_dim" op_name="jit(init)/broadcast_in_dim[broadcast_dimensions=() shape=(1, 1)]" source_file="/mnt/home/linmin/g/lib/python3.8/site-packages/haiku/_src/initializers.py" source_line=82}
  %broadcast.2404 = f32[1,1]{1,0} broadcast(f32[] %constant.2403), dimensions={}, metadata={op_type="broadcast_in_dim" op_name="jit(init)/broadcast_in_dim[broadcast_dimensions=() shape=(1, 1)]" source_file="/mnt/home/linmin/g/lib/python3.8/site-packages/haiku/_src/initializers.py" source_line=82}
  %broadcast.2544 = f32[10,1,1]{2,1,0} broadcast(f32[1,1]{1,0} %broadcast.2404), dimensions={1,2}, metadata={op_type="broadcast_in_dim" op_name="jit(init)/broadcast_in_dim[broadcast_dimensions=(1, 2) shape=(10, 1, 1)]" source_file="/mnt/home/linmin/g/lib/python3.8/site-packages/haiku/_src/initializers.py" source_line=82}
  %get-tuple-element.2517 = u32[10,1]{1,0} get-tuple-element((s32[], s32[], u32[10,1]{1,0}, u32[10,1]{1,0}, u32[10,1]{1,0}, /*index=5*/u32[10,1]{1,0}, u32[10,1]{1,0}, u32[4]{0}, u32[4]{0}) %while.2514), index=2, metadata={op_type="while" op_name="jit(init)/while[body_nconsts=0 cond_nconsts=0]" source_file="/mnt/home/linmin/g/lib/python3.8/site-packages/haiku/_src/initializers.py" source_line=82}
  %get-tuple-element.2518 = u32[10,1]{1,0} get-tuple-element((s32[], s32[], u32[10,1]{1,0}, u32[10,1]{1,0}, u32[10,1]{1,0}, /*index=5*/u32[10,1]{1,0}, u32[10,1]{1,0}, u32[4]{0}, u32[4]{0}) %while.2514), index=3, metadata={op_type="while" op_name="jit(init)/while[body_nconsts=0 cond_nconsts=0]" source_file="/mnt/home/linmin/g/lib/python3.8/site-packages/haiku/_src/initializers.py" source_line=82}
  %concatenate.2524 = u32[10,2]{1,0} concatenate(u32[10,1]{1,0} %get-tuple-element.2517, u32[10,1]{1,0} %get-tuple-element.2518), dimensions={1}, metadata={op_type="concatenate" op_name="jit(init)/concatenate[dimension=1]" source_file="/mnt/home/linmin/g/lib/python3.8/site-packages/haiku/_src/initializers.py" source_line=82}
  %constant.2525 = s32[] constant(0), metadata={op_type="broadcast_in_dim" op_name="jit(init)/broadcast_in_dim[broadcast_dimensions=() shape=(1,)]" source_file="/mnt/home/linmin/g/lib/python3.8/site-packages/haiku/_src/initializers.py" source_line=82}
  %broadcast.2526 = s32[1]{0} broadcast(s32[] %constant.2525), dimensions={}, metadata={op_type="broadcast_in_dim" op_name="jit(init)/broadcast_in_dim[broadcast_dimensions=() shape=(1,)]" source_file="/mnt/home/linmin/g/lib/python3.8/site-packages/haiku/_src/initializers.py" source_line=82}
  %gather.2527 = u32[10,1]{1,0} gather(u32[10,2]{1,0} %concatenate.2524, s32[1]{0} %broadcast.2526), offset_dims={0,1}, collapsed_slice_dims={}, start_index_map={1}, index_vector_dim=0, slice_sizes={10,1}, indices_are_sorted=true, metadata={op_type="gather" op_name="jit(init)/gather[\n  dimension_numbers=GatherDimensionNumbers(offset_dims=(0, 1), collapsed_slice_dims=(), start_index_map=(1,))\n  fill_value=None\n  indices_are_sorted=True\n  mode=GatherScatterMode.PROMISE_IN_BOUNDS\n  slice_sizes=(10, 1)\n  unique_indices=True\n]" source_file="/mnt/home/linmin/g/lib/python3.8/site-packages/haiku/_src/initializers.py" source_line=82}
  %reshape.2528 = u32[10,1,1]{2,1,0} reshape(u32[10,1]{1,0} %gather.2527), metadata={op_type="reshape" op_name="jit(init)/reshape[dimensions=None new_sizes=(10, 1, 1)]" source_file="/mnt/home/linmin/g/lib/python3.8/site-packages/haiku/_src/initializers.py" source_line=82}
  %constant.2529 = u32[] constant(9), metadata={op_type="shift_right_logical" op_name="jit(init)/shift_right_logical" source_file="/mnt/home/linmin/g/lib/python3.8/site-packages/haiku/_src/initializers.py" source_line=82}
  %broadcast.2530 = u32[10,1,1]{2,1,0} broadcast(u32[] %constant.2529), dimensions={}, metadata={op_type="shift_right_logical" op_name="jit(init)/shift_right_logical" source_file="/mnt/home/linmin/g/lib/python3.8/site-packages/haiku/_src/initializers.py" source_line=82}
  %shift-right-logical.2531 = u32[10,1,1]{2,1,0} shift-right-logical(u32[10,1,1]{2,1,0} %reshape.2528, u32[10,1,1]{2,1,0} %broadcast.2530), metadata={op_type="shift_right_logical" op_name="jit(init)/shift_right_logical" source_file="/mnt/home/linmin/g/lib/python3.8/site-packages/haiku/_src/initializers.py" source_line=82}
  %constant.2532 = u32[] constant(1065353216), metadata={op_type="or" op_name="jit(init)/or" source_file="/mnt/home/linmin/g/lib/python3.8/site-packages/haiku/_src/initializers.py" source_line=82}
  %broadcast.2533 = u32[10,1,1]{2,1,0} broadcast(u32[] %constant.2532), dimensions={}, metadata={op_type="or" op_name="jit(init)/or" source_file="/mnt/home/linmin/g/lib/python3.8/site-packages/haiku/_src/initializers.py" source_line=82}
  %or.2534 = u32[10,1,1]{2,1,0} or(u32[10,1,1]{2,1,0} %shift-right-logical.2531, u32[10,1,1]{2,1,0} %broadcast.2533), metadata={op_type="or" op_name="jit(init)/or" source_file="/mnt/home/linmin/g/lib/python3.8/site-packages/haiku/_src/initializers.py" source_line=82}
  %bitcast-convert.2535 = f32[10,1,1]{2,1,0} bitcast-convert(u32[10,1,1]{2,1,0} %or.2534), metadata={op_type="bitcast_convert_type" op_name="jit(init)/bitcast_convert_type[new_dtype=float32]" source_file="/mnt/home/linmin/g/lib/python3.8/site-packages/haiku/_src/initializers.py" source_line=82}
  %constant.2536 = f32[] constant(1), metadata={op_type="sub" op_name="jit(init)/sub" source_file="/mnt/home/linmin/g/lib/python3.8/site-packages/haiku/_src/initializers.py" source_line=82}
  %broadcast.2537 = f32[10,1,1]{2,1,0} broadcast(f32[] %constant.2536), dimensions={}, metadata={op_type="sub" op_name="jit(init)/sub" source_file="/mnt/home/linmin/g/lib/python3.8/site-packages/haiku/_src/initializers.py" source_line=82}
  %subtract.2538 = f32[10,1,1]{2,1,0} subtract(f32[10,1,1]{2,1,0} %bitcast-convert.2535, f32[10,1,1]{2,1,0} %broadcast.2537), metadata={op_type="sub" op_name="jit(init)/sub" source_file="/mnt/home/linmin/g/lib/python3.8/site-packages/haiku/_src/initializers.py" source_line=82}
  %constant.2405 = f32[] constant(1), metadata={op_type="broadcast_in_dim" op_name="jit(init)/broadcast_in_dim[broadcast_dimensions=() shape=(1, 1)]" source_file="/mnt/home/linmin/g/lib/python3.8/site-packages/haiku/_src/initializers.py" source_line=82}
  %broadcast.2406 = f32[1,1]{1,0} broadcast(f32[] %constant.2405), dimensions={}, metadata={op_type="broadcast_in_dim" op_name="jit(init)/broadcast_in_dim[broadcast_dimensions=() shape=(1, 1)]" source_file="/mnt/home/linmin/g/lib/python3.8/site-packages/haiku/_src/initializers.py" source_line=82}
  %subtract.2539 = f32[1,1]{1,0} subtract(f32[1,1]{1,0} %broadcast.2406, f32[1,1]{1,0} %broadcast.2404), metadata={op_type="sub" op_name="jit(init)/sub" source_file="/mnt/home/linmin/g/lib/python3.8/site-packages/haiku/_src/initializers.py" source_line=82}
  %broadcast.2540 = f32[10,1,1]{2,1,0} broadcast(f32[1,1]{1,0} %subtract.2539), dimensions={1,2}, metadata={op_type="broadcast_in_dim" op_name="jit(init)/broadcast_in_dim[broadcast_dimensions=(1, 2) shape=(10, 1, 1)]" source_file="/mnt/home/linmin/g/lib/python3.8/site-packages/haiku/_src/initializers.py" source_line=82}
  %multiply.2541 = f32[10,1,1]{2,1,0} multiply(f32[10,1,1]{2,1,0} %subtract.2538, f32[10,1,1]{2,1,0} %broadcast.2540), metadata={op_type="mul" op_name="jit(init)/mul" source_file="/mnt/home/linmin/g/lib/python3.8/site-packages/haiku/_src/initializers.py" source_line=82}
  %broadcast.2542 = f32[10,1,1]{2,1,0} broadcast(f32[1,1]{1,0} %broadcast.2404), dimensions={1,2}, metadata={op_type="broadcast_in_dim" op_name="jit(init)/broadcast_in_dim[broadcast_dimensions=(1, 2) shape=(10, 1, 1)]" source_file="/mnt/home/linmin/g/lib/python3.8/site-packages/haiku/_src/initializers.py" source_line=82}
  %add.2543 = f32[10,1,1]{2,1,0} add(f32[10,1,1]{2,1,0} %multiply.2541, f32[10,1,1]{2,1,0} %broadcast.2542), metadata={op_type="add" op_name="jit(init)/add" source_file="/mnt/home/linmin/g/lib/python3.8/site-packages/haiku/_src/initializers.py" source_line=82}
  %maximum.2545 = f32[10,1,1]{2,1,0} maximum(f32[10,1,1]{2,1,0} %broadcast.2544, f32[10,1,1]{2,1,0} %add.2543), metadata={op_type="max" op_name="jit(init)/max" source_file="/mnt/home/linmin/g/lib/python3.8/site-packages/haiku/_src/initializers.py" source_line=82}
  %abs.2627 = f32[10,1,1]{2,1,0} abs(f32[10,1,1]{2,1,0} %maximum.2545), metadata={op_type="erf_inv" op_name="jit(init)/erf_inv" source_file="/mnt/home/linmin/g/lib/python3.8/site-packages/haiku/_src/initializers.py" source_line=82}
  %constant.2626 = f32[] constant(1), metadata={op_type="erf_inv" op_name="jit(init)/erf_inv" source_file="/mnt/home/linmin/g/lib/python3.8/site-packages/haiku/_src/initializers.py" source_line=82}
  %broadcast.2628 = f32[10,1,1]{2,1,0} broadcast(f32[] %constant.2626), dimensions={}, metadata={op_type="erf_inv" op_name="jit(init)/erf_inv" source_file="/mnt/home/linmin/g/lib/python3.8/site-packages/haiku/_src/initializers.py" source_line=82}
  %compare.2629 = pred[10,1,1]{2,1,0} compare(f32[10,1,1]{2,1,0} %abs.2627, f32[10,1,1]{2,1,0} %broadcast.2628), direction=EQ, metadata={op_type="erf_inv" op_name="jit(init)/erf_inv" source_file="/mnt/home/linmin/g/lib/python3.8/site-packages/haiku/_src/initializers.py" source_line=82}
  %constant.2623 = f32[] constant(inf), metadata={op_type="erf_inv" op_name="jit(init)/erf_inv" source_file="/mnt/home/linmin/g/lib/python3.8/site-packages/haiku/_src/initializers.py" source_line=82}
  %broadcast.2624 = f32[10,1,1]{2,1,0} broadcast(f32[] %constant.2623), dimensions={}, metadata={op_type="erf_inv" op_name="jit(init)/erf_inv" source_file="/mnt/home/linmin/g/lib/python3.8/site-packages/haiku/_src/initializers.py" source_line=82}
  %multiply.2625 = f32[10,1,1]{2,1,0} multiply(f32[10,1,1]{2,1,0} %maximum.2545, f32[10,1,1]{2,1,0} %broadcast.2624), metadata={op_type="erf_inv" op_name="jit(init)/erf_inv" source_file="/mnt/home/linmin/g/lib/python3.8/site-packages/haiku/_src/initializers.py" source_line=82}
  %negate.2546 = f32[10,1,1]{2,1,0} negate(f32[10,1,1]{2,1,0} %maximum.2545), metadata={op_type="erf_inv" op_name="jit(init)/erf_inv" source_file="/mnt/home/linmin/g/lib/python3.8/site-packages/haiku/_src/initializers.py" source_line=82}
  %multiply.2547 = f32[10,1,1]{2,1,0} multiply(f32[10,1,1]{2,1,0} %negate.2546, f32[10,1,1]{2,1,0} %maximum.2545), metadata={op_type="erf_inv" op_name="jit(init)/erf_inv" source_file="/mnt/home/linmin/g/lib/python3.8/site-packages/haiku/_src/initializers.py" source_line=82}
  %log-plus-one.2548 = f32[10,1,1]{2,1,0} log-plus-one(f32[10,1,1]{2,1,0} %multiply.2547), metadata={op_type="erf_inv" op_name="jit(init)/erf_inv" source_file="/mnt/home/linmin/g/lib/python3.8/site-packages/haiku/_src/initializers.py" source_line=82}
  %negate.2549 = f32[10,1,1]{2,1,0} negate(f32[10,1,1]{2,1,0} %log-plus-one.2548), metadata={op_type="erf_inv" op_name="jit(init)/erf_inv" source_file="/mnt/home/linmin/g/lib/python3.8/site-packages/haiku/_src/initializers.py" source_line=82}
  %constant.2550 = f32[] constant(5), metadata={op_type="erf_inv" op_name="jit(init)/erf_inv" source_file="/mnt/home/linmin/g/lib/python3.8/site-packages/haiku/_src/initializers.py" source_line=82}
  %broadcast.2551 = f32[10,1,1]{2,1,0} broadcast(f32[] %constant.2550), dimensions={}, metadata={op_type="erf_inv" op_name="jit(init)/erf_inv" source_file="/mnt/home/linmin/g/lib/python3.8/site-packages/haiku/_src/initializers.py" source_line=82}
  %compare.2552 = pred[10,1,1]{2,1,0} compare(f32[10,1,1]{2,1,0} %negate.2549, f32[10,1,1]{2,1,0} %broadcast.2551), direction=LT, metadata={op_type="erf_inv" op_name="jit(init)/erf_inv" source_file="/mnt/home/linmin/g/lib/python3.8/site-packages/haiku/_src/initializers.py" source_line=82}
  %constant.2618 = f32[] constant(1.50140941), metadata={op_type="erf_inv" op_name="jit(init)/erf_inv" source_file="/mnt/home/linmin/g/lib/python3.8/site-packages/haiku/_src/initializers.py" source_line=82}
  %broadcast.2619 = f32[10,1,1]{2,1,0} broadcast(f32[] %constant.2618), dimensions={}, metadata={op_type="erf_inv" op_name="jit(init)/erf_inv" source_file="/mnt/home/linmin/g/lib/python3.8/site-packages/haiku/_src/initializers.py" source_line=82}
  %constant.2616 = f32[] constant(2.83297682), metadata={op_type="erf_inv" op_name="jit(init)/erf_inv" source_file="/mnt/home/linmin/g/lib/python3.8/site-packages/haiku/_src/initializers.py" source_line=82}
  %broadcast.2617 = f32[10,1,1]{2,1,0} broadcast(f32[] %constant.2616), dimensions={}, metadata={op_type="erf_inv" op_name="jit(init)/erf_inv" source_file="/mnt/home/linmin/g/lib/python3.8/site-packages/haiku/_src/initializers.py" source_line=82}
  %select.2620 = f32[10,1,1]{2,1,0} select(pred[10,1,1]{2,1,0} %compare.2552, f32[10,1,1]{2,1,0} %broadcast.2619, f32[10,1,1]{2,1,0} %broadcast.2617), metadata={op_type="erf_inv" op_name="jit(init)/erf_inv" source_file="/mnt/home/linmin/g/lib/python3.8/site-packages/haiku/_src/initializers.py" source_line=82}
  %constant.2611 = f32[] constant(0.246640727), metadata={op_type="erf_inv" op_name="jit(init)/erf_inv" source_file="/mnt/home/linmin/g/lib/python3.8/site-packages/haiku/_src/initializers.py" source_line=82}
  %broadcast.2612 = f32[10,1,1]{2,1,0} broadcast(f32[] %constant.2611), dimensions={}, metadata={op_type="erf_inv" op_name="jit(init)/erf_inv" source_file="/mnt/home/linmin/g/lib/python3.8/site-packages/haiku/_src/initializers.py" source_line=82}
  %constant.2609 = f32[] constant(1.00167406), metadata={op_type="erf_inv" op_name="jit(init)/erf_inv" source_file="/mnt/home/linmin/g/lib/python3.8/site-packages/haiku/_src/initializers.py" source_line=82}
  %broadcast.2610 = f32[10,1,1]{2,1,0} broadcast(f32[] %constant.2609), dimensions={}, metadata={op_type="erf_inv" op_name="jit(init)/erf_inv" source_file="/mnt/home/linmin/g/lib/python3.8/site-packages/haiku/_src/initializers.py" source_line=82}
  %select.2613 = f32[10,1,1]{2,1,0} select(pred[10,1,1]{2,1,0} %compare.2552, f32[10,1,1]{2,1,0} %broadcast.2612, f32[10,1,1]{2,1,0} %broadcast.2610), metadata={op_type="erf_inv" op_name="jit(init)/erf_inv" source_file="/mnt/home/linmin/g/lib/python3.8/site-packages/haiku/_src/initializers.py" source_line=82}
  %constant.2604 = f32[] constant(-0.00417768164), metadata={op_type="erf_inv" op_name="jit(init)/erf_inv" source_file="/mnt/home/linmin/g/lib/python3.8/site-packages/haiku/_src/initializers.py" source_line=82}
  %broadcast.2605 = f32[10,1,1]{2,1,0} broadcast(f32[] %constant.2604), dimensions={}, metadata={op_type="erf_inv" op_name="jit(init)/erf_inv" source_file="/mnt/home/linmin/g/lib/python3.8/site-packages/haiku/_src/initializers.py" source_line=82}
  %constant.2602 = f32[] constant(0.00943887047), metadata={op_type="erf_inv" op_name="jit(init)/erf_inv" source_file="/mnt/home/linmin/g/lib/python3.8/site-packages/haiku/_src/initializers.py" source_line=82}
  %broadcast.2603 = f32[10,1,1]{2,1,0} broadcast(f32[] %constant.2602), dimensions={}, metadata={op_type="erf_inv" op_name="jit(init)/erf_inv" source_file="/mnt/home/linmin/g/lib/python3.8/site-packages/haiku/_src/initializers.py" source_line=82}
  %select.2606 = f32[10,1,1]{2,1,0} select(pred[10,1,1]{2,1,0} %compare.2552, f32[10,1,1]{2,1,0} %broadcast.2605, f32[10,1,1]{2,1,0} %broadcast.2603), metadata={op_type="erf_inv" op_name="jit(init)/erf_inv" source_file="/mnt/home/linmin/g/lib/python3.8/site-packages/haiku/_src/initializers.py" source_line=82}
  %constant.2597 = f32[] constant(-0.00125372503), metadata={op_type="erf_inv" op_name="jit(init)/erf_inv" source_file="/mnt/home/linmin/g/lib/python3.8/site-packages/haiku/_src/initializers.py" source_line=82}
  %broadcast.2598 = f32[10,1,1]{2,1,0} broadcast(f32[] %constant.2597), dimensions={}, metadata={op_type="erf_inv" op_name="jit(init)/erf_inv" source_file="/mnt/home/linmin/g/lib/python3.8/site-packages/haiku/_src/initializers.py" source_line=82}
  %constant.2595 = f32[] constant(-0.0076224613), metadata={op_type="erf_inv" op_name="jit(init)/erf_inv" source_file="/mnt/home/linmin/g/lib/python3.8/site-packages/haiku/_src/initializers.py" source_line=82}
  %broadcast.2596 = f32[10,1,1]{2,1,0} broadcast(f32[] %constant.2595), dimensions={}, metadata={op_type="erf_inv" op_name="jit(init)/erf_inv" source_file="/mnt/home/linmin/g/lib/python3.8/site-packages/haiku/_src/initializers.py" source_line=82}
  %select.2599 = f32[10,1,1]{2,1,0} select(pred[10,1,1]{2,1,0} %compare.2552, f32[10,1,1]{2,1,0} %broadcast.2598, f32[10,1,1]{2,1,0} %broadcast.2596), metadata={op_type="erf_inv" op_name="jit(init)/erf_inv" source_file="/mnt/home/linmin/g/lib/python3.8/site-packages/haiku/_src/initializers.py" source_line=82}
  %constant.2590 = f32[] constant(0.00021858087), metadata={op_type="erf_inv" op_name="jit(init)/erf_inv" source_file="/mnt/home/linmin/g/lib/python3.8/site-packages/haiku/_src/initializers.py" source_line=82}
  %broadcast.2591 = f32[10,1,1]{2,1,0} broadcast(f32[] %constant.2590), dimensions={}, metadata={op_type="erf_inv" op_name="jit(init)/erf_inv" source_file="/mnt/home/linmin/g/lib/python3.8/site-packages/haiku/_src/initializers.py" source_line=82}
  %constant.2588 = f32[] constant(0.00573950773), metadata={op_type="erf_inv" op_name="jit(init)/erf_inv" source_file="/mnt/home/linmin/g/lib/python3.8/site-packages/haiku/_src/initializers.py" source_line=82}
  %broadcast.2589 = f32[10,1,1]{2,1,0} broadcast(f32[] %constant.2588), dimensions={}, metadata={op_type="erf_inv" op_name="jit(init)/erf_inv" source_file="/mnt/home/linmin/g/lib/python3.8/site-packages/haiku/_src/initializers.py" source_line=82}
  %select.2592 = f32[10,1,1]{2,1,0} select(pred[10,1,1]{2,1,0} %compare.2552, f32[10,1,1]{2,1,0} %broadcast.2591, f32[10,1,1]{2,1,0} %broadcast.2589), metadata={op_type="erf_inv" op_name="jit(init)/erf_inv" source_file="/mnt/home/linmin/g/lib/python3.8/site-packages/haiku/_src/initializers.py" source_line=82}
  %constant.2583 = f32[] constant(-4.39150654e-06), metadata={op_type="erf_inv" op_name="jit(init)/erf_inv" source_file="/mnt/home/linmin/g/lib/python3.8/site-packages/haiku/_src/initializers.py" source_line=82}
  %broadcast.2584 = f32[10,1,1]{2,1,0} broadcast(f32[] %constant.2583), dimensions={}, metadata={op_type="erf_inv" op_name="jit(init)/erf_inv" source_file="/mnt/home/linmin/g/lib/python3.8/site-packages/haiku/_src/initializers.py" source_line=82}
  %constant.2581 = f32[] constant(-0.00367342844), metadata={op_type="erf_inv" op_name="jit(init)/erf_inv" source_file="/mnt/home/linmin/g/lib/python3.8/site-packages/haiku/_src/initializers.py" source_line=82}
  %broadcast.2582 = f32[10,1,1]{2,1,0} broadcast(f32[] %constant.2581), dimensions={}, metadata={op_type="erf_inv" op_name="jit(init)/erf_inv" source_file="/mnt/home/linmin/g/lib/python3.8/site-packages/haiku/_src/initializers.py" source_line=82}
  %select.2585 = f32[10,1,1]{2,1,0} select(pred[10,1,1]{2,1,0} %compare.2552, f32[10,1,1]{2,1,0} %broadcast.2584, f32[10,1,1]{2,1,0} %broadcast.2582), metadata={op_type="erf_inv" op_name="jit(init)/erf_inv" source_file="/mnt/home/linmin/g/lib/python3.8/site-packages/haiku/_src/initializers.py" source_line=82}
  %constant.2576 = f32[] constant(-3.5233877e-06), metadata={op_type="erf_inv" op_name="jit(init)/erf_inv" source_file="/mnt/home/linmin/g/lib/python3.8/site-packages/haiku/_src/initializers.py" source_line=82}
  %broadcast.2577 = f32[10,1,1]{2,1,0} broadcast(f32[] %constant.2576), dimensions={}, metadata={op_type="erf_inv" op_name="jit(init)/erf_inv" source_file="/mnt/home/linmin/g/lib/python3.8/site-packages/haiku/_src/initializers.py" source_line=82}
  %constant.2574 = f32[] constant(0.00134934322), metadata={op_type="erf_inv" op_name="jit(init)/erf_inv" source_file="/mnt/home/linmin/g/lib/python3.8/site-packages/haiku/_src/initializers.py" source_line=82}
  %broadcast.2575 = f32[10,1,1]{2,1,0} broadcast(f32[] %constant.2574), dimensions={}, metadata={op_type="erf_inv" op_name="jit(init)/erf_inv" source_file="/mnt/home/linmin/g/lib/python3.8/site-packages/haiku/_src/initializers.py" source_line=82}
  %select.2578 = f32[10,1,1]{2,1,0} select(pred[10,1,1]{2,1,0} %compare.2552, f32[10,1,1]{2,1,0} %broadcast.2577, f32[10,1,1]{2,1,0} %broadcast.2575), metadata={op_type="erf_inv" op_name="jit(init)/erf_inv" source_file="/mnt/home/linmin/g/lib/python3.8/site-packages/haiku/_src/initializers.py" source_line=82}
  %constant.2569 = f32[] constant(3.43273939e-07), metadata={op_type="erf_inv" op_name="jit(init)/erf_inv" source_file="/mnt/home/linmin/g/lib/python3.8/site-packages/haiku/_src/initializers.py" source_line=82}
  %broadcast.2570 = f32[10,1,1]{2,1,0} broadcast(f32[] %constant.2569), dimensions={}, metadata={op_type="erf_inv" op_name="jit(init)/erf_inv" source_file="/mnt/home/linmin/g/lib/python3.8/site-packages/haiku/_src/initializers.py" source_line=82}
  %constant.2567 = f32[] constant(0.000100950558), metadata={op_type="erf_inv" op_name="jit(init)/erf_inv" source_file="/mnt/home/linmin/g/lib/python3.8/site-packages/haiku/_src/initializers.py" source_line=82}
  %broadcast.2568 = f32[10,1,1]{2,1,0} broadcast(f32[] %constant.2567), dimensions={}, metadata={op_type="erf_inv" op_name="jit(init)/erf_inv" source_file="/mnt/home/linmin/g/lib/python3.8/site-packages/haiku/_src/initializers.py" source_line=82}
  %select.2571 = f32[10,1,1]{2,1,0} select(pred[10,1,1]{2,1,0} %compare.2552, f32[10,1,1]{2,1,0} %broadcast.2570, f32[10,1,1]{2,1,0} %broadcast.2568), metadata={op_type="erf_inv" op_name="jit(init)/erf_inv" source_file="/mnt/home/linmin/g/lib/python3.8/site-packages/haiku/_src/initializers.py" source_line=82}
  %constant.2563 = f32[] constant(2.81022636e-08), metadata={op_type="erf_inv" op_name="jit(init)/erf_inv" source_file="/mnt/home/linmin/g/lib/python3.8/site-packages/haiku/_src/initializers.py" source_line=82}
  %broadcast.2564 = f32[10,1,1]{2,1,0} broadcast(f32[] %constant.2563), dimensions={}, metadata={op_type="erf_inv" op_name="jit(init)/erf_inv" source_file="/mnt/home/linmin/g/lib/python3.8/site-packages/haiku/_src/initializers.py" source_line=82}
  %constant.2561 = f32[] constant(-0.000200214257), metadata={op_type="erf_inv" op_name="jit(init)/erf_inv" source_file="/mnt/home/linmin/g/lib/python3.8/site-packages/haiku/_src/initializers.py" source_line=82}
  %broadcast.2562 = f32[10,1,1]{2,1,0} broadcast(f32[] %constant.2561), dimensions={}, metadata={op_type="erf_inv" op_name="jit(init)/erf_inv" source_file="/mnt/home/linmin/g/lib/python3.8/site-packages/haiku/_src/initializers.py" source_line=82}
  %select.2565 = f32[10,1,1]{2,1,0} select(pred[10,1,1]{2,1,0} %compare.2552, f32[10,1,1]{2,1,0} %broadcast.2564, f32[10,1,1]{2,1,0} %broadcast.2562), metadata={op_type="erf_inv" op_name="jit(init)/erf_inv" source_file="/mnt/home/linmin/g/lib/python3.8/site-packages/haiku/_src/initializers.py" source_line=82}
  %constant.2557 = f32[] constant(2.5), metadata={op_type="erf_inv" op_name="jit(init)/erf_inv" source_file="/mnt/home/linmin/g/lib/python3.8/site-packages/haiku/_src/initializers.py" source_line=82}
  %broadcast.2558 = f32[10,1,1]{2,1,0} broadcast(f32[] %constant.2557), dimensions={}, metadata={op_type="erf_inv" op_name="jit(init)/erf_inv" source_file="/mnt/home/linmin/g/lib/python3.8/site-packages/haiku/_src/initializers.py" source_line=82}
  %subtract.2559 = f32[10,1,1]{2,1,0} subtract(f32[10,1,1]{2,1,0} %negate.2549, f32[10,1,1]{2,1,0} %broadcast.2558), metadata={op_type="erf_inv" op_name="jit(init)/erf_inv" source_file="/mnt/home/linmin/g/lib/python3.8/site-packages/haiku/_src/initializers.py" source_line=82}
  %sqrt.2554 = f32[10,1,1]{2,1,0} sqrt(f32[10,1,1]{2,1,0} %negate.2549), metadata={op_type="erf_inv" op_name="jit(init)/erf_inv" source_file="/mnt/home/linmin/g/lib/python3.8/site-packages/haiku/_src/initializers.py" source_line=82}
  %constant.2553 = f32[] constant(3), metadata={op_type="erf_inv" op_name="jit(init)/erf_inv" source_file="/mnt/home/linmin/g/lib/python3.8/site-packages/haiku/_src/initializers.py" source_line=82}
  %broadcast.2555 = f32[10,1,1]{2,1,0} broadcast(f32[] %constant.2553), dimensions={}, metadata={op_type="erf_inv" op_name="jit(init)/erf_inv" source_file="/mnt/home/linmin/g/lib/python3.8/site-packages/haiku/_src/initializers.py" source_line=82}
  %subtract.2556 = f32[10,1,1]{2,1,0} subtract(f32[10,1,1]{2,1,0} %sqrt.2554, f32[10,1,1]{2,1,0} %broadcast.2555), metadata={op_type="erf_inv" op_name="jit(init)/erf_inv" source_file="/mnt/home/linmin/g/lib/python3.8/site-packages/haiku/_src/initializers.py" source_line=82}
  %select.2560 = f32[10,1,1]{2,1,0} select(pred[10,1,1]{2,1,0} %compare.2552, f32[10,1,1]{2,1,0} %subtract.2559, f32[10,1,1]{2,1,0} %subtract.2556), metadata={op_type="erf_inv" op_name="jit(init)/erf_inv" source_file="/mnt/home/linmin/g/lib/python3.8/site-packages/haiku/_src/initializers.py" source_line=82}
  %multiply.2566 = f32[10,1,1]{2,1,0} multiply(f32[10,1,1]{2,1,0} %select.2565, f32[10,1,1]{2,1,0} %select.2560), metadata={op_type="erf_inv" op_name="jit(init)/erf_inv" source_file="/mnt/home/linmin/g/lib/python3.8/site-packages/haiku/_src/initializers.py" source_line=82}
  %add.2572 = f32[10,1,1]{2,1,0} add(f32[10,1,1]{2,1,0} %select.2571, f32[10,1,1]{2,1,0} %multiply.2566), metadata={op_type="erf_inv" op_name="jit(init)/erf_inv" source_file="/mnt/home/linmin/g/lib/python3.8/site-packages/haiku/_src/initializers.py" source_line=82}
  %multiply.2573 = f32[10,1,1]{2,1,0} multiply(f32[10,1,1]{2,1,0} %add.2572, f32[10,1,1]{2,1,0} %select.2560), metadata={op_type="erf_inv" op_name="jit(init)/erf_inv" source_file="/mnt/home/linmin/g/lib/python3.8/site-packages/haiku/_src/initializers.py" source_line=82}
  %add.2579 = f32[10,1,1]{2,1,0} add(f32[10,1,1]{2,1,0} %select.2578, f32[10,1,1]{2,1,0} %multiply.2573), metadata={op_type="erf_inv" op_name="jit(init)/erf_inv" source_file="/mnt/home/linmin/g/lib/python3.8/site-packages/haiku/_src/initializers.py" source_line=82}
  %multiply.2580 = f32[10,1,1]{2,1,0} multiply(f32[10,1,1]{2,1,0} %add.2579, f32[10,1,1]{2,1,0} %select.2560), metadata={op_type="erf_inv" op_name="jit(init)/erf_inv" source_file="/mnt/home/linmin/g/lib/python3.8/site-packages/haiku/_src/initializers.py" source_line=82}
  %add.2586 = f32[10,1,1]{2,1,0} add(f32[10,1,1]{2,1,0} %select.2585, f32[10,1,1]{2,1,0} %multiply.2580), metadata={op_type="erf_inv" op_name="jit(init)/erf_inv" source_file="/mnt/home/linmin/g/lib/python3.8/site-packages/haiku/_src/initializers.py" source_line=82}
  %multiply.2587 = f32[10,1,1]{2,1,0} multiply(f32[10,1,1]{2,1,0} %add.2586, f32[10,1,1]{2,1,0} %select.2560), metadata={op_type="erf_inv" op_name="jit(init)/erf_inv" source_file="/mnt/home/linmin/g/lib/python3.8/site-packages/haiku/_src/initializers.py" source_line=82}
  %add.2593 = f32[10,1,1]{2,1,0} add(f32[10,1,1]{2,1,0} %select.2592, f32[10,1,1]{2,1,0} %multiply.2587), metadata={op_type="erf_inv" op_name="jit(init)/erf_inv" source_file="/mnt/home/linmin/g/lib/python3.8/site-packages/haiku/_src/initializers.py" source_line=82}
  %multiply.2594 = f32[10,1,1]{2,1,0} multiply(f32[10,1,1]{2,1,0} %add.2593, f32[10,1,1]{2,1,0} %select.2560), metadata={op_type="erf_inv" op_name="jit(init)/erf_inv" source_file="/mnt/home/linmin/g/lib/python3.8/site-packages/haiku/_src/initializers.py" source_line=82}
  %add.2600 = f32[10,1,1]{2,1,0} add(f32[10,1,1]{2,1,0} %select.2599, f32[10,1,1]{2,1,0} %multiply.2594), metadata={op_type="erf_inv" op_name="jit(init)/erf_inv" source_file="/mnt/home/linmin/g/lib/python3.8/site-packages/haiku/_src/initializers.py" source_line=82}
  %multiply.2601 = f32[10,1,1]{2,1,0} multiply(f32[10,1,1]{2,1,0} %add.2600, f32[10,1,1]{2,1,0} %select.2560), metadata={op_type="erf_inv" op_name="jit(init)/erf_inv" source_file="/mnt/home/linmin/g/lib/python3.8/site-packages/haiku/_src/initializers.py" source_line=82}
  %add.2607 = f32[10,1,1]{2,1,0} add(f32[10,1,1]{2,1,0} %select.2606, f32[10,1,1]{2,1,0} %multiply.2601), metadata={op_type="erf_inv" op_name="jit(init)/erf_inv" source_file="/mnt/home/linmin/g/lib/python3.8/site-packages/haiku/_src/initializers.py" source_line=82}
  %multiply.2608 = f32[10,1,1]{2,1,0} multiply(f32[10,1,1]{2,1,0} %add.2607, f32[10,1,1]{2,1,0} %select.2560), metadata={op_type="erf_inv" op_name="jit(init)/erf_inv" source_file="/mnt/home/linmin/g/lib/python3.8/site-packages/haiku/_src/initializers.py" source_line=82}
  %add.2614 = f32[10,1,1]{2,1,0} add(f32[10,1,1]{2,1,0} %select.2613, f32[10,1,1]{2,1,0} %multiply.2608), metadata={op_type="erf_inv" op_name="jit(init)/erf_inv" source_file="/mnt/home/linmin/g/lib/python3.8/site-packages/haiku/_src/initializers.py" source_line=82}
  %multiply.2615 = f32[10,1,1]{2,1,0} multiply(f32[10,1,1]{2,1,0} %add.2614, f32[10,1,1]{2,1,0} %select.2560), metadata={op_type="erf_inv" op_name="jit(init)/erf_inv" source_file="/mnt/home/linmin/g/lib/python3.8/site-packages/haiku/_src/initializers.py" source_line=82}
  %add.2621 = f32[10,1,1]{2,1,0} add(f32[10,1,1]{2,1,0} %select.2620, f32[10,1,1]{2,1,0} %multiply.2615), metadata={op_type="erf_inv" op_name="jit(init)/erf_inv" source_file="/mnt/home/linmin/g/lib/python3.8/site-packages/haiku/_src/initializers.py" source_line=82}
  %multiply.2622 = f32[10,1,1]{2,1,0} multiply(f32[10,1,1]{2,1,0} %add.2621, f32[10,1,1]{2,1,0} %maximum.2545), metadata={op_type="erf_inv" op_name="jit(init)/erf_inv" source_file="/mnt/home/linmin/g/lib/python3.8/site-packages/haiku/_src/initializers.py" source_line=82}
  %select.2630 = f32[10,1,1]{2,1,0} select(pred[10,1,1]{2,1,0} %compare.2629, f32[10,1,1]{2,1,0} %multiply.2625, f32[10,1,1]{2,1,0} %multiply.2622), metadata={op_type="erf_inv" op_name="jit(init)/erf_inv" source_file="/mnt/home/linmin/g/lib/python3.8/site-packages/haiku/_src/initializers.py" source_line=82}
  %constant.2631 = f32[] constant(1.41421354), metadata={op_type="mul" op_name="jit(init)/mul" source_file="/mnt/home/linmin/g/lib/python3.8/site-packages/haiku/_src/initializers.py" source_line=82}
  %broadcast.2632 = f32[10,1,1]{2,1,0} broadcast(f32[] %constant.2631), dimensions={}, metadata={op_type="mul" op_name="jit(init)/mul" source_file="/mnt/home/linmin/g/lib/python3.8/site-packages/haiku/_src/initializers.py" source_line=82}
  %multiply.2633 = f32[10,1,1]{2,1,0} multiply(f32[10,1,1]{2,1,0} %select.2630, f32[10,1,1]{2,1,0} %broadcast.2632), metadata={op_type="mul" op_name="jit(init)/mul" source_file="/mnt/home/linmin/g/lib/python3.8/site-packages/haiku/_src/initializers.py" source_line=82}
  %multiply.2636 = f32[10,1,1]{2,1,0} multiply(f32[10,1,1]{2,1,0} %broadcast.2635, f32[10,1,1]{2,1,0} %multiply.2633), metadata={op_type="mul" op_name="jit(init)/mul" source_file="/mnt/home/linmin/g/lib/python3.8/site-packages/haiku/_src/initializers.py" source_line=82}
  %add.2639 = f32[10,1,1]{2,1,0} add(f32[10,1,1]{2,1,0} %broadcast.2638, f32[10,1,1]{2,1,0} %multiply.2636), metadata={op_type="add" op_name="jit(init)/add" source_file="/mnt/home/linmin/g/lib/python3.8/site-packages/haiku/_src/initializers.py" source_line=82}
  %compare.2641 = pred[10,1,1]{2,1,0} compare(f32[10,1,1]{2,1,0} %dot.2640, f32[10,1,1]{2,1,0} %add.2639), direction=GT, metadata={op_type="gt" op_name="jit(init)/gt" source_file="/mnt/home/linmin/projects/deepmind-research/gated_linear_networks/base.py" source_line=204}
  %convert.2642 = s32[10,1,1]{2,1,0} convert(pred[10,1,1]{2,1,0} %compare.2641), metadata={op_type="convert_element_type" op_name="jit(init)/convert_element_type[new_dtype=int32 weak_type=False]" source_file="/mnt/home/linmin/projects/deepmind-research/gated_linear_networks/base.py" source_line=204}
  %constant.4 = s32[1]{0} constant({1})
  %broadcast.2643 = s32[1,1]{1,0} broadcast(s32[1]{0} %constant.4), dimensions={1}, metadata={op_type="broadcast_in_dim" op_name="jit(init)/broadcast_in_dim[broadcast_dimensions=(1,) shape=(1, 1)]" source_file="/mnt/home/linmin/projects/deepmind-research/gated_linear_networks/base.py" source_line=206}
  %broadcast.2644 = s32[10,1,1]{2,1,0} broadcast(s32[1,1]{1,0} %broadcast.2643), dimensions={1,2}, metadata={op_type="broadcast_in_dim" op_name="jit(init)/broadcast_in_dim[broadcast_dimensions=(1, 2) shape=(10, 1, 1)]" source_file="/mnt/home/linmin/projects/deepmind-research/gated_linear_networks/base.py" source_line=206}
  %multiply.2645 = s32[10,1,1]{2,1,0} multiply(s32[10,1,1]{2,1,0} %convert.2642, s32[10,1,1]{2,1,0} %broadcast.2644), metadata={op_type="mul" op_name="jit(init)/mul" source_file="/mnt/home/linmin/projects/deepmind-research/gated_linear_networks/base.py" source_line=206}
  %constant.2646 = s32[] constant(0), metadata={op_type="reduce_sum" op_name="jit(init)/reduce_sum[axes=(2,)]" source_file="/mnt/home/linmin/projects/deepmind-research/gated_linear_networks/base.py" source_line=205}
  %reduce.2652 = s32[10,1]{1,0} reduce(s32[10,1,1]{2,1,0} %multiply.2645, s32[] %constant.2646), dimensions={2}, to_apply=%primitive_computation_add__5.2647, metadata={op_type="reduce_sum" op_name="jit(init)/reduce_sum[axes=(2,)]" source_file="/mnt/home/linmin/projects/deepmind-research/gated_linear_networks/base.py" source_line=205}
  %constant.2653 = s32[] constant(0), metadata={op_type="lt" op_name="jit(init)/lt" source_file="/mnt/home/linmin/projects/deepmind-research/gated_linear_networks/bernoulli.py" source_line=68}
  %broadcast.2654 = s32[10,1]{1,0} broadcast(s32[] %constant.2653), dimensions={}, metadata={op_type="lt" op_name="jit(init)/lt" source_file="/mnt/home/linmin/projects/deepmind-research/gated_linear_networks/bernoulli.py" source_line=68}
  %compare.2655 = pred[10,1]{1,0} compare(s32[10,1]{1,0} %reduce.2652, s32[10,1]{1,0} %broadcast.2654), direction=LT, metadata={op_type="lt" op_name="jit(init)/lt" source_file="/mnt/home/linmin/projects/deepmind-research/gated_linear_networks/bernoulli.py" source_line=68}
  %constant.2656 = s32[] constant(2), metadata={op_type="add" op_name="jit(init)/add" source_file="/mnt/home/linmin/projects/deepmind-research/gated_linear_networks/bernoulli.py" source_line=68}
  %broadcast.2657 = s32[10,1]{1,0} broadcast(s32[] %constant.2656), dimensions={}, metadata={op_type="add" op_name="jit(init)/add" source_file="/mnt/home/linmin/projects/deepmind-research/gated_linear_networks/bernoulli.py" source_line=68}
  %add.2658 = s32[10,1]{1,0} add(s32[10,1]{1,0} %reduce.2652, s32[10,1]{1,0} %broadcast.2657), metadata={op_type="add" op_name="jit(init)/add" source_file="/mnt/home/linmin/projects/deepmind-research/gated_linear_networks/bernoulli.py" source_line=68}
  %select.2659 = s32[10,1]{1,0} select(pred[10,1]{1,0} %compare.2655, s32[10,1]{1,0} %add.2658, s32[10,1]{1,0} %reduce.2652), metadata={op_type="select" op_name="jit(init)/select" source_file="/mnt/home/linmin/projects/deepmind-research/gated_linear_networks/bernoulli.py" source_line=68}
  %broadcast.2660 = s32[10,1,1]{2,1,0} broadcast(s32[10,1]{1,0} %select.2659), dimensions={0,1}, metadata={op_type="broadcast_in_dim" op_name="jit(init)/broadcast_in_dim[broadcast_dimensions=(0, 1) shape=(10, 1, 1)]" source_file="/mnt/home/linmin/projects/deepmind-research/gated_linear_networks/bernoulli.py" source_line=68}
  %concatenate.2663 = s32[10,1,2]{2,1,0} concatenate(s32[10,1,1]{2,1,0} %broadcast.2662, s32[10,1,1]{2,1,0} %broadcast.2660), dimensions={2}, metadata={op_type="concatenate" op_name="jit(init)/concatenate[dimension=2]" source_file="/mnt/home/linmin/projects/deepmind-research/gated_linear_networks/bernoulli.py" source_line=68}
  %gather.2664 = f32[10,1,101]{2,1,0} gather(f32[1,2,101]{2,1,0} %broadcast.1881, s32[10,1,2]{2,1,0} %concatenate.2663), offset_dims={2}, collapsed_slice_dims={0,1}, start_index_map={0,1}, index_vector_dim=2, slice_sizes={1,1,101}, metadata={op_type="gather" op_name="jit(init)/gather[\n  dimension_numbers=GatherDimensionNumbers(offset_dims=(2,), collapsed_slice_dims=(0, 1), start_index_map=(0, 1))\n  fill_value=None\n  indices_are_sorted=False\n  mode=GatherScatterMode.PROMISE_IN_BOUNDS\n  slice_sizes=(1, 1, 101)\n  unique_indices=False\n]" source_file="/mnt/home/linmin/projects/deepmind-research/gated_linear_networks/bernoulli.py" source_line=68}
  %constant.2679 = f32[] constant(1), metadata={op_type="div" op_name="jit(init)/div" source_file="/mnt/home/linmin/g/lib/python3.8/site-packages/rlax/_src/transforms.py" source_line=46}
  %broadcast.2680 = f32[10,101]{1,0} broadcast(f32[] %constant.2679), dimensions={}, metadata={op_type="div" op_name="jit(init)/div" source_file="/mnt/home/linmin/g/lib/python3.8/site-packages/rlax/_src/transforms.py" source_line=46}
  %constant.1869 = f32[] constant(1), metadata={op_type="div" op_name="jit(init)/div" source_file="/mnt/home/linmin/g/lib/python3.8/site-packages/rlax/_src/transforms.py" source_line=40}
  %constant.1867 = f32[] constant(1), metadata={op_type="add" op_name="jit(init)/add" source_file="/mnt/home/linmin/g/lib/python3.8/site-packages/rlax/_src/transforms.py" source_line=40}
  %constant.1863 = f32[] constant(1), metadata={op_type="custom_jvp_call_jaxpr" op_name="jit(init)/custom_jvp_call_jaxpr[\n  jvp_jaxpr_thunk=<function _memoize.<locals>.memoized at 0x7fd550409550>\n  num_consts=0\n]" source_file="/mnt/home/linmin/g/lib/python3.8/site-packages/rlax/_src/transforms.py" source_line=40}
  %negate.1865 = f32[] negate(f32[] %constant.1863), metadata={op_type="neg" op_name="jit(init)/neg" source_file="/mnt/home/linmin/g/lib/python3.8/site-packages/rlax/_src/transforms.py" source_line=40}
  %exponential.1866 = f32[] exponential(f32[] %negate.1865), metadata={op_type="exp" op_name="jit(init)/exp" source_file="/mnt/home/linmin/g/lib/python3.8/site-packages/rlax/_src/transforms.py" source_line=40}
  %add.1868 = f32[] add(f32[] %constant.1867, f32[] %exponential.1866), metadata={op_type="add" op_name="jit(init)/add" source_file="/mnt/home/linmin/g/lib/python3.8/site-packages/rlax/_src/transforms.py" source_line=40}
  %divide.1870 = f32[] divide(f32[] %constant.1869, f32[] %add.1868), metadata={op_type="div" op_name="jit(init)/div" source_file="/mnt/home/linmin/g/lib/python3.8/site-packages/rlax/_src/transforms.py" source_line=40}
  %call.1879 = f32[10,101]{1,0} call(f32[10,100]{1,0} %divide.1862, f32[] %divide.1870), to_apply=%jit_vmap_append___2.1871, metadata={op_type="xla_call" op_name="jit(init)/xla_call[\n  backend=None\n  device=None\n  donated_invars=(False, False)\n  inline=False\n  name=vmap(append)\n]" source_file="/mnt/home/linmin/projects/deepmind-research/gated_linear_networks/bernoulli.py" source_line=54}
  %constant.2665 = f32[] constant(0.01), metadata={op_type="xla_call" op_name="jit(init)/xla_call[\n  backend=None\n  device=None\n  donated_invars=(False, False, False)\n  inline=False\n  name=vmap(clip)\n]" source_file="/mnt/home/linmin/projects/deepmind-research/gated_linear_networks/bernoulli.py" source_line=69}
  %constant.2666 = f32[] constant(0.99), metadata={op_type="xla_call" op_name="jit(init)/xla_call[\n  backend=None\n  device=None\n  donated_invars=(False, False, False)\n  inline=False\n  name=vmap(clip)\n]" source_file="/mnt/home/linmin/projects/deepmind-research/gated_linear_networks/bernoulli.py" source_line=69}
  %call.2678 = f32[10,101]{1,0} call(f32[10,101]{1,0} %call.1879, f32[] %constant.2665, f32[] %constant.2666), to_apply=%jit_vmap_clip___2.2667, metadata={op_type="xla_call" op_name="jit(init)/xla_call[\n  backend=None\n  device=None\n  donated_invars=(False, False, False)\n  inline=False\n  name=vmap(clip)\n]" source_file="/mnt/home/linmin/projects/deepmind-research/gated_linear_networks/bernoulli.py" source_line=69}
  %divide.2681 = f32[10,101]{1,0} divide(f32[10,101]{1,0} %broadcast.2680, f32[10,101]{1,0} %call.2678), metadata={op_type="div" op_name="jit(init)/div" source_file="/mnt/home/linmin/g/lib/python3.8/site-packages/rlax/_src/transforms.py" source_line=46}
  %constant.2682 = f32[] constant(1), metadata={op_type="sub" op_name="jit(init)/sub" source_file="/mnt/home/linmin/g/lib/python3.8/site-packages/rlax/_src/transforms.py" source_line=46}
  %broadcast.2683 = f32[10,101]{1,0} broadcast(f32[] %constant.2682), dimensions={}, metadata={op_type="sub" op_name="jit(init)/sub" source_file="/mnt/home/linmin/g/lib/python3.8/site-packages/rlax/_src/transforms.py" source_line=46}
  %subtract.2684 = f32[10,101]{1,0} subtract(f32[10,101]{1,0} %divide.2681, f32[10,101]{1,0} %broadcast.2683), metadata={op_type="sub" op_name="jit(init)/sub" source_file="/mnt/home/linmin/g/lib/python3.8/site-packages/rlax/_src/transforms.py" source_line=46}
  %log.2685 = f32[10,101]{1,0} log(f32[10,101]{1,0} %subtract.2684), metadata={op_type="log" op_name="jit(init)/log" source_file="/mnt/home/linmin/g/lib/python3.8/site-packages/rlax/_src/transforms.py" source_line=46}
  %negate.2686 = f32[10,101]{1,0} negate(f32[10,101]{1,0} %log.2685), metadata={op_type="neg" op_name="jit(init)/neg" source_file="/mnt/home/linmin/g/lib/python3.8/site-packages/rlax/_src/transforms.py" source_line=46}
  %dot.2687 = f32[10,1]{1,0} dot(f32[10,1,101]{2,1,0} %gather.2664, f32[10,101]{1,0} %negate.2686), lhs_batch_dims={0}, lhs_contracting_dims={2}, rhs_batch_dims={0}, rhs_contracting_dims={1}, metadata={op_type="dot_general" op_name="jit(init)/dot_general[\n  dimension_numbers=(((2,), (1,)), ((0,), (0,)))\n  precision=None\n  preferred_element_type=None\n]" source_file="/mnt/home/linmin/projects/deepmind-research/gated_linear_networks/bernoulli.py" source_line=70}
  %negate.2689 = f32[10,1]{1,0} negate(f32[10,1]{1,0} %dot.2687), metadata={op_type="neg" op_name="jit(init)/neg" source_file="/mnt/home/linmin/g/lib/python3.8/site-packages/rlax/_src/transforms.py" source_line=40}
  %exponential.2690 = f32[10,1]{1,0} exponential(f32[10,1]{1,0} %negate.2689), metadata={op_type="exp" op_name="jit(init)/exp" source_file="/mnt/home/linmin/g/lib/python3.8/site-packages/rlax/_src/transforms.py" source_line=40}
  %add.2693 = f32[10,1]{1,0} add(f32[10,1]{1,0} %broadcast.2692, f32[10,1]{1,0} %exponential.2690), metadata={op_type="add" op_name="jit(init)/add" source_file="/mnt/home/linmin/g/lib/python3.8/site-packages/rlax/_src/transforms.py" source_line=40}
  %divide.2696 = f32[10,1]{1,0} divide(f32[10,1]{1,0} %broadcast.2695, f32[10,1]{1,0} %add.2693), metadata={op_type="div" op_name="jit(init)/div" source_file="/mnt/home/linmin/g/lib/python3.8/site-packages/rlax/_src/transforms.py" source_line=40}
  %concatenate.2697 = f32[10,201]{1,0} concatenate(f32[10,100]{1,0} %divide.1018, f32[10,100]{1,0} %divide.1862, f32[10,1]{1,0} %divide.2696), dimensions={1}, metadata={op_type="concatenate" op_name="jit(init)/concatenate[dimension=1]" source_file="/mnt/home/linmin/projects/deepmind-research/gated_linear_networks/base.py" source_line=166}
  %constant.2698 = s32[] constant(-1), metadata={op_type="lt" op_name="jit(init)/lt" source_file="/mnt/home/linmin/projects/deepmind-research/gated_linear_networks/base.py" source_line=343}
  %constant.2699 = s32[] constant(0), metadata={op_type="lt" op_name="jit(init)/lt" source_file="/mnt/home/linmin/projects/deepmind-research/gated_linear_networks/base.py" source_line=343}
  %compare.2700 = pred[] compare(s32[] %constant.2698, s32[] %constant.2699), direction=LT, metadata={op_type="lt" op_name="jit(init)/lt" source_file="/mnt/home/linmin/projects/deepmind-research/gated_linear_networks/base.py" source_line=343}
  %constant.2701 = s32[] constant(-1), metadata={op_type="add" op_name="jit(init)/add" source_file="/mnt/home/linmin/projects/deepmind-research/gated_linear_networks/base.py" source_line=343}
  %constant.2702 = s32[] constant(201), metadata={op_type="add" op_name="jit(init)/add" source_file="/mnt/home/linmin/projects/deepmind-research/gated_linear_networks/base.py" source_line=343}
  %add.2703 = s32[] add(s32[] %constant.2701, s32[] %constant.2702), metadata={op_type="add" op_name="jit(init)/add" source_file="/mnt/home/linmin/projects/deepmind-research/gated_linear_networks/base.py" source_line=343}
  %constant.2704 = s32[] constant(-1), metadata={op_type="select" op_name="jit(init)/select" source_file="/mnt/home/linmin/projects/deepmind-research/gated_linear_networks/base.py" source_line=343}
  %select.2705 = s32[] select(pred[] %compare.2700, s32[] %add.2703, s32[] %constant.2704), metadata={op_type="select" op_name="jit(init)/select" source_file="/mnt/home/linmin/projects/deepmind-research/gated_linear_networks/base.py" source_line=343}
  %broadcast.2706 = s32[1]{0} broadcast(s32[] %select.2705), dimensions={}, metadata={op_type="broadcast_in_dim" op_name="jit(init)/broadcast_in_dim[broadcast_dimensions=() shape=(1,)]" source_file="/mnt/home/linmin/projects/deepmind-research/gated_linear_networks/base.py" source_line=343}
  %gather.2707 = f32[10]{0} gather(f32[10,201]{1,0} %concatenate.2697, s32[1]{0} %broadcast.2706), offset_dims={0}, collapsed_slice_dims={1}, start_index_map={1}, index_vector_dim=0, slice_sizes={10,1}, indices_are_sorted=true, metadata={op_type="gather" op_name="jit(init)/gather[\n  dimension_numbers=GatherDimensionNumbers(offset_dims=(0,), collapsed_slice_dims=(1,), start_index_map=(1,))\n  fill_value=None\n  indices_are_sorted=True\n  mode=GatherScatterMode.PROMISE_IN_BOUNDS\n  slice_sizes=(10, 1)\n  unique_indices=True\n]" source_file="/mnt/home/linmin/projects/deepmind-research/gated_linear_networks/base.py" source_line=343}
  %broadcast.2708 = f32[10,100,2,785]{3,2,1,0} broadcast(f32[100,2,785]{2,1,0} %broadcast.193), dimensions={1,2,3}, metadata={op_type="broadcast_in_dim" op_name="jit(init)/broadcast_in_dim[\n  broadcast_dimensions=(1, 2, 3)\n  shape=(10, 100, 2, 785)\n]" source_file="/mnt/home/linmin/projects/deepmind-research/gated_linear_networks/examples/bernoulli_mnist.py" source_line=124}
  %broadcast.2709 = f32[10,100,2,101]{3,2,1,0} broadcast(f32[100,2,101]{2,1,0} %broadcast.1037), dimensions={1,2,3}, metadata={op_type="broadcast_in_dim" op_name="jit(init)/broadcast_in_dim[\n  broadcast_dimensions=(1, 2, 3)\n  shape=(10, 100, 2, 101)\n]" source_file="/mnt/home/linmin/projects/deepmind-research/gated_linear_networks/examples/bernoulli_mnist.py" source_line=124}
  %broadcast.2710 = f32[10,1,2,101]{3,2,1,0} broadcast(f32[1,2,101]{2,1,0} %broadcast.1881), dimensions={1,2,3}, metadata={op_type="broadcast_in_dim" op_name="jit(init)/broadcast_in_dim[broadcast_dimensions=(1, 2, 3) shape=(10, 1, 2, 101)]" source_file="/mnt/home/linmin/projects/deepmind-research/gated_linear_networks/examples/bernoulli_mnist.py" source_line=124}
  %constant.2711 = s32[] constant(0), metadata={op_type="broadcast_in_dim" op_name="jit(init)/broadcast_in_dim[broadcast_dimensions=() shape=(10,)]" source_file="/mnt/home/linmin/projects/deepmind-research/gated_linear_networks/examples/bernoulli_mnist.py" source_line=124}
  %broadcast.2712 = s32[10]{0} broadcast(s32[] %constant.2711), dimensions={}, metadata={op_type="broadcast_in_dim" op_name="jit(init)/broadcast_in_dim[broadcast_dimensions=() shape=(10,)]" source_file="/mnt/home/linmin/projects/deepmind-research/gated_linear_networks/examples/bernoulli_mnist.py" source_line=124}
  %broadcast.2713 = f32[10,784]{1,0} broadcast(f32[784]{0} %broadcast.139), dimensions={1}, metadata={op_type="broadcast_in_dim" op_name="jit(init)/broadcast_in_dim[broadcast_dimensions=(1,) shape=(10, 784)]" source_file="/mnt/home/linmin/projects/deepmind-research/gated_linear_networks/examples/bernoulli_mnist.py" source_line=124}
  %broadcast.2714 = f32[10,784]{1,0} broadcast(f32[784]{0} %broadcast.137), dimensions={1}, metadata={op_type="broadcast_in_dim" op_name="jit(init)/broadcast_in_dim[broadcast_dimensions=(1,) shape=(10, 784)]" source_file="/mnt/home/linmin/projects/deepmind-research/gated_linear_networks/examples/bernoulli_mnist.py" source_line=124}
  ROOT %tuple.2715 = (f32[10,100,2,785]{3,2,1,0}, f32[10,100,2,101]{3,2,1,0}, f32[10,1,2,101]{3,2,1,0}, f32[10,100,1]{2,1,0}, f32[10,100,1,784]{3,2,1,0}, /*index=5*/f32[10,100,1]{2,1,0}, f32[10,100,1,784]{3,2,1,0}, f32[10,1,1]{2,1,0}, f32[10,1,1,784]{3,2,1,0}, s32[10]{0}, /*index=10*/f32[10,784]{1,0}, f32[10,784]{1,0}) tuple(f32[10,100,2,785]{3,2,1,0} %broadcast.2708, f32[10,100,2,101]{3,2,1,0} %broadcast.2709, f32[10,1,2,101]{3,2,1,0} %broadcast.2710, f32[10,100,1]{2,1,0} %add.961, f32[10,100,1,784]{3,2,1,0} %divide.584, /*index=5*/f32[10,100,1]{2,1,0} %add.1805, f32[10,100,1,784]{3,2,1,0} %divide.1428, f32[10,1,1]{2,1,0} %add.2639, f32[10,1,1,784]{3,2,1,0} %divide.2272, s32[10]{0} %broadcast.2712, /*index=10*/f32[10,784]{1,0} %broadcast.2713, f32[10,784]{1,0} %broadcast.2714)
}

