HloModule jit__unstack.6

ENTRY %main.9 (Arg_0.1: u32[3,2]) -> (u32[2], u32[2], u32[2]) {
  %Arg_0.1 = u32[3,2]{1,0} parameter(0)
  %slice.2 = u32[1,2]{1,0} slice(u32[3,2]{1,0} %Arg_0.1), slice={[0:1], [0:2]}
  %reshape.3 = u32[2]{0} reshape(u32[1,2]{1,0} %slice.2)
  %slice.4 = u32[1,2]{1,0} slice(u32[3,2]{1,0} %Arg_0.1), slice={[1:2], [0:2]}
  %reshape.5 = u32[2]{0} reshape(u32[1,2]{1,0} %slice.4)
  %slice.6 = u32[1,2]{1,0} slice(u32[3,2]{1,0} %Arg_0.1), slice={[2:3], [0:2]}
  %reshape.7 = u32[2]{0} reshape(u32[1,2]{1,0} %slice.6)
  ROOT %tuple.8 = (u32[2]{0}, u32[2]{0}, u32[2]{0}) tuple(u32[2]{0} %reshape.3, u32[2]{0} %reshape.5, u32[2]{0} %reshape.7)
}

