HloModule jit_train_step.26

%jit_relu.49 (Arg_0.50: f32[200,32]) -> f32[200,32] {
  %Arg_0.50 = f32[200,32]{1,0} parameter(0)
  %constant.51 = f32[] constant(0)
  %broadcast.52 = f32[200,32]{1,0} broadcast(f32[] %constant.51), dimensions={}
  ROOT %maximum.53 = f32[200,32]{1,0} maximum(f32[200,32]{1,0} %Arg_0.50, f32[200,32]{1,0} %broadcast.52)
}

%jit_relu_0.62 (Arg_0.63: f32[200,32]) -> f32[200,32] {
  %Arg_0.63 = f32[200,32]{1,0} parameter(0)
  %constant.64 = f32[] constant(0)
  %broadcast.65 = f32[200,32]{1,0} broadcast(f32[] %constant.64), dimensions={}
  ROOT %maximum.66 = f32[200,32]{1,0} maximum(f32[200,32]{1,0} %Arg_0.63, f32[200,32]{1,0} %broadcast.65)
}

%region_0.78 (Arg_0.79: f32[], Arg_1.80: f32[]) -> f32[] {
  %Arg_0.79 = f32[] parameter(0)
  %Arg_1.80 = f32[] parameter(1)
  ROOT %add.81 = f32[] add(f32[] %Arg_0.79, f32[] %Arg_1.80)
}

%region_1.86 (Arg_0.87: f32[], Arg_1.88: f32[]) -> f32[] {
  %Arg_0.87 = f32[] parameter(0)
  %Arg_1.88 = f32[] parameter(1)
  ROOT %add.89 = f32[] add(f32[] %Arg_0.87, f32[] %Arg_1.88)
}

%region_2.92 (Arg_0.93: f32[], Arg_1.94: f32[]) -> f32[] {
  %Arg_0.93 = f32[] parameter(0)
  %Arg_1.94 = f32[] parameter(1)
  ROOT %add.95 = f32[] add(f32[] %Arg_0.93, f32[] %Arg_1.94)
}

%region_3.102 (Arg_0.103: f32[], Arg_1.104: f32[]) -> f32[] {
  %Arg_0.103 = f32[] parameter(0)
  %Arg_1.104 = f32[] parameter(1)
  ROOT %add.105 = f32[] add(f32[] %Arg_0.103, f32[] %Arg_1.104)
}

%region_4.108 (Arg_0.109: f32[], Arg_1.110: f32[]) -> f32[] {
  %Arg_0.109 = f32[] parameter(0)
  %Arg_1.110 = f32[] parameter(1)
  ROOT %add.111 = f32[] add(f32[] %Arg_0.109, f32[] %Arg_1.110)
}

%region_5.117 (Arg_0.118: f32[], Arg_1.119: f32[]) -> f32[] {
  %Arg_0.118 = f32[] parameter(0)
  %Arg_1.119 = f32[] parameter(1)
  ROOT %add.120 = f32[] add(f32[] %Arg_0.118, f32[] %Arg_1.119)
}

%region_6.123 (Arg_0.124: f32[], Arg_1.125: f32[]) -> f32[] {
  %Arg_0.124 = f32[] parameter(0)
  %Arg_1.125 = f32[] parameter(1)
  ROOT %add.126 = f32[] add(f32[] %Arg_0.124, f32[] %Arg_1.125)
}

ENTRY %main.156 (Arg_0.1: s32[], Arg_1.2: f32[32], Arg_2.3: f32[1,32], Arg_3.4: f32[32], Arg_4.5: f32[32,32], Arg_5.6: f32[1], Arg_6.7: f32[32,1], Arg_7.8: f32[32], Arg_8.9: f32[1,32], Arg_9.10: f32[32], Arg_10.11: f32[32,32], Arg_11.12: f32[1], Arg_12.13: f32[32,1], Arg_13.14: f32[200,1], Arg_14.15: f32[200,1]) -> (s32[], f32[32], f32[1,32], f32[32], f32[32,32], /*index=5*/f32[1], f32[32,1], f32[32], f32[1,32], f32[32], /*index=10*/f32[32,32], f32[1], f32[32,1], f32[]) {
  %Arg_0.1 = s32[] parameter(0)
  %constant.16 = s32[] constant(1)
  %add.154 = s32[] add(s32[] %Arg_0.1, s32[] %constant.16)
  %Arg_1.2 = f32[32]{0} parameter(1)
  %constant.29 = f32[] constant(0.9)
  %broadcast.30 = f32[32]{0} broadcast(f32[] %constant.29), dimensions={}
  %multiply.130 = f32[32]{0} multiply(f32[32]{0} %Arg_1.2, f32[32]{0} %broadcast.30)
  %Arg_13.14 = f32[200,1]{1,0} parameter(13)
  %Arg_8.9 = f32[1,32]{1,0} parameter(8)
  %dot.43 = f32[200,32]{1,0} dot(f32[200,1]{1,0} %Arg_13.14, f32[1,32]{1,0} %Arg_8.9), lhs_contracting_dims={1}, rhs_contracting_dims={0}
  %Arg_7.8 = f32[32]{0} parameter(7)
  %reshape.44 = f32[1,32]{1,0} reshape(f32[32]{0} %Arg_7.8)
  %broadcast.45 = f32[1,32]{1,0} broadcast(f32[1,32]{1,0} %reshape.44), dimensions={0,1}
  %reshape.46 = f32[32]{0} reshape(f32[1,32]{1,0} %broadcast.45)
  %broadcast.47 = f32[200,32]{1,0} broadcast(f32[32]{0} %reshape.46), dimensions={1}
  %add.48 = f32[200,32]{1,0} add(f32[200,32]{1,0} %dot.43, f32[200,32]{1,0} %broadcast.47)
  %constant.36 = f32[] constant(0)
  %broadcast.37 = f32[200,32]{1,0} broadcast(f32[] %constant.36), dimensions={}
  %compare.55 = pred[200,32]{1,0} compare(f32[200,32]{1,0} %add.48, f32[200,32]{1,0} %broadcast.37), direction=GT
  %call.54 = f32[200,32]{1,0} call(f32[200,32]{1,0} %add.48), to_apply=%jit_relu.49
  %Arg_10.11 = f32[32,32]{1,0} parameter(10)
  %dot.56 = f32[200,32]{1,0} dot(f32[200,32]{1,0} %call.54, f32[32,32]{1,0} %Arg_10.11), lhs_contracting_dims={1}, rhs_contracting_dims={0}
  %Arg_9.10 = f32[32]{0} parameter(9)
  %reshape.57 = f32[1,32]{1,0} reshape(f32[32]{0} %Arg_9.10)
  %broadcast.58 = f32[1,32]{1,0} broadcast(f32[1,32]{1,0} %reshape.57), dimensions={0,1}
  %reshape.59 = f32[32]{0} reshape(f32[1,32]{1,0} %broadcast.58)
  %broadcast.60 = f32[200,32]{1,0} broadcast(f32[32]{0} %reshape.59), dimensions={1}
  %add.61 = f32[200,32]{1,0} add(f32[200,32]{1,0} %dot.56, f32[200,32]{1,0} %broadcast.60)
  %compare.68 = pred[200,32]{1,0} compare(f32[200,32]{1,0} %add.61, f32[200,32]{1,0} %broadcast.37), direction=GT
  %Arg_14.15 = f32[200,1]{1,0} parameter(14)
  %call.67 = f32[200,32]{1,0} call(f32[200,32]{1,0} %add.61), to_apply=%jit_relu_0.62
  %Arg_12.13 = f32[32,1]{1,0} parameter(12)
  %dot.69 = f32[200,1]{1,0} dot(f32[200,32]{1,0} %call.67, f32[32,1]{1,0} %Arg_12.13), lhs_contracting_dims={1}, rhs_contracting_dims={0}
  %Arg_11.12 = f32[1]{0} parameter(11)
  %reshape.70 = f32[1,1]{1,0} reshape(f32[1]{0} %Arg_11.12)
  %broadcast.71 = f32[1,1]{1,0} broadcast(f32[1,1]{1,0} %reshape.70), dimensions={0,1}
  %reshape.72 = f32[1]{0} reshape(f32[1,1]{1,0} %broadcast.71)
  %broadcast.73 = f32[200,1]{1,0} broadcast(f32[1]{0} %reshape.72), dimensions={1}
  %add.74 = f32[200,1]{1,0} add(f32[200,1]{1,0} %dot.69, f32[200,1]{1,0} %broadcast.73)
  %subtract.75 = f32[200,1]{1,0} subtract(f32[200,1]{1,0} %Arg_14.15, f32[200,1]{1,0} %add.74)
  %constant.41 = f32[] constant(2)
  %broadcast.42 = f32[200,1]{1,0} broadcast(f32[] %constant.41), dimensions={}
  %multiply.77 = f32[200,1]{1,0} multiply(f32[200,1]{1,0} %subtract.75, f32[200,1]{1,0} %broadcast.42)
  %constant.38 = f32[] constant(0.005)
  %broadcast.39 = f32[200,1]{1,0} broadcast(f32[] %constant.38), dimensions={}
  %multiply.84 = f32[200,1]{1,0} multiply(f32[200,1]{1,0} %multiply.77, f32[200,1]{1,0} %broadcast.39)
  %negate.85 = f32[200,1]{1,0} negate(f32[200,1]{1,0} %multiply.84)
  %dot.100 = f32[200,32]{1,0} dot(f32[200,1]{1,0} %negate.85, f32[32,1]{1,0} %Arg_12.13), lhs_contracting_dims={1}, rhs_contracting_dims={1}
  %select.101 = f32[200,32]{1,0} select(pred[200,32]{1,0} %compare.68, f32[200,32]{1,0} %dot.100, f32[200,32]{1,0} %broadcast.37)
  %dot.115 = f32[200,32]{1,0} dot(f32[200,32]{1,0} %select.101, f32[32,32]{1,0} %Arg_10.11), lhs_contracting_dims={1}, rhs_contracting_dims={1}
  %select.116 = f32[200,32]{1,0} select(pred[200,32]{1,0} %compare.55, f32[200,32]{1,0} %dot.115, f32[200,32]{1,0} %broadcast.37)
  %constant.35 = f32[] constant(0)
  %reduce.121 = f32[32]{0} reduce(f32[200,32]{1,0} %select.116, f32[] %constant.35), dimensions={0}, to_apply=%region_5.117
  %reshape.122 = f32[1,32]{1,0} reshape(f32[32]{0} %reduce.121)
  %reduce.127 = f32[32]{0} reduce(f32[1,32]{1,0} %reshape.122, f32[] %constant.35), dimensions={0}, to_apply=%region_6.123
  %add.131 = f32[32]{0} add(f32[32]{0} %multiply.130, f32[32]{0} %reduce.127)
  %Arg_2.3 = f32[1,32]{1,0} parameter(2)
  %constant.33 = f32[] constant(0.9)
  %broadcast.34 = f32[1,32]{1,0} broadcast(f32[] %constant.33), dimensions={}
  %multiply.134 = f32[1,32]{1,0} multiply(f32[1,32]{1,0} %Arg_2.3, f32[1,32]{1,0} %broadcast.34)
  %dot.128 = f32[32,1]{1,0} dot(f32[200,32]{1,0} %select.116, f32[200,1]{1,0} %Arg_13.14), lhs_contracting_dims={0}, rhs_contracting_dims={0}
  %transpose.129 = f32[1,32]{0,1} transpose(f32[32,1]{1,0} %dot.128), dimensions={1,0}
  %add.135 = f32[1,32]{1,0} add(f32[1,32]{1,0} %multiply.134, f32[1,32]{0,1} %transpose.129)
  %Arg_3.4 = f32[32]{0} parameter(3)
  %multiply.138 = f32[32]{0} multiply(f32[32]{0} %Arg_3.4, f32[32]{0} %broadcast.30)
  %reduce.106 = f32[32]{0} reduce(f32[200,32]{1,0} %select.101, f32[] %constant.35), dimensions={0}, to_apply=%region_3.102
  %reshape.107 = f32[1,32]{1,0} reshape(f32[32]{0} %reduce.106)
  %reduce.112 = f32[32]{0} reduce(f32[1,32]{1,0} %reshape.107, f32[] %constant.35), dimensions={0}, to_apply=%region_4.108
  %add.139 = f32[32]{0} add(f32[32]{0} %multiply.138, f32[32]{0} %reduce.112)
  %Arg_4.5 = f32[32,32]{1,0} parameter(4)
  %constant.25 = f32[] constant(0.9)
  %broadcast.26 = f32[32,32]{1,0} broadcast(f32[] %constant.25), dimensions={}
  %multiply.142 = f32[32,32]{1,0} multiply(f32[32,32]{1,0} %Arg_4.5, f32[32,32]{1,0} %broadcast.26)
  %dot.113 = f32[32,32]{1,0} dot(f32[200,32]{1,0} %select.101, f32[200,32]{1,0} %call.54), lhs_contracting_dims={0}, rhs_contracting_dims={0}
  %transpose.114 = f32[32,32]{0,1} transpose(f32[32,32]{1,0} %dot.113), dimensions={1,0}
  %add.143 = f32[32,32]{1,0} add(f32[32,32]{1,0} %multiply.142, f32[32,32]{0,1} %transpose.114)
  %Arg_5.6 = f32[1]{0} parameter(5)
  %constant.22 = f32[1]{0} constant({0.9})
  %multiply.146 = f32[1]{0} multiply(f32[1]{0} %Arg_5.6, f32[1]{0} %constant.22)
  %reduce.90 = f32[1]{0} reduce(f32[200,1]{1,0} %negate.85, f32[] %constant.35), dimensions={0}, to_apply=%region_1.86
  %reshape.91 = f32[1,1]{1,0} reshape(f32[1]{0} %reduce.90)
  %reduce.96 = f32[] reduce(f32[1,1]{1,0} %reshape.91, f32[] %constant.35), dimensions={0,1}, to_apply=%region_2.92
  %reshape.97 = f32[1]{0} reshape(f32[] %reduce.96)
  %add.147 = f32[1]{0} add(f32[1]{0} %multiply.146, f32[1]{0} %reshape.97)
  %Arg_6.7 = f32[32,1]{1,0} parameter(6)
  %constant.19 = f32[] constant(0.9)
  %broadcast.20 = f32[32,1]{1,0} broadcast(f32[] %constant.19), dimensions={}
  %multiply.150 = f32[32,1]{1,0} multiply(f32[32,1]{1,0} %Arg_6.7, f32[32,1]{1,0} %broadcast.20)
  %dot.98 = f32[1,32]{1,0} dot(f32[200,1]{1,0} %negate.85, f32[200,32]{1,0} %call.67), lhs_contracting_dims={0}, rhs_contracting_dims={0}
  %transpose.99 = f32[32,1]{0,1} transpose(f32[1,32]{1,0} %dot.98), dimensions={1,0}
  %add.151 = f32[32,1]{1,0} add(f32[32,1]{1,0} %multiply.150, f32[32,1]{0,1} %transpose.99)
  %constant.27 = f32[] constant(0.01)
  %broadcast.28 = f32[32]{0} broadcast(f32[] %constant.27), dimensions={}
  %multiply.132 = f32[32]{0} multiply(f32[32]{0} %add.131, f32[32]{0} %broadcast.28)
  %subtract.133 = f32[32]{0} subtract(f32[32]{0} %Arg_7.8, f32[32]{0} %multiply.132)
  %constant.31 = f32[] constant(0.01)
  %broadcast.32 = f32[1,32]{1,0} broadcast(f32[] %constant.31), dimensions={}
  %multiply.136 = f32[1,32]{1,0} multiply(f32[1,32]{1,0} %add.135, f32[1,32]{1,0} %broadcast.32)
  %subtract.137 = f32[1,32]{1,0} subtract(f32[1,32]{1,0} %Arg_8.9, f32[1,32]{1,0} %multiply.136)
  %multiply.140 = f32[32]{0} multiply(f32[32]{0} %add.139, f32[32]{0} %broadcast.28)
  %subtract.141 = f32[32]{0} subtract(f32[32]{0} %Arg_9.10, f32[32]{0} %multiply.140)
  %constant.23 = f32[] constant(0.01)
  %broadcast.24 = f32[32,32]{1,0} broadcast(f32[] %constant.23), dimensions={}
  %multiply.144 = f32[32,32]{1,0} multiply(f32[32,32]{1,0} %add.143, f32[32,32]{1,0} %broadcast.24)
  %subtract.145 = f32[32,32]{1,0} subtract(f32[32,32]{1,0} %Arg_10.11, f32[32,32]{1,0} %multiply.144)
  %constant.21 = f32[1]{0} constant({0.01})
  %multiply.148 = f32[1]{0} multiply(f32[1]{0} %add.147, f32[1]{0} %constant.21)
  %subtract.149 = f32[1]{0} subtract(f32[1]{0} %Arg_11.12, f32[1]{0} %multiply.148)
  %constant.17 = f32[] constant(0.01)
  %broadcast.18 = f32[32,1]{1,0} broadcast(f32[] %constant.17), dimensions={}
  %multiply.152 = f32[32,1]{1,0} multiply(f32[32,1]{1,0} %add.151, f32[32,1]{1,0} %broadcast.18)
  %subtract.153 = f32[32,1]{1,0} subtract(f32[32,1]{1,0} %Arg_12.13, f32[32,1]{1,0} %multiply.152)
  %multiply.76 = f32[200,1]{1,0} multiply(f32[200,1]{1,0} %subtract.75, f32[200,1]{1,0} %subtract.75)
  %reduce.82 = f32[] reduce(f32[200,1]{1,0} %multiply.76, f32[] %constant.35), dimensions={0,1}, to_apply=%region_0.78
  %constant.40 = f32[] constant(200)
  %divide.83 = f32[] divide(f32[] %reduce.82, f32[] %constant.40)
  ROOT %tuple.155 = (s32[], f32[32]{0}, f32[1,32]{1,0}, f32[32]{0}, f32[32,32]{1,0}, /*index=5*/f32[1]{0}, f32[32,1]{1,0}, f32[32]{0}, f32[1,32]{1,0}, f32[32]{0}, /*index=10*/f32[32,32]{1,0}, f32[1]{0}, f32[32,1]{1,0}, f32[]) tuple(s32[] %add.154, f32[32]{0} %add.131, f32[1,32]{1,0} %add.135, f32[32]{0} %add.139, f32[32,32]{1,0} %add.143, /*index=5*/f32[1]{0} %add.147, f32[32,1]{1,0} %add.151, f32[32]{0} %subtract.133, f32[1,32]{1,0} %subtract.137, f32[32]{0} %subtract.141, /*index=10*/f32[32,32]{1,0} %subtract.145, f32[1]{0} %subtract.149, f32[32,1]{1,0} %subtract.153, f32[] %divide.83)
}

